Bachelor/BikeSharing/lightning_logs/version_0/checkpoints/epoch=49-step=3050.ckpt (torch, 58651 bytes, 4 tensors)

fc1.weight f4 [10, 1350]
0	0x3bce8b94	0.00630326
1	0xbbd3e578	-0.006466564
2	0x3cd2e42d	0.025743568
3	0x3ca2b6cd	0.019862557
4	0x3c67e476	0.01415359
5	0xbb9f6eac	-0.004865488
6	0x3cdc869b	0.026919654
7	0xbaf0f5e0	-0.0018383823
8	0x3c9175c9	0.01775636
9	0xbbaacd84	-0.0052124877
10	0xbb3e9a18	-0.0029083546
11	0xba25aac0	-0.0006319694
12	0x3c424856	0.011858067
13	0x3ccb2fcf	0.02480307
14	0x3c9dd0b7	0.019264562
15	0xbb1e7908	-0.0024181027
16	0x3c2fe55a	0.010735834
17	0x3c029f0a	0.007972488
18	0xbc08a57e	-0.008340238
19	0xbb8247c4	-0.0039758403
20	0xbc63fd22	-0.013915332
21	0xb9a31500	-0.0003110543
22	0x3bdb0974	0.0066844765
23	0x3c8e7e59	0.017394232
24	0x3ca88f23	0.020576065
25	0xba29e1a0	-0.0006480459
26	0x3cb281cf	0.021790413
27	0x3b0fe070	0.0021953844
28	0xbccb3e68	-0.024810031
29	0xbbc856a8	-0.006113846
30	0xbc5e0b2f	-0.013552471
31	0x3cc0aad5	0.023518959
32	0x3cd21a91	0.025647433
33	0x3bc1bf0c	0.005912667
34	0x3c43b87e	0.011945842
35	0xbcc43847	-0.023952616
36	0xbc808a0c	-0.015690826
37	0xb9e1de40	-0.00043080933
38	0x3c9abc11	0.018888505
39	0x3cba72fb	0.022759905
40	0xbc8613a5	-0.01636679
41	0x3ca66c15	0.02031521
42	0xbcaa6c12	-0.020803485
43	0xbc7028c6	-0.014658159
44	0xbb0760c8	-0.0020657051
45	0xbb0841c8	-0.0020791162
46	0xbbf5decc	-0.007503366
47	0xbbde4b48	-0.0067838766
48	0x3c879db9	0.0165547
49	0xbb2baf78	-0.0026197117
50	0x3c9edef9	0.019393431
51	0xbcd64310	-0.026155025
52	0xbb750918	-0.0037389454
53	0x39a825c0	0.00032071583
54	0x3c9e683f	0.019336818
55	0x3ca87313	0.020562684
56	0x3a8210d0	0.0009923223
57	0xbb0063f8	-0.0019590836
58	0xbb31ee60	-0.002715014
59	0xbab62310	-0.0013895947
60	0xbb46eb88	-0.003035279
61	0x3cad5d07	0.021162523
62	0xb944f800	-0.00018784404
63	0xbb709218	-0.0036708172
64	0x3c60042e	0.0136728715
65	0x3cbab309	0.022790449
66	0x3c17ec5e	0.009272663
67	0x3cb297bb	0.021800866
68	0xbc878fe1	-0.016548099
69	0xbbbdcfac	-0.0057925787
70	0x3c0762ae	0.008263273
71	0x3c5e99fa	0.013586516
72	0x3b732d58	0.0037105884
73	0x3c560096	0.013061663
74	0xbb290d88	-0.0025795419
75	0xbc72763f	-0.0147987
76	0x3a939140	0.0011258498
77	0xbca2d57e	-0.019877192
78	0xbcc2101a	-0.023689318
79	0xbbb55ec0	-0.0055349767
80	0xbc0ebae4	-0.00871155
81	0x3ab5f040	0.0013880804
82	0xb95d3b00	-0.00021098182
83	0xbbbad98c	-0.005702203
84	0x3baf40b4	0.0053482894
85	0xbc835723	-0.016032761
86	0xbb982f70	-0.004644327
87	0xbbc8f3cc	-0.0061325785
88	0x3ca54ff7	0.020179732
89	0x3ca47ea5	0.02007992
90	0x3b8495f4	0.004046196
91	0xb95d6700	-0.00021114573
92	0xbcc0f956	-0.023556393
93	0xbcb8515f	-0.022499738
94	0x3c2bf5de	0.010495631
95	0xbb381020	-0.0028085783
96	0xbb6b2250	-0.0035878606
97	0x3cd05921	0.025433125
98	0xbc441768	-0.011968471
99	0x3c3735e6	0.011182284
100	0xbb0e7738	-0.002173854
101	0x3c97b8d5	0.018520752
102	0xbc8c47c6	-0.017124068
103	0x3cb0ce0f	0.021582631
104	0x3c9a4d0b	0.018835565
105	0xbc18966c	-0.009313207
106	0x3cb0b0fb	0.021568766
107	0x3c094d32	0.008380221
108	0xba594e60	-0.0008289572
109	0x3cdccac1	0.02695215
110	0x39c10340	0.0003681425
111	0x3bc80214	0.0061037634
112	0x3b4b7b10	0.0031048693
113	0x3b9a901c	0.004716886
114	0x3c77cf8a	0.015125165
115	0x3c16623e	0.009178696
116	0xbc52f75e	-0.01287636
117	0xbbac3afc	-0.005256055
118	0x3c6033d6	0.013684234
119	0x3c6a9c1e	0.014319448
120	0x3cc789e5	0.024357745
121	0x3ca740f7	0.02041672
122	0xbb20bfe8	-0.0024528448
123	0x3cb6f099	0.022331523
124	0x3b444568	0.0029948596
125	0x3c6c7ae6	0.014433598
126	0x3c2579aa	0.010099808
127	0x3c8b51d9	0.017006801
128	0x3cb1f079	0.021721112
129	0x34990000	2.849847e-07
130	0x3ccc14fd	0.024912352
131	0xba224fa0	-0.00061916746
132	0xbca1e5cf	-0.019762902
133	0xbcd1611f	-0.025559006
134	0xbc2a79ba	-0.010404998
135	0x3cc3a231	0.02388105
136	0x3cd41f17	0.025893731
137	0x3c30c9c2	0.01079029
138	0xbccb5d47	-0.024824752
139	0x3cd8d4db	0.026468685
140	0x3ae37750	0.0017354283
141	0xbbdeb8b8	-0.0067969225
142	0xbc1c9f1c	-0.009559419
143	0x3ca9e5c3	0.020739442
144	0xbcab7cf9	-0.020933615
145	0xbc6684ce	-0.014069749
146	0xbcc87c1c	-0.024473242
147	0x3cbabe91	0.022795947
148	0xbc6d924c	-0.014500212
149	0x3ca4f5a3	0.02013666
150	0xbc67edd2	-0.014155822
151	0xbbbf2380	-0.0058330894
152	0x3caa149f	0.020761786
153	0x3c456bae	0.012049599
154	0xbc8427c2	-0.01613224
155	0xbcb494ce	-0.022043612
156	0xbccdfcb0	-0.025144905
157	0xbca07602	-0.01958752
158	0xbc2135ce	-0.009839488
159	0xbb0e9c98	-0.0021760818
160	0xbc2c6372	-0.0105217565
161	0xbb0b6320	-0.00212688
162	0xbc23203c	-0.009956416
163	0x3c6e729e	0.014553694
164	0x3b561e78	0.003267197
165	0x3c3d7e1a	0.0115657095
166	0x3cbe13db	0.023202827
167	0x3c5c77aa	0.0134562645
168	0x3c99ba01	0.018765451
169	0xba68dee0	-0.00088833086
170	0x3bd2446c	0.006416848
171	0x3c161276	0.009159675
172	0x3a4aed00	0.0007741004
173	0x3bdeb11c	0.0067960154
174	0x3cb5de91	0.022200854
175	0x3c20c23e	0.009811936
176	0x3b629280	0.0034572184
177	0xbcb182bc	-0.021668784
178	0x3b807b80	0.0039209723
179	0xbaffae60	-0.0019506924
180	0x3b97de64	0.0046346653
181	0xbcdd0d0d	-0.026983762
182	0xbc29fff2	-0.0103759635
183	0x3c299c32	0.010352181
184	0xbc34b630	-0.011029765
185	0xbc9474f4	-0.018122174
186	0x3b94b83c	0.004538564
187	0x3c5b35da	0.013379538
188	0x3c9f95a1	0.019480528
189	0xbcd41ddf	-0.02589315
190	0xbc5bed08	-0.013423212
191	0xbc83c601	-0.016085627
192	0xbc3cdb78	-0.011526935
193	0x3cc218cf	0.02369347
194	0x3c553c2a	0.0130148325
195	0x3cdb3f1f	0.026763497
196	0xbc1bd82c	-0.009511989
197	0x3ba0fa7c	0.0049126726
198	0xbc198b4a	-0.009371588
199	0xbbdeb894	-0.006796906
200	0x3c342a26	0.010996377
201	0xbc9f6fc0	-0.019462466
202	0xbc741b8f	-0.014899149
203	0x3c3f1096	0.011661669
204	0xbb9240d4	-0.0044632945
205	0x3c80a24d	0.015702391
206	0xbcc02095	-0.023453036
207	0xbcad4dc7	-0.021155251
208	0xbcc28223	-0.023743695
209	0xbcda1fc2	-0.026626471
210	0xbcc2ffa9	-0.023803549
211	0x3ca8bf7f	0.020599125
212	0x3b1923c0	0.0023367256
213	0x3b27b220	0.0025588349
214	0xbcbbbb6c	-0.022916518
215	0x3b31b370	0.002711501
216	0xbb84e8e8	-0.004056085
217	0x3c9b1bab	0.018934092
218	0xba925d40	-0.0011166707
219	0x3c8ce9a9	0.017201262
220	0x3cc0cf63	0.02353639
221	0xbc05c66a	-0.008164981
222	0x3b4bc8c0	0.0031094998
223	0xbc833d98	-0.016020581
224	0x3be9e084	0.00713736
225	0x3c2b055a	0.010438288
226	0xbc88e226	-0.016709398
227	0x3c5072d6	0.0127226915
228	0x3b672dd8	0.0035275128
229	0x3c851c9d	0.016248995
230	0x3cbd2fcd	0.023094082
231	0xbc5f3a36	-0.013624718
232	0xbcdcd1e1	-0.026955547
233	0xbcc48107	-0.023987306
234	0x3cdd8edd	0.027045662
235	0xbbd57878	-0.006514605
236	0x3ccbbc59	0.024870085
237	0x3cd739a9	0.026272612
238	0xbcbcb4ca	-0.023035426
239	0x3cb618b7	0.022228582
240	0xbc916960	-0.017750442
241	0xbc8c295a	-0.017109562
242	0xbc6f7cf9	-0.014617198
243	0xbcc9f390	-0.024652272
244	0x3bb53ecc	0.0055311676
245	0x3c82ffb3	0.015991068
246	0x3c8b57b3	0.017009592
247	0x3c85c1cd	0.016327763
248	0xbbf21cc4	-0.007388683
249	0x3bffd66c	0.0078075435
250	0xbcd2d0c7	-0.025734318
251	0x3ae57b60	0.0017508082
252	0xbbc2fe80	-0.005950749
253	0xba35d760	-0.00069366954
254	0xbc99879d	-0.018741423
255	0xbbf91644	-0.007601531

fc1.bias f4 [10]
0	0xbc2529d6	-0.010080775
1	0x3c76832a	0.01504592
2	0x3c69af8e	0.014263047
3	0xbc861ff4	-0.016372658
4	0x3c94fd7b	0.018187275
5	0xbcde6894	-0.027149476
6	0x3be6f494	0.007048199
7	0xbcdddb68	-0.02708216
8	0x3b1f0a38	0.0024267565
9	0x3cd1e339	0.025621044

fc2.weight f4 [3, 10]
0	0x3f68f317	0.90995926
1	0x3e9cc538	0.30619216
2	0x3e5ccb1e	0.21561858
3	0x3fe6716e	1.8003366
4	0x3d5662e8	0.052340418
5	0xbdfb1618	-0.122600734
6	0x3f6a735a	0.9158226
7	0xbe3034c4	-0.17207628
8	0xbc8bbb48	-0.017057076
9	0xbe738f2e	-0.23785087
10	0x3f680222	0.90628254
11	0x3e965e54	0.29368842
12	0xbe915a62	-0.2838927
13	0x3fe6d3f3	1.8033432
14	0x3def2816	0.11677568
15	0x3e005d70	0.12535644
16	0x3f6c737d	0.9236372
17	0xbd9557c8	-0.072921336
18	0xbe12ed56	-0.14348349
19	0x3b167680	0.0022958815
20	0x3f671003	0.90258807
21	0x3dc6bca8	0.09703952
22	0x3e9746d7	0.29546234
23	0x3fe72904	1.8059392
24	0xbd93839c	-0.07202837
25	0x3e611551	0.21980788
26	0x3f6ea0a9	0.932139
27	0xbe76ce93	-0.2410224
28	0x3e2547d7	0.16140686
29	0xbc3bf740	-0.011472523

fc2.bias f4 [3]
0	0xbdfcd530	-0.1234535
1	0xbe97d14d	-0.2965187
2	0xbe9eb9e1	-0.3100119
