MNISTmodel.pt (torch, 904747 bytes, 20 tensors)

encoder.0.weight f4 [128, 784]
00000000: be89 b792 3ac5 2f91 241b e691 5ac8 9d92
00000010: 5b57 df91 bbb9 0b12 23e3 aa92 1379 ff10
00000020: 9e46 8b12 1444 5992 a506 3c92 9b5a d112
00000030: f5f9 55be efec 76be 0949 2abe dfba 0fba
00000040: e830 d412 7619 4b12 d59e 9612 da00 e991
00000050: 0b47 8f92 d576 6292 934b 9c10 fabf 9412
00000060: 5ca8 8792 757e 8e12 84a5 2a12 57cf 3391
00000070: db69 7912 35c2 5f92 8985 1192 bc01 9191
00000080: 856e e23c 668e c33d cf78 79be e4d1 a5be
00000090: da22 f7bd 7db4 f9be 2357 b6be 9df0 ef3c
000000a0: 6151 bc3e 9346 f7be 5dc7 80bf 8915 02bf
000000b0: 1c7d a53e 514f c33e 72a7 d63e 4cb8 f03e
000000c0: e9d4 7b3d f2e2 c03e 6b91 f03e 9a81 e33d
000000d0: f552 c992 5443 8810 b88a 9c12 5d25 9412
000000e0: 39c4 1e11 3eee 5e92 0f71 18bd d6bf 033c
000000f0: 0d2b 9d3e b199 893e ef9d 063f 0baa 653f
00000100: 343f d43e d8c8 0bbf 4b0f e5bd f32b d0be
00000110: 279e 643b 0132 85be 5869 4cbd 8461 023f
00000120: 55d7 163f 7f99 ca3f d790 bc3f 3452 783f
00000130: 74c1 d63e 43fe 183e 809f 44be 7a2c 12bc
00000140: 3060 abbb 8fba 60be 1049 5390 28a2 1d92
00000150: 11c7 6092 fadc 7692 c4f5 15bb 0c53 9c3d
00000160: a088 283e 8287 22bf 879a 63be fb08 67bc
00000170: 30e0 5abd acd4 2e3e b9c1 4ebd 7bd3 823e
00000180: 5d10 fabd 8a39 d43e 0473 123f bb4d 593f
00000190: 10f7 023f dda0 ce3e ec53 a3bd 32e1 773c
000001a0: f6e9 c4bc d0af a53e d8c2 77be 62fe e8bc
000001b0: 58b6 0c3d 41ec 15be 5a1d 00be 9ca6 0692
000001c0: 6f77 2212 111e 833c ba64 2dbe 0c68 7fbe
000001d0: 32fc 17bf 7ec6 0dbf e1f9 9a3e 70d1 873e
000001e0: 80ab 673f 9714 663e 6270 953e 2342 abbe
000001f0: 6a50 0c3d 9878 713e bf6a 453e d178 a63e
00000200: 07ea 6c3e fe70 6a3e b852 17be f30f ddbe
00000210: 6f4f 41bd 1361 ae3e 5153 043d 90a1 0d3f
00000220: 6a86 963e c5e1 8a3e 6e1e a23e 0724 5dbc
00000230: 799f 8112 f267 6e92 9f00 6a3d 46d8 3bbf
00000240: 6062 80bd 65d1 1ebf 2ee2 23be 6445 d7bd
00000250: 9fb1 6dbd 6a66 99bd 6cda 0cbc efe5 92bd
00000260: 24fe a4be c65e 2bbe 111a a0bc 24b6 973e
00000270: 60ea a33e ce55 ab3e 3083 b53e 9a53 cb3e
00000280: ce4b c63e 67bb fb3b 3927 8d3f 8ebd 773f
00000290: 4480 573f 2440 7e3f 6689 453f 5674 afbd
000002a0: c0f3 fe91 35c9 10b9 0060 b43e 778a 90bf
000002b0: cbac 9fbe a60b 54bf c2fa c6be 2500 9bbd
000002c0: f8c3 3dbe 439b 103e 80ca 703e 4185 f5bd
000002d0: 0b48 183d 9851 8fbd 8306 f83c 3490 633c
000002e0: 675d 5c3e ba47 2e3e 25b4 073f 7670 433f
000002f0: 5d4d 6e3f 815e a33f 45d8 ba3f 361f ca3f
00000300: 40c9 f03f 8fea b13f 9b14 7d3f bc6f 0a3e
00000310: 4ebf 0a92 d5cc 98be ef57 4fbd 2207 70be
00000320: 3adb eabe 528b dcbe d3d6 22bf a5e5 26bf
00000330: 43ad 96be f11b 153e 5bc3 b33d 14fa 1d3e
00000340: fbb3 483e deec 0b3e 4ec5 133e 3d22 babd
00000350: 334c 893d 3676 3e3e 43b7 093f 30ed e13e
00000360: aa75 0e3f e94c 403f 0748 ac3f a07d 893f
00000370: 6cdb dd3f cad5 e83f f45f 353f a075 e43e
00000380: 8663 833b 75fa f83e 0abc bebe 6b6a eabe
00000390: 3e05 92be de13 61bf 8120 88bf f004 84bf
000003a0: e598 3fbe 8e8c 89be f5d9 0fbe 39c9 11be
000003b0: 85c7 a13d 0965 ff3d bfb8 313e 53fe 8dbe
000003c0: 80dc 91be 66e1 0c3e 8737 0b3e 59ad 1cbe
000003d0: ac70 863e a05d 183f daf9 493f dcb0 4a3f
000003e0: e396 723f b9e5 a33f d551 c43f d3c0 123f
000003f0: aa19 2a3e 7fdc 563d 3f61 3dbf f495 5dbf
-1.158288e-27 -1.3865841e-28 -3.6304328e-28 -9.957483e-28 -3.5237033e-28 4.4089597e-28 -1.0784502e-27 1.0076631e-28
8.789542e-28 -6.855704e-28 -5.933053e-28 1.321209e-27 -0.20896132 -0.2411382 -0.16629423 -0.0005482863
1.3391137e-27 6.408689e-28 9.505486e-28 -3.6761443e-28 -9.042082e-28 -7.14595e-28 6.164759e-29 9.387439e-28
-8.561202e-28 8.992634e-28 5.3846555e-28 -1.4184502e-28 7.8701023e-28 -7.060577e-28 -4.5918527e-28 -2.2878035e-28
0.02764059 0.09548645 -0.24362491 -0.32386696 -0.12067194 -0.48770514 -0.35613355 0.029289538
0.36780837 -0.4829603 -1.0060841 -0.5081411 0.32322013 0.3814645 0.41924626 0.47015607
0.061482344 0.37673146 0.46985945 0.11108704 -1.2705334e-27 5.3746277e-29 9.879181e-28 9.349324e-28
1.2524468e-28 -7.0344505e-28 -0.037217196 0.008041343 0.30696908 0.2687507 0.5258474 0.8971259
0.4145447 -0.5460334 -0.111845575 -0.4065853 0.0034884305 -0.26014712 -0.04990515 0.5093005
0.5892232 1.5828093 1.4731702 0.9700043 0.41944468 0.14940743 -0.1920147 -0.008921737
-0.0052299723 -0.21946166 -4.1668698e-29 -4.974034e-28 -7.0927305e-28 -7.789629e-28 -0.0022882083 0.076330274
0.16458368 -0.6348802 -0.22226916 -0.014101262 -0.053436458 0.17073315 -0.050477717 0.25551972
-0.12210152 0.4145015 0.5720675 0.8488423 0.5115824 0.40357104 -0.07974991 0.015129374
-0.024037343 0.32360697 -0.2419542 -0.028441612 0.034353584 -0.14640905 -0.12511197 -4.2488306e-28
5.12654e-28 0.016005548 -0.16932955 -0.24942034 -0.59369195 -0.55381 0.30268767 0.26526976
0.90496063 0.22468792 0.29187304 -0.33448896 0.034256376 0.23581159 0.19279002 0.3251405
0.2313615 0.22894666 -0.14777648 -0.4317623 -0.047194894 0.34058437 0.03230602 0.5532465
0.29399425 0.27125373 0.3166384 -0.013497359 8.180358e-28 -7.522768e-28 0.0571295 -0.7337688
-0.062687635 -0.6203826 -0.1600425 -0.10511282 -0.05803072 -0.07490237 -0.008596998 -0.071727626
-0.32225144 -0.16735372 -0.01954368 0.2963115 0.3201475 0.334639 0.3545165 0.3971222
0.3872971 0.007682252 1.1027595 0.9677361 0.8418009 0.9931662 0.7716278 -0.08567111
-4.0224357e-28 -0.00013807866 0.35229492 -1.1292256 -0.31186518 -0.82830274 -0.38863188 -0.07568387
-0.18531787 0.14121728 0.23514748 -0.11988307 0.03717808 -0.06997985 0.030276543 0.013889361
0.21520005 0.17019549 0.53009254 0.76343477 0.93086797 1.2763215 1.459725 1.5790775
1.8811417 1.3899707 0.98859566 0.13519186 -4.3780923e-28 -0.29843774 -0.05062097 -0.23440221
-0.45870382 -0.43075043 -0.63609046 -0.6519416 -0.29429063 0.1456144 0.087774955 0.15427428
0.19599907 0.13664576 0.14430735 -0.09088562 0.06703987 0.18599781 0.5379526 0.44126272
0.5564829 0.75117356 1.3459481 1.0741463 1.7332587 1.8190243 0.7084954 0.4462099
0.004009667 0.48628584 -0.37252837 -0.45784315 -0.28519624 -0.8792094 -1.063492 -1.0314007
-0.18710668 -0.26865047 -0.14047988 -0.14236917 0.078993835 0.12470443 0.17355631 -0.27733096
-0.2848854 0.13757858 0.13595401 -0.15300502 0.26257837 0.5951786 0.7889687 0.79176116
0.94761485 1.2804481 1.5337473 0.57325476 0.16611353 0.052456375 -0.7397651 -0.86556935

encoder.0.bias f4 [128]
00000000: b1d1 1d40 f425 ceb0 2d1d a6bc 355f 5eb4
00000010: d15d f5bf 171a d797 e7c0 fa94 f0d3 0194
00000020: c0db 8d9d bfca 823c d5ca 83bc e9c7 5696
00000030: 64c7 799e cde2 6bbc e40f c895 2aa2 d197
00000040: efe0 0e9e fb15 64be d48b 3b95 61d7 31bc
00000050: 4381 6796 f043 6da3 2bd5 813f 3bfa cd93
00000060: 6e9c 7796 6e3c 9bb1 a6ec 1ebf 80be e493
00000070: 4cce 9a9c 9807 1b98 c575 543f 3a8d 2298
00000080: 2699 b199 e2c5 9a94 f587 713f 5e65 439a
00000090: 0d08 4fb8 1cd8 9a9d 0f59 f0af 474b df98
000000a0: 310c 72be 5aa5 6c3f c11e c73f ed19 8bbc
000000b0: f916 1598 1f04 c7bf 497a 0a97 5a58 8c3c
000000c0: 477f 93bf 82bb 873b 7a94 e3be 0621 3c96
000000d0: c3e8 383b 5aef cfba e2ad c0a1 7d63 d59b
000000e0: 3981 14bc a7e0 c3a3 a80a 799e 5356 b43e
000000f0: 95ba eabb 0235 459c c26d b4bc 945d b3bf
00000100: 7f6f 5598 e5b3 e63c fd84 b39a b5ef e4bd
00000110: f9f7 b8bd f708 c03a bd00 8b98 4dbf adbb
00000120: 7af1 c09a bc1c 2196 d2c9 5a9b b96f 03bf
00000130: 5750 8497 0234 a9be 23d4 72a0 5530 63bf
00000140: f54b a4be a721 a1bc 9fc4 019a 1044 3f9c
00000150: 6608 d29b 985f 2a9c a223 2a40 d285 5d95
00000160: 139c b298 bbfb babc c364 02bf 6950 4f9e
00000170: 1e41 09a8 5e0f 3794 a746 8d9a fe1f 77bc
00000180: cf55 3c99 94c8 049c 172c e5be 6f6c 3bb0
00000190: 7231 65be b5e9 939e 3bfe a6a0 9895 223e
000001a0: 8b7a 0b9f 0d4e 229c 4132 813d 1d82 559c
000001b0: 77f1 2995 b4cb 9bbb dcd6 8abf cfba 6b96
000001c0: cdb9 3c3c f755 18bc 5fd2 9b95 0488 82bf
000001d0: 03ef 4cbf 05f5 d697 d443 03bf 4ae7 423e
000001e0: 4a20 aa3f c3cd 9699 4616 e596 8713 0cbf
000001f0: b2bf edbe f587 e995 8e45 03a8 bdfc 8f99
2.4659235 -1.499926e-09 -0.020277584 -2.0709997e-07 -1.9169255 -1.3900635e-24 -2.5319636e-26 -6.554633e-27
-3.7549605e-21 0.015965817 -0.016087929 -1.7349863e-25 -1.3223183e-20 -0.014397335 -8.080443e-26 -1.3547244e-24
-7.5639326e-21 -0.2227401 -3.7874654e-26 -0.010854573 -1.8700819e-25 -1.2862182e-17 1.0143179 -5.199602e-27
-2.0001862e-25 -4.517964e-09 -0.62079847 -5.774314e-27 -1.0244192e-21 -2.0037114e-24 0.829922 -2.100931e-24
-1.8363227e-23 -1.5628077e-26 0.9434808 -4.040694e-23 -4.9360144e-05 -4.0986912e-21 -4.3719026e-10 -5.772016e-24
-0.23637463 0.92439806 1.555626 -0.016980136 -1.9269397e-24 -1.5548133 -4.474455e-25 0.017131973
-1.1523217 0.0041422257 -0.44449216 -1.519694e-25 0.0028214909 -0.0015864179 -1.3056452e-18 -3.5302187e-22
-0.009064012 -2.1237086e-17 -1.3184154e-20 0.3522211 -0.0071633556 -6.5250343e-22 -0.022024993 -1.4012933
-2.7585896e-24 0.028161952 -7.424752e-23 -0.11178533 -0.09031672 0.0014651109 -3.5931403e-24 -0.005302346
-7.9799465e-23 -1.3014543e-25 -1.8097749e-22 -0.5134235 -8.550581e-25 -0.3304749 -2.0568387e-19 -0.88745624
-0.320892 -0.019669367 -2.6835404e-23 -6.328457e-22 -3.4747013e-22 -5.6371834e-22 2.6584249 -4.473616e-26
-4.6169516e-24 -0.022825113 -0.50935 -1.0975117e-20 -7.619148e-15 -9.2421696e-27 -5.843038e-23 -0.015083311
-9.736701e-24 -4.393438e-22 -0.447602 -6.8184297e-10 -0.22382143 -1.566089e-20 -2.828973e-19 0.15877378
-2.953576e-20 -5.370218e-22 0.06308413 -7.0643956e-22 -3.431976e-26 -0.004754508 -1.084682 -1.9042095e-25
0.011518908 -0.009297839 -6.293591e-26 -1.0197759 -0.800522 -1.3891277e-24 -0.5127537 0.19033542
1.3291104 -1.5592743e-23 -3.7011002e-25 -0.54717296 -0.46435314 -9.432245e-26 -7.287043e-15 -1.4887934e-23

encoder.2.weight f4 [64, 128]
00000000: 2d7c e495 ce28 0218 215c 0f97 0560 d595
00000010: fed6 f095 811e 1698 4e73 ee11 6e17 9792
00000020: 1846 3099 1a54 3993 c33b ca92 746a af91
00000030: c657 8e95 fba5 a318 924c 6f95 79fa 858f
00000040: da2c 8f12 d504 5a97 e241 c091 a1a6 f011
00000050: c526 c313 df17 5399 a3df 8893 bcb4 5c94
00000060: fe77 8a96 0bdc 7896 f0d4 a813 da38 5111
00000070: fc42 8d97 1167 4b15 9c2e aa96 3550 a119
00000080: 9c31 af93 6544 fe92 db4d 8f95 8520 0919
00000090: 1895 1414 f02b de96 e2fb 6397 e15b 8a90
000000a0: 74df 3495 f492 d316 db5f 0397 5fb0 a494
000000b0: b927 9e98 7980 4f13 2c9a ab93 2a74 f993
000000c0: 263d f994 15a8 be90 bb27 9f97 63a2 8e13
000000d0: 8cfc 6c13 334e 1391 7d50 b894 0c5a ed97
000000e0: 1517 9494 b2b1 ef97 af89 8e98 4358 0a94
000000f0: af9f 7491 46bf 8393 6354 8994 9b2f 0496
00000100: c576 9c14 5eaa 9694 9bd5 6f16 6b69 2898
00000110: b307 e798 542a ec95 f738 0419 f014 0697
00000120: 90eb e413 e14c 2913 462b 9915 24aa 6197
00000130: ffc8 0a95 0995 6412 c72f 5d96 9863 da91
00000140: c325 a595 d760 8e13 25b8 0c9d 5181 c093
00000150: 286a 0a17 6a59 2113 9c6c 1c95 66cc f594
00000160: 2146 ac97 b81b 1096 8ce2 4e12 9e5c b895
00000170: 9d1d 5c93 43cc 8713 8cb6 4819 63a3 5192
00000180: d810 5293 604a d215 c162 6f93 ef3f ac96
00000190: e7d8 6d16 cbf0 0199 7c89 7c99 a446 7a97
000001a0: 0990 3019 bf9c 9a99 549e b293 eee6 2c98
000001b0: a45c 0a96 aa54 a893 af09 8394 724d d094
000001c0: 4214 b498 603b 3092 83df 6a12 7258 9695
000001d0: e1f0 8c94 a115 4494 409f 1813 5aaf e699
000001e0: ed0e 8692 fd79 ba92 5d10 5d13 400b ec93
000001f0: 48a6 329a 4973 e812 982a 0096 1a7f 2716
00000200: b0b2 9abe 5cf8 0c17 eec9 363d f36b 5a16
00000210: 3f80 ed3c 3b1b bf12 5ae8 0c93 6e50 2b93
00000220: 3db9 a093 523f bf3c 73c2 8238 117c 1d13
00000230: 6d32 4793 0d88 b63d f644 4693 34f8 8011
00000240: 6b8a ae93 91ff 27bf 6cb0 a513 7fc8 593c
00000250: 608d 9f13 4552 a894 773b 993f dc08 8012
00000260: e4cd 3293 3485 3316 ad52 61be 3e5f 9d92
00000270: 3b5e 5394 d8a3 9b12 9fae b93e 7d62 7714
00000280: 9289 7e92 1dd8 5b12 3c9e 833f 2531 c793
00000290: 5126 a43c 7ec9 b013 6ed0 b416 ec90 1193
000002a0: ff6a 25be be31 8e3e eb46 bfbe b250 bd3d
000002b0: fc04 2894 6540 4cbe 51f4 a113 320d 3b3d
000002c0: 0968 473e 4f41 cb3c 32f7 b5be bad5 9912
000002d0: da8f 883c 2fd8 2b3d e8cc 4c93 8615 d793
000002e0: f853 1838 f410 9793 a91e 1094 1f59 d23e
000002f0: f9d6 0b3b 4bf1 bb13 2e78 71bc 345a 81bc
00000300: 89d2 8613 0c28 ed3c 39c9 6d94 99c1 ef3c
00000310: 6273 9fbe 2e7c c43a 9557 9394 fe56 6ab1
00000320: fbb3 4592 3f74 6c93 985f 0d94 bc44 f43d
00000330: ce36 7893 877a 56be b7ac 5513 2222 6ebe
00000340: 66d2 ff3c 0f72 583d b676 4014 2ad9 5493
00000350: 9e6f 3c93 955f c613 609d d53e cdbd c512
00000360: b505 6514 136f 583d aa9e 653e fda6 f312
00000370: c052 0093 1dc4 e712 5e2c 9494 71a6 863d
00000380: 8f78 9693 eb3f 7592 1910 ff3d ef3f 0616
00000390: be0c 31be 1b69 5914 b468 8994 39a1 a23e
000003a0: b40f ea12 04cf 5094 e77b 413f 93e0 3094
000003b0: 47b9 0294 74f2 1f3d f1b5 5bbe 9fd0 0294
000003c0: ed2f f83c cd26 213d cb91 2713 79e7 77be
000003d0: c419 3b3f 5630 c513 c57a 78bf ab5c 8a3e
000003e0: 5fa3 a23e 0334 de93 589d ed12 6925 9bbe
000003f0: ab66 fbbe 828e 8512 ceb3 ee14 0b8d 9a92
-9.228438e-26 1.6822707e-24 -4.6322075e-25 -8.618151e-26 -9.7274426e-26 -1.9402446e-24 3.762084e-28 -9.535216e-28
-9.113142e-24 -2.3391748e-27 -1.2762725e-27 -2.7675738e-28 -5.7491825e-26 4.230211e-24 -4.832607e-26 -1.3211291e-29
9.035626e-28 -7.04457e-25 -3.0332862e-28 3.7968016e-28 4.926315e-27 -1.0913265e-23 -3.455175e-27 -1.1142805e-26
-2.2370828e-25 -2.0102714e-25 4.2619135e-27 1.6504712e-28 -9.128821e-25 4.107683e-26 -2.7494396e-25 1.6679405e-23
-4.422513e-27 -1.6046514e-27 -5.7880074e-26 7.089301e-24 7.501494e-27 -3.5893763e-25 -7.3665577e-25 -5.4572964e-29
-3.6526984e-26 3.418163e-25 -4.244937e-25 -1.6629334e-26 -4.0882152e-24 2.6190415e-27 -4.3318494e-27 -6.2970984e-27
-2.5166694e-26 -7.520076e-29 -1.0285164e-24 3.6005965e-27 2.9911903e-27 -1.1620352e-28 -1.8610999e-26 -1.5338497e-24
-1.4953285e-26 -1.548987e-24 -3.6845165e-24 -6.984626e-27 -1.9297412e-28 -3.325766e-27 -1.386675e-26 -1.0677897e-25
1.5798821e-26 -1.5213327e-26 1.9373668e-25 -2.1766714e-24 -5.9719875e-24 -9.538642e-26 6.835744e-24 -4.332416e-25
5.7787574e-27 2.1368703e-27 6.186448e-26 -7.291617e-25 -2.8027436e-26 7.2127815e-28 -1.7867314e-25 -3.4455715e-28
-6.6702547e-26 3.594133e-27 -1.8624046e-21 -4.859513e-27 4.4724193e-25 2.0365141e-27 -3.1589627e-26 -2.4819299e-26
-1.11329425e-24 -1.1640974e-25 6.528138e-28 -7.446313e-26 -2.7782504e-27 3.428021e-27 1.0376623e-23 -6.615016e-28
-2.6514031e-27 8.493567e-26 -3.021473e-27 -2.7828446e-25 1.921315e-25 -6.7177714e-24 -1.30558594e-23 -8.086852e-25
9.1280744e-24 -1.5986536e-23 -4.508964e-27 -2.2347069e-24 -1.1176783e-25 -4.2492647e-27 -1.3231439e-26 -2.103318e-26
-4.6549365e-24 -5.5608993e-28 7.411288e-28 -6.072406e-26 -1.4231397e-26 -9.899737e-27 1.9263614e-27 -2.3852267e-23
-8.460268e-28 -1.1768323e-27 2.790219e-27 -5.958587e-27 -3.6943858e-23 1.4669678e-27 -1.0353198e-25 1.3530259e-25
-0.30214453 4.5549913e-25 0.04462617 1.7643963e-25 0.028991817 1.2060507e-27 -1.7785042e-27 -2.162289e-27
-4.0572337e-27 0.023345623 6.235102e-05 1.9877355e-27 -2.5142193e-27 0.089126684 -2.5025114e-27 2.0347806e-28
-4.4060266e-27 -0.6562434 4.182582e-27 0.013292431 4.027665e-27 -1.6996115e-26 1.1971272 8.08012e-28
-2.256827e-27 1.4501536e-25 -0.22004195 -9.931572e-28 -1.0671361e-26 9.822266e-28 0.36266038 1.24897366e-26
-8.0317836e-28 6.9370595e-28 1.0282664 -5.0283123e-27 0.020037802 4.4627333e-27 2.9212106e-25 -1.8373025e-27
-0.16154097 0.27772325 -0.37358794 0.09243907 -8.4828154e-27 -0.1994644 4.088303e-27 0.04566688
0.1947328 0.024811415 -0.35540158 9.708345e-28 0.016670156 0.041954216 -2.5849447e-27 -5.4294854e-27
3.6317826e-05 -3.8134476e-27 -7.276189e-27 0.4108362 0.002133785 4.744337e-27 -0.014738126 -0.015790083
3.403396e-27 0.02894976 -1.2005126e-26 0.02926712 -0.31142718 0.0014990622 -1.4877752e-26 -3.410093e-09
-6.238408e-28 -2.9844702e-27 -7.137533e-27 0.119271725 -3.1329022e-27 -0.20945178 2.6969535e-27 -0.23255208
0.031228255 0.05284315 9.7169344e-27 -2.6865232e-27 -2.3783968e-27 5.007648e-27 0.4172163 1.2479237e-27
1.1562671e-26 0.052840304 0.22423807 1.5376622e-27 -1.619667e-27 1.4626495e-27 -1.496168e-26 0.06574715
-3.7984203e-27 -7.7387154e-28 0.12454242 1.0844608e-25 -0.17290017 1.0976429e-26 -1.3874763e-26 0.31763628
1.4771347e-27 -1.0542143e-26 0.75579685 -8.930019e-27 -6.599862e-27 0.03904958 -0.21456124 -6.604466e-27
0.03029629 0.039343644 2.1150245e-27 -0.24209394 0.7308619 4.9777454e-27 -0.9706233 0.27023825
0.31765267 -5.6091966e-27 1.4995591e-27 -0.3030198 -0.49101767 8.428611e-28 2.4102779e-26 -9.753536e-28

encoder.2.bias f4 [64]
00000000: 6f0d 2aa6 0d1b 543f b4c2 c29c 6f5d c3b9
00000010: e164 8aac ac36 79a4 0e49 00b4 7c83 12a0
00000020: 036e f098 1433 303e 281f f0a3 0b85 16bd
00000030: d816 95be 93f1 85bb bfe7 58a8 6072 31bd
00000040: c5d3 269e 9a89 1cbf bd96 9cbc 346b 2abc
00000050: 4f82 afbd 87af 0dbf ac6b a59e b900 0abe
00000060: 9280 b6a9 68df 85ab 9ce5 e1be 53e7 23bd
00000070: a01b 60bf 27d5 9fbe 8c2c 0ebe aeeb 07b3
00000080: 6280 2ab8 497d 659d 08e2 0fbb 67fc 0aaf
00000090: 1c8c 22a8 88ff ebb2 9860 e1b2 7e2a d0b5
000000a0: 3c61 a93c aef2 e7bd a8ea cfa5 e974 8ba6
000000b0: 7cd3 879b 9882 a6a9 44dc 18b3 246e 4aad
000000c0: 9591 84be 20c4 ccbf ed7a d43d 4696 003f
000000d0: 4bce b1a7 a9bf e8bb 9c04 94be 0422 f8a1
000000e0: b03b 6a3d e58d 09b1 0a94 1f3f 0c05 55be
000000f0: 07ef 6eab c430 1d3e d3f2 9eaf ead1 86bf
-5.8998804e-16 0.82853776 -1.2888173e-21 -0.00037262912 -3.9333957e-12 -5.4039577e-17 -1.1947506e-07 -1.2410186e-19
-6.214963e-24 0.17206985 -2.6034047e-17 -0.036747973 -0.2911899 -0.004087636 -1.2040661e-14 -0.043321967
-8.83176e-21 -0.61147463 -0.019114846 -0.010401536 -0.08569776 -0.5534596 -1.7514587e-20 -0.13476838
-8.104727e-14 -9.512226e-13 -0.4412049 -0.04001553 -0.8754215 -0.3121731 -0.13884181 -3.1646486e-08
-4.0650724e-05 -3.0372669e-21 -0.0021954793 -1.2640698e-10 -9.023188e-15 -2.7473803e-08 -2.6237373e-08 -1.5509574e-06
0.020676248 -0.11325584 -3.6067785e-16 -9.676751e-16 -2.2470545e-22 -7.394535e-14 -3.559059e-08 -1.1506827e-11
-0.2589232 -1.5997353 0.10375009 0.502293 -4.9351032e-15 -0.007102926 -0.28909767 -1.6814138e-18
0.05718583 -2.0016782e-09 0.62335265 -0.20802706 -8.48863e-13 0.15350634 -2.891257e-10 -1.0532811

encoder.4.weight f4 [36, 64]
00000000: f61a 8294 1dcf 0ebf e0d7 b99b 0577 a132
00000010: 9dc4 1d97 2513 049a d1a0 181a 983a 1198
00000020: f103 ac93 c298 103f 537d c81d 9ffb b335
00000030: f9ef eabd e095 8436 6474 ff9b 4356 7cbe
00000040: 0655 5f20 791d d0bd 9d72 29be bec4 27bd
00000050: 91e7 94bd f49a 133d c276 0496 2d40 1f3b
00000060: 3c2f 139b cce7 b725 bbb0 a93d 1b77 bebc
00000070: e55f 903d b03d 2f3e 128b 40bd a9bd 4a1e
00000080: 7578 323d 1cb1 fc25 fce8 0626 7d7c 77a0
00000090: ba23 5a9a 0a73 9b30 bc8b 381f af42 0da5
000000a0: 2b88 d93d 05cb 35be aa12 a193 4a2a be98
000000b0: e292 4697 e7f9 411f ebf4 682c 4576 82a7
000000c0: 049b f4bd 4d88 cc3e 6c77 8fbd 1670 b0bd
000000d0: 8c2f a020 5e41 8cbd 4cc5 3c3e ff27 c714
000000e0: f029 043f de5a ff9c f6d9 c03e bf0f 863d
000000f0: 4e31 fa19 1efd 96be c454 3722 6c34 993e
00000100: 8ce9 4b93 ea8f ca3e 91f8 8893 1c2d 26b6
00000110: c819 3594 03fd aa13 4b55 a3ac 1a38 cd12
00000120: 3448 9813 b2cc b7bc f3bd 4314 67b2 fab9
00000130: 1a77 003e 928e af94 0b08 3a14 6ab1 21bf
00000140: a7ac 3f94 bd02 243b fa51 01bb 47f3 9892
00000150: d07a 223d d8bf 2bbe 77d8 8c93 b626 8f3c
00000160: 6ae1 b894 8f02 689e fba5 88be 6896 852c
00000170: 8ac7 863e 2fed 313d 3efa 7bbc bdd2 b618
00000180: be37 4713 ad03 d6aa c287 b393 fa95 c815
00000190: 70d2 d193 cdea c3b4 36e4 b912 666c 8a2b
000001a0: 5b92 6dbf 1d95 2a3c 16d8 0113 4549 5812
000001b0: 63e3 4113 000d 0994 0491 27ae b1f7 e115
000001c0: 3a8e 6f3e 4698 143f be0b 18bf 0484 40be
000001d0: 9c8a de13 b45b e1b6 8f5b 7d3d 2286 6112
000001e0: 1446 27bf 8c41 5592 0e22 9a3e a324 503b
000001f0: a2e9 8014 b560 89be eca8 b993 7eb7 d8bc
00000200: 0110 bc93 9562 53bf e849 1e18 5e81 8bae
00000210: 3495 4f14 1d24 3f13 3e50 0b14 3031 1118
00000220: 4eb3 4a12 c9b3 563b b9b0 8317 0f33 a5b1
00000230: fdad 9f3d 0a65 5ab4 ef9e 8717 8023 8ebf
00000240: f90a 499f 5d4f afbf cd67 74bd 6bb8 c8bd
00000250: ddf3 9f3d ee2d 85be 45d2 0d94 e374 d4bd
00000260: f892 8193 60e3 4cac 2408 96be 4e44 fdbd
00000270: ad8c 73bf 7ce4 21be 32dc 973d f2c2 82a0
00000280: 4b93 4394 ecae ea1d 1f69 2ab9 a594 311b
00000290: d019 7f16 87b2 c8a5 c068 1098 5b7d 3e1d
000002a0: a2bb 00bf f6ac 5413 6850 9c14 ebe8 5094
000002b0: 33a1 3014 f7a1 331d 5706 5f2e cc11 0f1d
000002c0: 8c3a a2be 368c bdbe 23f2 2fbe ab84 5d3e
000002d0: a79c 9c18 43d3 013d aa71 0dc0 38c4 4094
000002e0: b49c f83e 9161 b817 2eb2 e6be bd31 603d
000002f0: fa54 1816 a473 1cbf 80df cb19 f9d8 133f
00000300: dbdb 9f13 7df1 60bd f317 271b b1a7 3398
00000310: 421e 1817 bf76 3790 cc49 9913 031a e195
00000320: 764a 1b93 3602 e5bd 82cc 049b 18e4 e120
00000330: dd0c 8d94 10ba 8613 c47c 379a 3091 07be
00000340: b838 d993 b6de 5dbe c6e0 dc30 a0e3 8a13
00000350: 0585 9435 7348 42b7 3103 3e95 e80d f99e
00000360: 49e2 d817 d111 dd12 00f7 74bc 214d 6b25
00000370: 3867 41bd 7f19 8dbd f4b4 8914 cee1 369a
00000380: 753c 5395 8bb2 d492 8c64 2bb6 4645 029e
00000390: 9bcb 0899 be53 599c 288a c61c cb27 5b94
000003a0: 550f 37bd 187e bd15 6c44 daa9 879f 3199
000003b0: 8122 1a14 0c90 fa9b 2487 b028 ed81 71a4
000003c0: 8456 1eb1 cb37 369a e02d 8ebd 27df c5bc
000003d0: 693c 441d d75c 5597 fa6d 81be 0419 5912
000003e0: cbe2 bebd 9f2f 061a 41af 2f3d 8085 1915
000003f0: 0dfd ac97 fa0d 4dbd d6e5 e21c 817a 1abd
-1.313728e-26 -0.5578478 -3.0745189e-22 1.879699e-08 -5.0977597e-25 -2.7312425e-23 3.156277e-23 -1.8770393e-24
-4.342279e-27 0.5648309 5.306914e-21 1.3409771e-06 -0.114715524 3.9513543e-06 -4.2261427e-22 -0.24642281
1.8916967e-19 -0.101618715 -0.16547628 -0.040959112 -0.0727073 0.036036447 -1.0700348e-25 0.0024299726
-1.2174817e-22 3.190251e-16 0.08285662 -0.023250153 0.070495404 0.17113376 -0.047007628 1.0733012e-20
0.043571908 4.3835046e-16 4.680634e-16 -2.0962904e-19 -4.5110203e-23 1.131043e-09 3.90791e-20 -1.2252394e-16
0.10621675 -0.17753227 -4.0660518e-27 -4.915655e-24 -6.4162643e-25 4.1076054e-20 3.310514e-12 -3.6210476e-15
-0.119436294 0.3994774 -0.070052 -0.08615129 2.7136518e-19 -0.06848405 0.18434638 2.010964e-26
0.5162649 -1.6897973e-21 0.3766629 0.06545972 2.5869308e-23 -0.29489988 2.4846e-18 0.29922807
-2.573735e-27 0.39562923 -3.4576332e-27 -2.4762185e-06 -9.143249e-27 4.3163522e-27 -4.642208e-12 1.2951149e-27
3.8441392e-27 -0.022436474 9.882445e-27 -0.00047816636 0.12545434 -1.7726718e-26 9.3921864e-27 -0.6316134
-9.677085e-27 0.0025026046 -0.00197327 -9.652521e-28 0.039667904 -0.16772401 -3.555442e-27 0.017474514
-1.8668162e-26 -1.2282507e-20 -0.26689133 3.796786e-12 0.2632411 0.043439087 -0.015379487 4.725869e-24
2.5144814e-27 -3.8016587e-13 -4.531982e-27 8.101598e-26 -5.2966525e-27 -3.649242e-07 1.17314e-27 9.835576e-13
-0.92801446 0.010411528 1.6388628e-27 6.8247894e-28 2.4472135e-27 -6.919296e-27 -3.8100204e-11 9.1267564e-26
0.23394099 0.5804485 -0.5939292 -0.1880036 5.617736e-27 -6.716198e-06 0.061854895 7.1162813e-28
-0.65341306 -6.729174e-28 0.30104107 0.0031760118 1.3016849e-26 -0.26831594 -4.6867135e-27 -0.026454683
-4.7473653e-27 -0.825723 2.0458334e-24 -6.3439684e-11 1.04802544e-26 2.4125394e-27 7.0335316e-27 1.8765644e-24
6.396097e-28 0.003276097 8.510288e-25 -4.8079367e-09 0.077968575 -2.033959e-07 8.764291e-25 -1.1104584
-4.2572482e-20 -1.3696095 -0.059669305 -0.098008 0.07810185 -0.26011604 -7.160149e-27 -0.10373857
-3.27091e-27 -2.9116362e-12 -0.29303086 -0.12366544 -0.9513653 -0.15809816 0.07415046 -2.215186e-19
-9.8740325e-27 6.212015e-21 -0.00016251624 1.4689126e-22 2.0606881e-25 -3.4815444e-16 -1.866445e-24 2.5211098e-21
-0.50286305 2.6843438e-27 1.5783689e-26 -1.0547251e-26 8.91752e-27 2.3774187e-21 5.070996e-11 1.8935093e-21
-0.31685293 -0.37021035 -0.17182212 0.2163264 4.0483233e-24 0.031695616 -2.2100625 -9.73222e-27
0.48557055 1.1915351e-24 -0.45057815 0.054734934 1.2305276e-25 -0.61113954 2.1079979e-23 0.5775295
4.0354037e-27 -0.0549178 1.3821655e-22 -2.321987e-24 4.915204e-25 -3.6181865e-29 3.86954e-27 -9.0917816e-26
-1.9600463e-27 -0.11182062 -1.0984864e-22 3.8267422e-19 -1.4242435e-26 3.4009827e-27 -3.7944298e-23 -0.13238978
-5.483443e-27 -0.21666989 1.6070991e-09 3.5060553e-27 1.1065573e-06 -1.15801695e-05 -3.8372712e-26 -2.6369652e-20
1.4015795e-24 1.3951453e-27 -0.0149514675 2.0409133e-16 -0.047217578 -0.068896286 1.3904838e-26 -3.781912e-23
-4.2658803e-26 -1.3423095e-27 -2.5539512e-06 -6.896468e-21 -7.072153e-24 -7.190751e-22 1.3138253e-21 -1.1064522e-26
-0.044692356 7.653543e-26 -9.693014e-14 -9.182902e-24 7.781818e-27 -4.145212e-22 1.9598533e-14 -5.2368596e-17
-2.3041204e-09 -3.7681787e-23 -0.06942344 -0.024154259 2.5971615e-21 -6.894119e-25 -0.25279218 6.850396e-28
-0.09320601 2.774902e-23 0.042891745 3.1003417e-26 -1.1179118e-24 -0.050062157 1.5014837e-21 -0.037714485

encoder.4.bias f4 [36]
00000000: 18c1 80bf 8323 453f 9d90 9d3f 8cd3 12be
00000010: e08f 509a 9bcf 313f 35a2 023f 0290 1abc
00000020: 3270 28bd 2dbe 88bd 3dd6 bebe a341 af3f
00000030: bea9 0bbf c3b6 1daf 71dc 04b2 cbb6 67be
00000040: 6b54 49be a1de bc3f 9067 debe bb8a 843c
00000050: 2cb7 a7b9 9c31 073f 7f6a ddbc 40f0 aabe
00000060: 0206 efa0 fc59 3fbe 15b3 ceb8 a956 1fbd
00000070: 1b7e 83be dfc4 f8bc 732f 3abf d7c2 4f3c
00000080: 7e14 b3be 8ee0 4fbe 47ac 4bbf 2095 3d3f
-1.0058928 0.7700731 1.2309757 -0.14338511 -4.3129613e-23 0.69457406 0.5102876 -0.009433748
-0.041122623 -0.06676898 -0.37272826 1.3691906 -0.5455588 -1.4343997e-10 -7.733534e-09 -0.22628324
-0.19661109 1.4755441 -0.43438387 0.016179433 -0.00031989196 0.5281007 -0.02702832 -0.3338642
-4.049215e-19 -0.1868667 -9.856202e-05 -0.038901005 -0.25682148 -0.030367313 -0.7272865 0.012680731
-0.34976572 -0.20300505 -0.7955975 0.7405567

encoder.6.weight f4 [18, 36]
00000000: b42d 433e 3731 0fbe ec62 c03e 9d41 24bc
00000010: b518 9294 0577 bd3e 4f7d 77bd b477 c796
00000020: 4622 f03a 3eea a894 a97e a9be 9aea b9bc
00000030: 35a8 523c b7c7 dc26 8913 229b 6836 f13d
00000040: ad13 96be 83cb 4ebf 375b e53c b8d3 cebd
00000050: 59be 1392 2d1a 9bbe d301 e9bc 77a4 56bc
00000060: a46b d414 9a88 62bd e3ab 2d2a 3685 283c
00000070: b0e1 eb3e 523b 6cbb 1505 163f be07 9cbd
00000080: 9e30 7fbd b815 37be 7fd1 963e 8657 953c
00000090: 9ead a3be a092 a1be fb55 42be ef70 1a94
000000a0: ba8f 3b14 4764 d0be 6764 15be 53d4 a692
000000b0: 1227 b630 6da0 913d 3dad 9893 d86c f9be
000000c0: 258e 8e3d ecf9 ff13 8060 bd93 d834 9dbd
000000d0: c0fd 2014 efcc 7b21 b51e 4a36 aeba 793c
000000e0: a672 8513 3f21 09be a804 9738 a011 a93d
000000f0: 33f7 ed93 8813 901a b4e7 359b a71c 2693
00000100: 98f3 0824 bef4 a8bd 9836 abbe 2777 4a12
00000110: 66fc 103d 09ef 6633 5bf4 c6be 12fa 02bf
00000120: b165 2dbf 2683 c33e 999c 85bd 307c 43b9
00000130: 1c1f 9912 ff8d b5bf 76a7 18bf a2a2 761d
00000140: 72fd 64bd 75e7 fc11 bc9e 60bd 1276 62be
00000150: 8f93 1f31 ea31 f693 abe6 3f9a 3628 8c25
00000160: 3943 8139 a608 a0be 3863 373e 0ba8 a1bd
00000170: a109 3933 870b 47be 7933 a394 868c 22be
00000180: 21b3 ef93 f173 cabd f782 f4a7 cc63 879c
00000190: 3e00 8d3e 08bc 0b3c fbb5 c53e ed9f ed3a
000001a0: ba65 4e14 a947 29be fb32 a0be 54ca 08bf
000001b0: 0510 c2bb 7462 32b6 31b4 c6b4 afbf 93a6
000001c0: f3ca e713 f64b 94bd 986c 163b 3477 3d9c
000001d0: 2a7d 33b9 2b9f 7414 2208 d291 f152 8dbb
000001e0: f663 a3af e9fd 8e94 93df 8e17 57cc 61a4
000001f0: 778f e593 7fec 2fb2 a5c6 f6bb 5fd5 2bbb
00000200: 0bc5 3a14 4648 79b9 83b2 b095 b6bb 1aa9
00000210: f0d9 c394 fa48 a0a3 aa50 10a5 adb3 e79f
00000220: 2ee1 ac2d a740 21bb 5e0e 47a5 d32c b5a1
00000230: 8d3f 2993 792f ce13 afe7 3424 0f60 23bb
00000240: 2bb9 033e 2331 0e3f be46 cebe 6e15 103b
00000250: bfce 9811 5724 2a3d 8380 75bf 8c7e c5aa
00000260: f53c ac3b cea9 8cbc 7026 3c3e 04c1 51be
00000270: 09e7 e83d 405b a915 185e 5a98 f629 0f3d
00000280: 9b00 94bc 7581 223f 07fb 6e3e f87c 9c3d
00000290: ec22 45b5 f0f7 13bb ec84 5d3b b343 1fbe
000002a0: f8c9 0594 ada5 c83d ca2e 0b23 644d 4dbe
000002b0: 1edb 09be 9eef 083e fd0d 093e 339f cebd
000002c0: e24d fdbc 3228 2bbe 78d1 b5bc ebe9 4fbf
000002d0: a191 10bd be08 cbae 53ea 91bb f207 83bb
000002e0: 5eb8 1e94 c9e7 e6bd 7fb6 6fbd f1a4 6815
000002f0: 2cc6 a813 ffa5 7814 cab8 81b2 69a1 b4bb
00000300: 3aeb 2411 ad9c 3914 961d 1714 ae23 92b8
00000310: d5b7 a894 551d f51e 3b0b af14 b150 019d
00000320: 8d42 1a14 ecee 58bd 69bb 0392 c5a0 a4bb
00000330: 9700 8893 bead 01bd f417 8814 784d f699
00000340: 30b9 5614 a0aa 8b15 d01e f713 920b d917
00000350: 6ee2 2894 9d45 8214 1e22 5ebd 284c 5ebd
00000360: 9896 8295 dae8 8293 8fd8 1f12 fb11 84a5
00000370: f57a 2c13 b8d1 a6ad 0703 2b91 3045 1b94
00000380: 4064 e113 d99a 8913 a943 3896 c90d ae9f
00000390: 222d 7d14 b978 8f92 ea0b 1594 4064 f993
000003a0: 8406 d092 4738 6293 7427 3512 14ff b692
000003b0: cb7e 0794 d2b6 1293 1724 f913 4703 3794
000003c0: 52ec 6e94 294f dea9 9788 2d14 a78a 9214
000003d0: 1fc5 0194 a98f 9793 3c5b 3c93 0e42 2811
000003e0: 498e c913 5cd1 cd92 b697 bbad c9b7 4da6
000003f0: f834 b3be a74d e03d 72a5 74be 63f0 48bc
0.19060403 -0.13983618 0.3757547 -0.010025409 -1.4751978e-26 0.37004867 -0.060422238 -3.2225727e-25
0.0018320761 -1.7056057e-26 -0.33104447 -0.022694875 0.0128574865 1.5319699e-15 -1.3406638e-22 0.11777955
-0.29311886 -0.80779284 0.027997596 -0.10098976 -4.6619643e-28 -0.30293408 -0.028443253 -0.013100735
2.1448986e-26 -0.055306055 1.5425122e-13 0.010285666 0.46070623 -0.00360461 0.58601505 -0.07618664
-0.062302224 -0.17879379 0.29456708 0.018230211 -0.31968397 -0.31557178 -0.18978111 -7.797285e-27
9.469432e-27 -0.40701506 -0.14589082 -1.0528415e-27 1.3253347e-09 0.07110677 -3.854102e-27 -0.48715854
0.06960706 6.461749e-27 -4.7805464e-27 -0.07676095 8.127979e-27 8.5313335e-19 3.011822e-06 0.015242262
3.3686972e-27 -0.13391589 7.2011084e-05 0.08255315 -6.007097e-27 5.958856e-23 -1.5046836e-22 -2.0966272e-27
2.969663e-17 -0.08249806 -0.3344009 6.388683e-28 0.035396956 5.376845e-08 -0.38858303 -0.51162827
-0.67733294 0.38185996 -0.06524009 -0.00018642913 9.663327e-28 -1.4183959 -0.59630525 3.2641908e-21
-0.055905767 3.9901236e-28 -0.05483888 -0.22115353 2.3221423e-09 -6.214835e-27 -3.9684206e-23 2.4313377e-16
0.00024654882 -0.31256598 0.17908943 -0.0789338 4.3082427e-08 -0.19437991 -1.6479096e-26 -0.15873918
-6.0508717e-27 -0.09885395 -6.7865597e-15 -8.959348e-22 0.27539247 0.008528717 0.38615403 0.0018129327
1.0420404e-26 -0.16531242 -0.31288895 -0.5343373 -0.00592232 -2.6581374e-06 -3.701148e-07 -1.025213e-15
5.851272e-27 -0.07241051 0.002295291 -6.268892e-22 -0.00017117398 1.2350242e-26 -3.313717e-28 -0.004312866
-2.9720554e-10 -1.4438486e-26 9.232973e-25 -4.896218e-17 -5.7949194e-27 -1.0240114e-08 -0.0075310045 -0.0026219708
9.42946e-27 -0.00023773414 -7.1367476e-26 -3.4357682e-14 -1.977593e-26 -1.7378142e-17 -1.2517339e-16 -9.8129554e-20
1.9654136e-11 -0.0024605186 -1.7265366e-16 -1.2276902e-18 -2.1362132e-27 5.2048523e-27 3.9227522e-17 -0.0024929082
0.12863605 0.55543727 -0.40288347 0.002198543 2.4108789e-28 0.041538563 -0.9589922 -3.508204e-13
0.00525629 -0.017170813 0.18374038 -0.20483786 0.113721915 6.8402524e-26 -2.8223345e-24 0.034952126
-0.018066695 0.63478786 0.23337947 0.076410234 -7.3439037e-07 -0.0022578202 0.0033801151 -0.15553169
-6.754615e-27 0.09797225 7.545113e-18 -0.20049053 -0.13462493 0.13372657 0.13384242 -0.100889586
-0.030920926 -0.16714552 -0.022194609 -0.81216305 -0.035295133 -9.232924e-11 -0.0044529825 -0.00399875
-8.0133215e-27 -0.11274678 -0.05852365 4.6982143e-26 4.2604575e-27 1.2553537e-26 -1.5101609e-08 -0.0055124057
1.3009804e-28 9.371012e-27 7.6293866e-27 -6.9684684e-05 -1.7036174e-26 2.5952515e-20 1.7674914e-26 -1.7114724e-21
7.788138e-27 -0.05296223 -4.156731e-28 -0.005024048 -3.433181e-27 -0.031659834 1.3741938e-26 -2.5467093e-23
1.0840761e-26 5.641085e-26 6.238195e-27 1.4026217e-24 -8.526488e-27 1.3154103e-26 -0.054231755 -0.054271847
-5.2744177e-26 -3.3046223e-27 5.0438483e-28 -2.2910534e-16 2.1770075e-27 -1.8965149e-11 -1.3490454e-28 -7.839145e-27
5.689684e-27 3.4736354e-27 -1.4884751e-25 -7.371467e-20 1.2782137e-26 -9.054329e-28 -7.524927e-27 -6.295529e-27
-1.3128252e-27 -2.8552957e-27 5.716216e-28 -1.1548696e-27 -6.840764e-27 -1.8517928e-27 6.2892024e-27 -9.239785e-27
-1.2062535e-26 -9.8725126e-14 8.7612055e-27 1.4796921e-26 -6.551711e-27 -3.825942e-27 -2.3773918e-27 1.3273218e-28
5.0879837e-27 -1.298893e-27 -2.1326812e-11 -7.137274e-16 -0.3500135 0.10952311 -0.23891237 -0.012264344

encoder.6.bias f4 [18]
00000000: 3738 fe3d ab3c 1fbf 3de3 333e 1005 81bc
00000010: d7e1 de3b 451c c6bd e81e 1aa7 5154 8d3e
00000020: 3116 61be 6fb2 033e a742 c2be 0dbf 20bd
00000030: 6bae 6bb7 28e9 12bf 5b3b a0be e688 0f3f
00000040: e1f1 cdbd f18c 07be
0.12413066 -0.62201947 0.17567153 -0.015749484 0.0068018246 -0.09673361 -2.1388548e-15 0.2760339
-0.21981122 0.12861036 -0.37941477 -0.0392447 -1.4047701e-05 -0.5738702 -0.31295285 0.56068265
-0.100559 -0.13237359

encoder.8.weight f4 [10, 18]
00000000: 5719 c9bc 5a34 373e 7580 ae3e 9add 21b0
00000010: fb7f 98bc ad7f f039 b510 4495 5240 33bc
00000020: cb8b 8b3e 5064 b2bb 7845 afbe fb10 093d
00000030: ff44 e5b0 4371 0ebd c011 d4bc 63ba e7bb
00000040: f803 9d3c 3923 03be a2f7 033c 6a2f 2ebe
00000050: f46f a53e 9a86 e836 c432 293d 1ace e438
00000060: 22b1 5c94 8ef4 1e3e 2b92 8f3e b689 b8bd
00000070: 35a5 fabb ad93 09bc 4745 8ead 4323 893e
00000080: df71 9bbd 8f36 febd 4ea0 f6bd bae5 14bd
00000090: c8a6 c0be 4948 233d ceb1 ea3e befa 8dae
000000a0: 2e6a 1ebc 6baf 83ba 1cc8 6418 43b2 c7be
000000b0: 8325 8dbe 0d78 343e cb73 13bd b25e b33d
000000c0: 3b70 cf39 9506 bd3e 2c69 6e3e 0e16 0ebe
000000d0: 48e5 86bd d4b9 113e 83e2 433b b943 adbd
000000e0: 2281 a73e 8f2b bdb8 bf95 cd3c 8a1b deba
000000f0: cf31 4514 61da c93b cfab 0e3e 86e7 bcbc
00000100: 925e 3bbe 5740 a13c 4140 afaa 62d5 ddbc
00000110: eb03 a63c c0b9 52bc cb58 8f3d 78bc 893b
00000120: 6eba 84be 0a52 ec3e 4d21 ef3d e847 0fa8
00000130: 2b51 44be ad9c 9cb8 9146 e995 38ee f83d
00000140: f4ad fabe e6e8 8b3e 49ba cebe 0f02 93bd
00000150: ea4e 1d36 93b6 51be 6683 b33e 1bcc ef3e
00000160: fa9e 08bd 4fd5 49bc f0ff aebc 3f2e e2bd
00000170: cf86 223e 0892 073a b70f 11bb ad15 8738
00000180: 3753 d315 3690 9dbc e64e 85be 43ff cfbc
00000190: ea9a 1e3d 4141 62bc 28c3 33b5 4488 0cba
000001a0: 349a b0bd 91bd adbc 44ba 0dbe de0b 0cbe
000001b0: 88bd f239 c782 2ebd 0b5e 9fbe ead3 d928
000001c0: 39bc cfbc 54e3 073a aa3a db93 e983 3cbc
000001d0: 8abd c9bd 8c76 ddbb d07d a9bd 2461 963d
000001e0: c34d 1735 bf8f f53c 5472 563d 676e 203c
000001f0: 13e2 e93d 2f6e 15bd 383b 19bc e49c fc3d
00000200: fbdc 573f 1763 86b7 6a12 3abd f365 2739
00000210: 1390 9a96 821c 0b3d 1796 28be 2002 ce3b
00000220: b208 0abe 6fb0 083d 5a47 d5b6 edaa e3bc
00000230: 6b3d aebe 6a38 a73c bb01 01be 9f06 f1bd
00000240: 3ca9 b5be e60b 653d 28f3 b13e 331e a5a4
00000250: 32fc ca3e f24c 2a39 c1b9 6215 8b5a 623e
00000260: e230 aa3e 55e5 b2be b1a7 a739 c9d0 bcbd
00000270: 00c9 5d32 5720 433d b681 953e 5be4 123e
00000280: bf5b 523d 2de8 12bd 3c94 8c3c 7cd3 373e
00000290: 7337 df3e 48ed 5d38 3f5e 993b 2785 bfba
000002a0: 2dd0 4395 c1f8 0ebd 80df ed3d 4073 04bd
000002b0: 37f6 283c 31ed 443d ed41 3f35 660e f5bb
000002c0: 404d 4b3e 7bb6 b2ba 0c8f 3ebe dd10 6fbe
-0.024548216 0.17891064 0.3408238 -5.8886374e-10 -0.018615713 0.00045871493 -3.9595064e-26 -0.010940628
0.2725509 -0.005444087 -0.34232688 0.03346346 -1.6681553e-09 -0.034775984 -0.02588737 -0.0070717796
0.019166932 -0.12806405 0.008054646 -0.17010275 0.32311976 6.9298085e-06 0.04130818 0.000109102766
-1.1142095e-26 0.15522978 0.28041205 -0.09010641 -0.0076490887 -0.008397025 -1.6174296e-11 0.26784715
-0.075900786 -0.1241275 -0.120422944 -0.036351897 -0.37627244 0.03986386 0.4583878 -6.4564784e-11
-0.00966887 -0.0010046785 2.9569339e-24 -0.3900319 -0.27567682 0.1762392 -0.0359991 0.08758296
0.00039565735 0.36919084 0.23282307 -0.138756 -0.06586701 0.14231044 0.002988965 -0.08460183
0.32715708 -9.020336e-05 0.025095819 -0.0016945463 9.955781e-27 0.006160066 0.13932727 -0.023059618
-0.18297794 0.019684 -3.113083e-13 -0.027079288 0.02026554 -0.012861669 0.06999358 0.0042033754
-0.25923485 0.4615634 0.116762735 -7.953687e-15 -0.19171588 -7.467843e-05 -9.4219285e-26 0.121548116
-0.4896084 0.27326125 -0.403765 -0.07178127 2.3440757e-06 -0.20479803 0.35061187 0.46835408
-0.033354737 -0.012318923 -0.021362275 -0.11043977 0.15871738 0.00051716017 -0.002213461 6.441339e-05
8.535351e-26 -0.019233804 -0.26036757 -0.025390273 0.038721956 -0.013809503 -6.6966686e-07 -0.00053608813
-0.08623162 -0.021208556 -0.13840586 -0.13676402 0.0004629905 -0.042605188 -0.31126437 2.4183743e-14
-0.025358306 0.0005183716 -5.534122e-27 -0.011506059 -0.09850605 -0.0067585167 -0.0827595 0.07342747
5.636504e-07 0.02997577 0.052355126 0.009791947 0.11420073 -0.036482032 -0.009352498 0.12334612
0.84321564 -1.6020187e-05 -0.045427717 0.0001596434 -2.4970965e-25 0.033962734 -0.16463505 0.0062868744
-0.1347988 0.033371385 -6.356201e-06 -0.027791465 -0.34031233 0.020412643 -0.12598316 -0.11768841
-0.35480678 0.05591955 0.34755826 -7.16085e-17 0.39645535 0.00016241128 4.578687e-26 0.22104852
0.3324042 -0.3494059 0.00031977662 -0.0921951 1.2909595e-08 0.047638264 0.29200524 0.14344923
0.051357027 -0.03586595 0.017160527 0.17951769 0.43596992 5.291149e-05 0.0046804245 -0.0014611826
-3.9544158e-26 -0.0349052 0.11614895 -0.032336473 0.010312608 0.048077766 7.124898e-07 -0.007478523
0.19853687 -0.0013634706 -0.18609256 -0.23346277

encoder.8.bias f4 [10]
00000000: 8045 2dbd d6d1 cdbe 3898 3c3e c0a6 bcbd
00000010: 9d45 683e 2bc1 7ebd aa6f de3d 8a18 c53c
00000020: 7bc2 73bd 3c4a 16bd
-0.04230261 -0.40199155 0.18417442 -0.092114925 0.22682805 -0.062195938 0.10861142 0.024059553
-0.059511643 -0.03669189

decoder.0.weight f4 [18, 10]
00000000: 31c9 293d 246c a5be 2bd3 213e 5c3f d1bd
00000010: 0a85 58bd 384b 703c f15b 993c a5ce dc3d
00000020: 921c 193e d035 f13c 03be e93c 6fe9 e2be
00000030: c446 413e 89eb 12bf d318 89be d1f0 b2be
00000040: 56d7 743e 954c 713e 236d 843e 751e 27bd
00000050: 9462 61bb 86e5 0c3d a2d3 d8be e04b c8ba
00000060: fc24 92be dba1 9c3b ba42 96bb 56cd abbb
00000070: 7c8f 853d d262 1ebc d15f 1ebd 3d74 02bf
00000080: 7031 333e 6537 a5bd 1699 5ebd bceb 4ebd
00000090: 4947 5d3d 075c bbbe 658b 103e 900d c63d
000000a0: d882 ddbd ca87 d6be c946 253e 612f 323c
000000b0: b90f a13d 0bba b63d 9c2b 353e 20c4 473d
000000c0: f231 993d f310 88be a7d4 c73c 10f5 10bd
000000d0: 69f2 57be 83cb b73c f09b 503e b87f cd3c
000000e0: 167c 9dbc 6760 0e3d afdb f5be 25c7 debb
000000f0: e8dd 51bd 25ec 0cbf 51f3 353e 06b3 2ebe
00000100: 837d 34be 41ba 1b3e 269e ec3e 73a0 d13e
00000110: d491 033e a720 e3be b2a2 13be 5ee0 7fbe
00000120: c1e8 883d b588 1bbe 34f0 e43c aac4 833d
00000130: ed5e 003e 9b70 9d3d c5e5 933d 1091 43be
00000140: 6d29 913d bdaf 1cbe 6565 183d dcc8 d7bc
00000150: eb72 8fbd 718f bb3b b35f 433d 1f0e 6c3e
00000160: 7511 c43d fac3 88bd 2a81 b8bb 86ee 6dbd
00000170: cec8 8bbe da50 1c3b b227 df3e cc41 aa3c
00000180: 1217 ca3b 0ec0 883c 8546 4a3e 29d2 f8bb
00000190: 8458 0f3e f2f6 00bf eabc a13d 8701 35be
000001a0: 87c4 87be c832 59be 28ef 4bbd 0ddb bf3e
000001b0: ea15 2b3e 2d0a 98be 55ab 673d 2131 2fbe
000001c0: 3463 f53e 46b4 163c 8c96 ad3e 6518 14bd
000001d0: 868e 90bd be4f 7c3d 4f3b c4bd abe9 d23c
000001e0: 28a8 6bbd 9805 503e aa03 c53e e0b3 1fbd
000001f0: be93 fa3b 80c7 16bd 239d 5b3d 900d eebd
00000200: 03f7 1cbe b4a8 4cbd c824 cf3c 5fae efbe
00000210: 815d ef3d 292f e3bc 2d60 5fbe b266 fbbd
00000220: 19a6 a6be 9e05 283e 4ddc a63d 4678 0ebe
00000230: 5a31 9bbb dc46 47be c061 273e 66d1 593c
00000240: bf3b 30be 1c54 de3d 95d9 663d 8a8e 13bc
00000250: 4c21 0a3f 081a a9bd 76e2 1bbe e0ed 80be
00000260: 58cf 4b3e fddf c5bd 177f 06be 8a8c 223d
00000270: dc2f 5abd a777 eb3d 092c 1d3e cbb3 23be
00000280: 2c46 19bc 4baa 4d3d 4a44 9f3e b886 95bc
00000290: 6519 03bf 631e 7c3c d121 cf3b 791a 863d
000002a0: 7f1b 7cbe 71a6 cd3c 00d8 863a 3157 f53d
000002b0: 8f2c 2d3e eb36 e0bc dc19 3cbe 9c75 fbbc
000002c0: f8ce bc3c 9f3e 603d c6e6 e33e 7abf a93c
0.041451637 -0.32309067 0.1580321 -0.10217163 -0.05286125 0.014666371 0.018720599 0.10781602
0.14952305 0.029444605 0.028532987 -0.4431872 0.18874651 -0.5739065 -0.26776752 -0.34949353
0.23910269 0.2356437 0.25864515 -0.04080053 -0.0034391033 0.034398578 -0.42348963 -0.0015281402
-0.28543842 0.004780037 -0.004585591 -0.005242984 0.06521508 -0.009667115 -0.038665596 -0.50958616
0.17499328 -0.08067206 -0.054345213 -0.050517783 0.05402306 -0.3659365 0.14115675 0.096705556
-0.10815972 -0.41900474 0.16140284 0.010875554 0.07864327 0.08922204 0.17692417 0.048771024
0.074802294 -0.2657543 0.024393393 -0.03538996 -0.21088566 0.02243591 0.20371985 0.025085315
-0.019224208 0.034759905 -0.48019168 -0.006798642 -0.051237017 -0.5504783 0.17768599 -0.1706048
-0.17626004 0.15207769 0.46214408 0.40942726 0.12848598 -0.4436085 -0.14417532 -0.24987933
0.06685019 -0.15188868 0.027946569 0.06433995 0.12536211 0.076874934 0.072215594 -0.19098306
0.070879795 -0.15301414 0.037206072 -0.026340894 -0.07004341 0.0057238867 0.047698688 0.23052262
0.09573642 -0.066780046 -0.005630632 -0.0580888 -0.2730164 0.0023851902 0.43584973 0.020783328
0.006167301 0.016693141 0.19753464 -0.0075934124 0.1399861 -0.5037681 0.078973606 -0.17676364
-0.26517126 -0.21210778 -0.049788624 0.3747181 0.16707578 -0.29695264 0.05655988 -0.17108585
0.47927248 0.009198254 0.3390392 -0.036156077 -0.07058434 0.061599486 -0.09581625 0.025746187
-0.057533413 0.20314634 0.38479358 -0.0389899 0.007647007 -0.03681135 0.053616654 -0.116236806
-0.15328602 -0.049965575 0.025286093 -0.46812722 0.11687756 -0.027732449 -0.21814032 -0.12275447
-0.32548597 0.16408393 0.08147488 -0.13913068 -0.004736108 -0.19460624 0.16345882 0.013294553
-0.17210291 0.10855886 0.056359846 -0.009006152 0.53957057 -0.08256918 -0.15223107 -0.25181484
0.19903314 -0.09661863 -0.13134418 0.03968481 -0.0532683 0.11497431 0.1534883 -0.15986554
-0.009355109 0.050211232 0.31106788 -0.018252715 -0.51210624 0.015388104 0.00632117 0.06548018
-0.24619864 0.02510378 0.0010287762 0.11979521 0.16911529 -0.027369937 -0.1836924 -0.030695729
0.02304791 0.05474722 0.44512004 0.020721186

decoder.0.bias f4 [18]
00000000: 043e 5bbf 54d0 91bf 7894 103e b1dc 77bf
00000010: d0bd aabe d0e7 b03d 4f9b babf f6b0 20be
00000020: 7d5d 0bbf bb82 423e 9670 08c0 b696 373d
00000030: adbf fe3d ae9c cdbf c041 89be 6e7d 1abf
00000040: fafa 77be c931 67be
-0.85641503 -1.1391702 0.14119136 -0.96821123 -0.3334794 0.08637965 -1.4578646 -0.15692505
-0.54439527 0.18995182 -2.1318717 0.044821464 0.12438903 -1.606344 -0.26807976 -0.6034764
-0.24216834 -0.22577585

decoder.2.weight f4 [36, 18]
00000000: b9bb d6bc 0918 263e a541 ddbe d8f0 8dbc
00000010: ac7b 51be 2c63 e6be b561 cc3e dded a3bd
00000020: d56f c1be cdee 2ebf e485 babe dc9f 263c
00000030: 6ddc 813e b7d9 a23e 0929 4f3d ef7e 983d
00000040: 8df4 0f3e 5e62 c63e 1a16 17be 8909 c2be
00000050: 614e d5be 8e83 82be 5e1c 8abd d035 8f3d
00000060: 918f aebd 9384 453d b922 9cbd e8c6 b1be
00000070: a4ff 7bbd fe86 9cbe e123 403e 4afe 273d
00000080: eee3 38bf 2032 d6bd 57f4 e93e 919c 20bf
00000090: 0b6f 88bd 10a4 123e 0ade 77bf 7d52 a4be
000000a0: 0dc5 debe 87d4 60bf 33e4 2ebe 2027 8f3e
000000b0: aee8 13be c24a 0b3e bbf3 483d c63d fdbd
000000c0: 2db4 42bf 957e 363e be7a 153d f1cb 78be
000000d0: 84ef 983c e4c4 6fbc 802f aebd 7779 ea13
000000e0: 0f8e 47be 41fa fcbd 59d7 4ebe c368 34be
000000f0: fce4 d114 56c2 f6bd d9f3 92be 1adb ea94
00000100: 2634 6f94 4c69 7bbe f4cd 0dbe afa4 3e13
00000110: 18ca 0dbc 39f6 74be bf5f f4bd f475 0cbe
00000120: 45a7 a0bb 0587 8714 774a 22bc 3ae0 5cbe
00000130: c3b3 0abf fb1b 40be 421e 1315 2f2b 94be
00000140: 7489 1dbc e485 cfbc 8b8c 8f94 0afd e6be
00000150: 88e3 78be 553a 763b 6140 5a3d 36d0 e8bd
00000160: a0ca a13c 3b4e b9bd 2b17 033e 6acc 0abe
00000170: 57f6 ee3d 8b07 b5bd 287b c6bb 2f1a 78bd
00000180: 06af 913c d170 753b 54ac 26bd 2468 90bf
00000190: fdaa f43d 5aa1 a7bf bfeb e5bd fb3f 04be
000001a0: 72f1 1f3e 655c dfbe 2d07 ca3e a4c9 5bbc
000001b0: 04b2 9192 dd07 219b 3c42 dc98 ca97 b193
000001c0: c1bf 0595 bd41 4895 72ff 4d15 83f4 0d12
000001d0: 7666 da9c b461 a9a5 32b1 4614 8acb 3495
000001e0: 8f17 f313 8cf9 c212 3684 84a2 fe42 3095
000001f0: b5bb 3792 e22c dca0 d8b4 34be d500 c7bd
00000200: e88a dbbd 7d72 ad9e 6abb a3be 48ba c9bc
00000210: f084 58bd c04c c9bc 9197 1c3d 442e 6fbd
00000220: 0bac 133e 192f 53bd 747f 833c 4c77 0dbe
00000230: 221f bcbd c425 49bc 7a0f d3bd df6b 4ebe
00000240: b371 f1bc 23f7 3ab6 fab1 80be 07c5 aabd
00000250: 28e4 85be 1152 48be 0174 8f93 768f 01be
00000260: 392a 113e bcf4 2cbe 0e80 6c93 4cf0 03be
00000270: 6e1c 84be 6444 e924 71d0 18bd d196 a4bd
00000280: c93a ac3d ce4d 4cbd 1114 75bd 386d 08bb
00000290: 0988 f8bd e5b9 11be 7e4e 41be 668e 04bf
000002a0: 4b6b c0be fed1 04bf 5e40 253e 3a3b 2bbf
000002b0: 6342 89be 17c7 b1be b1cf 0bbe da01 8c3d
000002c0: a4c2 fbbd 1e03 d2bd b658 a63c 69fd 8abd
000002d0: c0c9 763c 00d0 06ba 5c45 33be 6463 edbd
000002e0: 5f37 8f3d 725f 8dbd abb2 20a2 3719 dbbe
000002f0: bded c03d 57c6 94be 79e7 3c38 a4c8 12be
00000300: 882e a9bd 73d7 46bd ef23 69bd 08d6 f7bc
00000310: deff 66be ffc6 213c 5956 37be c0b9 f73c
00000320: 123f 81be 6534 253d 3df0 a1be 6acc 99be
00000330: c439 33be c399 a43c 6378 283e 9ac0 d4be
00000340: 7cf4 883d 7947 103d 9af7 22bf 308b bcbd
00000350: a017 5fbd 9d1a 41be 4fd9 46bf 00fb 87be
00000360: f57f 473e af7f e03e bec5 58bf d4f6 2abf
00000370: 2543 15bf fad3 ecbe b16c 1dbe 9edb e7bc
00000380: e313 b1bd 11f5 c3be 0715 84be 6083 a33e
00000390: 226c c0bf f5c8 98be d816 39bd 9d1d 91be
000003a0: 2349 7abf 9dd4 9a3e 00d3 592c 3feb 1415
000003b0: 19ae e0ad 60fc bd98 56df 96a3 c0a9 86a4
000003c0: b241 3295 4880 0ea9 4f2d 44a0 562d d911
000003d0: 5577 a193 9727 b9a5 3c51 82aa 2bfd ce94
000003e0: eea3 87af cf92 fba0 dc71 d4a6 7041 7923
000003f0: ad17 eebc e372 9e98 bd1a 143d bbd0 66be
-0.02621256 0.16220106 -0.43214145 -0.017326757 -0.20457333 -0.44997537 0.39918295 -0.08004353
-0.37780634 -0.6833313 -0.36430275 0.010169949 0.25363484 0.31806728 0.050576244 0.07446086
0.14058132 0.38746923 -0.14754525 -0.378979 -0.4166136 -0.25490993 -0.06743692 0.06992686
-0.08523477 0.048222136 -0.0762381 -0.34722066 -0.061523095 -0.3057174 0.18763687 0.041013993
-0.72222793 -0.10458779 0.4569423 -0.627389 -0.06661805 0.14320397 -0.9682318 -0.32094184
-0.43509713 -0.8782429 -0.17079239 0.27959538 -0.14444229 0.13602737 0.049060564 -0.12365298
-0.76056176 0.17821725 0.03649401 -0.24296547 0.018668897 -0.014634345 -0.08505154 5.918968e-27
-0.19487785 -0.1235242 -0.20199336 -0.17618088 2.1193925e-26 -0.120487854 -0.28701666 -2.3714382e-26
-1.2076701e-26 -0.24551886 -0.13848096 2.4062567e-27 -0.00865414 -0.23922051 -0.119323246 -0.1371687
-0.0049027526 1.3684772e-26 -0.009905449 -0.2156991 -0.54180545 -0.18760674 2.9710283e-26 -0.28939196
-0.009615291 -0.025332399 -1.4494744e-26 -0.45114928 -0.24305546 0.003757139 0.053284053 -0.11367838
0.01974994 -0.090481244 0.12801807 -0.1355454 0.11668079 -0.08839329 -0.006057162 -0.060571846
0.017783653 0.0037451277 -0.04069169 -1.1281781 0.11946676 -1.3096116 -0.112266056 -0.12915032
0.15619448 -0.4362518 0.394586 -0.013414774 -9.194671e-28 -1.3320149e-22 -5.6935547e-24 -4.4830757e-27
-2.7010403e-26 -4.0441537e-26 4.160093e-26 4.479314e-28 -1.4452515e-21 -2.9383033e-16 1.0031391e-26 -3.6511275e-26
6.1365055e-27 1.2304639e-27 -3.5918655e-18 -3.5595764e-26 -5.7975985e-28 -3.729915e-19 -0.17647111 -0.097169556
-0.10719854 -1.8364439e-20 -0.31978923 -0.024624959 -0.052861154 -0.02457273 0.038230482 -0.05839373
0.14421098 -0.051558588 0.016051985 -0.1381504 -0.091856256 -0.01227707 -0.10305686 -0.20158337
-0.029473161 -2.7860012e-06 -0.25135785 -0.08338361 -0.26150632 -0.19562556 -3.6212664e-27 -0.12652382
0.14176263 -0.16890234 -2.9850524e-27 -0.12884635 -0.2580294 1.011635e-16 -0.03730816 -0.080365784
0.0840965 -0.049878888 -0.05983359 -0.0020817053 -0.12135322 -0.1423107 -0.18877599 -0.5177978
-0.37581858 -0.5188292 0.16137835 -0.6688725 -0.26808462 -0.34722206 -0.13653447 0.06836291
-0.12292984 -0.10254501 0.020305973 -0.067866154 0.015062749 -0.0005142689 -0.17506927 -0.11591223
0.06992983 -0.069029704 -2.177863e-18 -0.42792675 0.09420345 -0.2905757 4.503827e-05 -0.14334351
-0.08260828 -0.048545312 -0.056919035 -0.030253425 -0.22558543 0.0098741045 -0.17904033 0.03023994
-0.2524343 0.04033317 -0.316286 -0.30038768 -0.17502505 0.02009285 0.16452174 -0.41553193
0.06687257 0.03522441 -0.6365906 -0.092062354 -0.05446589 -0.18857808 -0.77675337 -0.26558685
0.19482405 0.43847415 -0.8467673 -0.6678288 -0.5830558 -0.46255475 -0.15373494 -0.028302964
-0.08646371 -0.38272908 -0.25797293 0.3193617 -1.5033 -0.29840818 -0.0451878 -0.28342906
-0.9776785 0.30240336 3.0954683e-12 3.0073938e-26 -2.5543167e-11 -4.911019e-24 -1.6357619e-17 -5.8400804e-17
-3.5998638e-26 -3.16416e-14 -1.6616837e-19 3.4264504e-28 -4.0759784e-27 -3.2119211e-16 -2.3149007e-13 -2.0900542e-26
-2.4672836e-10 -4.2618204e-19 -1.4741317e-15 1.3512174e-17 -0.029064024 -4.095805e-24 0.036158312 -0.22540562

decoder.2.bias f4 [36]
00000000: c61e eb3c 7160 283e b674 8f3d 91f3 9dbc
00000010: 7d0d f3be 085d 14bd bda2 3f9c 0322 a5bd
00000020: 9323 113c cbeb 35be 0ac1 f0bd 47f1 203d
00000030: 4303 32be d8c0 48b4 a0a2 c2be 6d7e 003e
00000040: 0d06 c3bc 24aa 6ebe 0f4b fcbe cc5c 6ebe
00000050: 6bff aebd e33b 10be e187 98be 204f 0bbe
00000060: 2609 a8bf c6ee 05bd df0b efbd 8336 fcbd
00000070: 7bd9 dd3c 70e5 93bb 8f54 d6bc 5020 73be
00000080: 311d 23bf 00d3 5c3c 5d01 49be 0039 0e3f
0.028701197 0.1644304 0.07004683 -0.01928118 -0.47471228 -0.036221534 -6.3406933e-22 -0.08063128
0.008858579 -0.17765729 -0.11755569 0.0392926 -0.17384057 -1.8696608e-07 -0.38014698 0.12548228
-0.023806596 -0.23307091 -0.49276015 -0.23277587 -0.08544811 -0.14085345 -0.29791167 -0.13604403
-1.3127792 -0.032698415 -0.11672186 -0.12315085 0.027081242 -0.004513435 -0.026163368 -0.23742795
-0.6371642 0.013478041 -0.19629426 0.55555725
