MNISTmodel.pt (torch, 904747 bytes, 20 tensors)

encoder.0.weight f4 [128, 784]
0	0x92a949de	-1.0683609e-27
1	0x92bd0994	-1.1929938e-27
2	0x12dd6739	1.3972507e-27
3	0x12d97128	1.37225205e-27
4	0x129697b2	9.503727e-28
5	0x92ab15ee	-1.0797023e-27
6	0x91afdeff	-2.7747564e-28
7	0x10a525f1	6.513948e-29
8	0x12cac6cc	1.2796999e-27
9	0x12a01bf8	1.0104314e-27
10	0x12909e0d	9.12664e-28
11	0x100077c4	2.5335813e-29
12	0x92baa551	-1.1779004e-27
13	0x927b81a6	-7.936144e-28
14	0x92860bd4	-8.459505e-28
15	0x12b5b398	1.1466979e-27
16	0x92b192fa	-1.1206503e-27
17	0x118ce7ee	2.2231043e-28
18	0x126523fe	7.2304023e-28
19	0x901e2f9e	-3.119669e-29
20	0x92535558	-6.6685055e-28
21	0x12176907	4.7776655e-28
22	0x8b82406d	-5.0171116e-32
23	0x923da9c5	-5.984714e-28
24	0x92bbbb50	-1.1847535e-27
25	0x91c9250e	-3.1735045e-28
26	0x9248a7f4	-6.331589e-28
27	0x91243c8f	-1.295598e-28
28	0x913fa4ca	-1.5118023e-28
29	0x91570f39	-1.69652e-28
30	0x129b36aa	9.795351e-28
31	0x923a302f	-5.875064e-28
32	0x129941ad	9.671848e-28
33	0x92a5d25f	-1.0464824e-27
34	0x91b0a977	-2.7872345e-28
35	0x3cb9aaba	0.022664417
36	0x3e937a9a	0.28804475
37	0x3e89c1a7	0.26905558
38	0x3e613817	0.21994053
39	0x38068ffc	3.2082185e-05
40	0xbe959578	-0.29215598
41	0xbe919099	-0.28430632
42	0xbd76d204	-0.06025888
43	0xbd25baca	-0.04046134
44	0xbd21d7a6	-0.0395123
45	0xbd77cc16	-0.060497366
46	0xbd4d427d	-0.050112236
47	0x3b095975	0.0020957862
48	0xbd8541e3	-0.065067075
49	0xbe443726	-0.19161662
50	0xbba6ba15	-0.0050881007
51	0x121635b2	4.739784e-28
52	0x129d9114	9.9438575e-28
53	0x914fd7ca	-1.6395916e-28
54	0x125aaf8b	6.9005044e-28
55	0x917dd6fb	-2.0024427e-28
56	0x925ce86e	-6.970625e-28
57	0x927e66f6	-8.0275177e-28
58	0x11fcca37	3.9883214e-28
59	0x11a79bd1	2.6443984e-28
60	0x12ddadc5	1.3989898e-27
61	0x914ef48e	-1.6325894e-28
62	0x921691db	-4.7511435e-28
63	0x3e668c02	0.22514346
64	0x3ee8ef4a	0.45495063
65	0x3ef12ef8	0.47106147
66	0x3f171f43	0.59032077
67	0x3ebd52b7	0.3697717
68	0xbebabf4b	-0.3647407
69	0xbe82b3d9	-0.25527838
70	0xbefda5ba	-0.49540502
71	0xbea1bbd8	-0.31588626
72	0xbf12fa3c	-0.5741308
73	0xbf8860bc	-1.0654521
74	0xbfa09122	-1.2544291
75	0xbf4f41ae	-0.80959594
76	0xbf63db4b	-0.8900649
77	0xbf37ccc6	-0.71796834
78	0xbe3561c6	-0.17713079
79	0x3dd93307	0.10605436
80	0x3cc67e95	0.02423028
81	0x915bc51b	-1.7336792e-28
82	0x92a09cdb	-1.0136087e-27
83	0x122bba36	5.418761e-28
84	0x91f223be	-3.8202896e-28
85	0x91bd3dcd	-2.985703e-28
86	0xb72d8bf7	-1.0344192e-05
87	0xb502363a	-4.8507684e-07
88	0x92d5621d	-1.3466377e-27
89	0xbe335464	-0.17512661
90	0xbe0ac240	-0.13550663
91	0xbf42aad0	-0.7604189
92	0xbeec1649	-0.46110752
93	0x3e072a16	0.13199648
94	0x3f41766c	0.7557132
95	0x3f82cc4f	1.02186
96	0x3da2c5b5	0.07947866
97	0xbef48b2d	-0.47762433
98	0xbf209403	-0.6272585
99	0xbf8abff4	-1.083983
100	0xbfb9523c	-1.4478221
101	0xbfc10e78	-1.508254
102	0xbf82d5e0	-1.022152
103	0xbf8a47fe	-1.080322
104	0xbf62f11f	-0.8864917
105	0xbe6ab5b8	-0.22920883
106	0x3d5309fa	0.051523186
107	0x3de1050d	0.109872915
108	0x3e21c008	0.1579591
109	0xbe5e2a1b	-0.2169575
110	0xbd6084dc	-0.054814205
111	0x1287aafe	8.561851e-28
112	0x91724871	-1.9112757e-28
113	0x91f44e11	-3.8544524e-28
114	0xb9f549e2	-0.00046785088
115	0xb6d64fbf	-6.3869807e-06
116	0x25b4bf11	3.1354494e-16
117	0xbec45db3	-0.38352737
118	0xbea4ce03	-0.32188424
119	0xbf012775	-0.5045083
120	0xbe60962f	-0.2193229
121	0xbea4a35e	-0.3215589
122	0xbdf6e24c	-0.120548815
123	0xbe1c6094	-0.15271217
124	0xbf2312f4	-0.63700795
125	0xbf0fc55d	-0.5616053
126	0xbdbd670d	-0.09248171
127	0xbe71939d	-0.23591466
128	0xbf187cda	-0.5956551
129	0xbf5e8834	-0.8692658
130	0xbf205723	-0.6263296
131	0xbe1f38de	-0.15549037
132	0xbea788e4	-0.32721627
133	0xbea6e41f	-0.32595918
134	0xbe421497	-0.18953167
135	0x3e0b1cd1	0.13585211
136	0x3e86dccf	0.2634034
137	0xbe4b49a3	-0.19852309
138	0x3d3902cd	0.045168687
139	0xbd4400a9	-0.047852192
140	0x126ddf2a	7.5059085e-28
141	0x1293adc2	9.319839e-28
142	0xb5e9acb2	-1.7410114e-06
143	0x3df0b5bd	0.11753414
144	0x3e300f04	0.17193228
145	0xbec2936e	-0.38003105
146	0xbeb125d2	-0.34599167
147	0xbf245ade	-0.6420115
148	0xbe91d180	-0.28480148
149	0xbec66167	-0.38746187
150	0xbf2c4727	-0.6729607
151	0xbf723e22	-0.9462606
152	0xbf0341a3	-0.5127203
153	0xbd5af6c2	-0.053457983
154	0x3e3409f9	0.1758193
155	0x3e12004c	0.14257926
156	0xbd85611c	-0.06512663
157	0x3e9a02d1	0.30080274
158	0x3f039b71	0.5140906
159	0x3e98d19f	0.29847428
160	0x3dad8c77	0.08474057
161	0xbe419a83	-0.18906598
162	0xbee44c63	-0.44589528
163	0xbf2d4d95	-0.67696506
164	0xbe8fbf6d	-0.28075734
165	0x3f4e21bd	0.8052023
166	0x3eca0438	0.39456344
167	0x3c2739df	0.010206669
168	0x90a050bc	-6.3233263e-29
169	0xba0f344f	-0.00054628117
170	0xbbed6a4e	-0.0072453385
171	0x3e4d6302	0.200573
172	0x3e0d76de	0.13814875
173	0x3d235890	0.03987938
174	0xbe84d3f3	-0.25942954
175	0xbd161e2e	-0.036649875
176	0xbe41f8f2	-0.18942621
177	0xbf1ce9de	-0.61294353
178	0xbf4d281f	-0.80139345
179	0xbe91cc52	-0.28476197
180	0xbd139451	-0.036030117
181	0xbe66514f	-0.22491954
182	0x3c4497e4	0.011999104
183	0x3c7fc28c	0.015610348
184	0x3e0b1ded	0.13585635
185	0xbdbf0973	-0.09327974
186	0x3e5a0760	0.21291876
187	0x3f0aeb98	0.5426574
188	0x3eb8eaea	0.36116725
189	0x3e2e804b	0.17041127
190	0xbe80196f	-0.25019404
191	0x3d0e57d7	0.03475174
192	0x3ea77a32	0.32710415
193	0x3f98463e	1.1896436
194	0x3ee4f95c	0.44721496
195	0x3db6a9a9	0.08919079
196	0x9220a390	-5.0688704e-28
197	0xbe0a58b0	-0.13510394
198	0xbce1fb05	-0.027585516
199	0xbd2ee927	-0.04270282
200	0xbe8095d8	-0.25114322
201	0x3f2cedf2	0.67550576
202	0x3e99e48b	0.30057177
203	0x3f1d8f43	0.61546725
204	0x3e9f04ba	0.31058294
205	0xbebcd413	-0.3688055
206	0x3ccc900d	0.024971033
207	0x3e0b4e61	0.13604118
208	0xbd846bce	-0.064658746
209	0xbd9d2fa7	-0.076751046
210	0xbc8c7c72	-0.017149184
211	0xbe5c3f84	-0.21508604
212	0xbe90ce73	-0.28282508
213	0xbe2638a6	-0.16232547
214	0x3db56955	0.08857981
215	0x3dc9e2a1	0.09857679
216	0x3e9e1bb5	0.30880514
217	0x3e83e16f	0.2575793
218	0x3de9cd06	0.11416058
219	0xbca18f0c	-0.01972153
220	0x3ed6bf36	0.41942757
221	0x3ed44107	0.41455862
222	0x3e276e09	0.16350569
223	0x3f006f7d	0.5017012
224	0x1181b6a7	2.046518e-28
225	0x3c0f8a8f	0.008761062
226	0xba40c82e	-0.0007354048
227	0xbe0123dd	-0.12611337
228	0xbe9e929e	-0.30971235
229	0x3d33ac09	0.043865237
230	0x3d1326c5	0.035925645
231	0xbd8a35c9	-0.0674854
232	0xbf1d8d8c	-0.6154411
233	0xbea229cd	-0.31672516
234	0xbee93629	-0.45549133
235	0xbe5b248d	-0.21400662
236	0xbda8b73f	-0.082380764
237	0xbe886882	-0.26642233
238	0xbe8a3222	-0.26991373
239	0xbf3fd2e1	-0.7493115
240	0xbef3ba16	-0.4760291
241	0xbe8ab91d	-0.27094355
242	0xbd440958	-0.047860473
243	0xbedfcb0a	-0.43709594
244	0xbe7e38ca	-0.24826351
245	0x3e7295cc	0.23689955
246	0x3d943576	0.07236759
247	0xbe77b916	-0.24191698
248	0x3eb91413	0.36148128
249	0xbe3145f8	-0.17311847
250	0xbc8ac87a	-0.016941298
251	0x3e38d58e	0.18050215
252	0x3de41874	0.111374766
253	0x3e0628d3	0.1310151
254	0x386037ec	5.3457843e-05
255	0x3c15fb9e	0.0091542285

encoder.0.bias f4 [128]
0	0x3f94f522	1.1637309
1	0xa0e6c87f	-3.9096193e-19
2	0x98bccb97	-4.8802434e-24
3	0x3de66d73	0.112513445
4	0x96c5eadf	-3.197529e-25
5	0x3dc375c8	0.09543949
6	0x3fbed8e3	1.4909939
7	0x3d0685fe	0.03284263
8	0x9908ffda	-7.082704e-24
9	0xbf25bc95	-0.6474088
10	0x9922ed19	-8.423085e-24
11	0x3e98a46e	0.2981295
12	0x3ea84d22	0.32871348
13	0x951bc795	-3.1459443e-26
14	0x3f09be32	0.5380584
15	0x997178e7	-1.2483824e-23
16	0xbdcc45a7	-0.09974223
17	0xa50beb08	-1.213596e-16
18	0x3efcfb43	0.49410447
19	0x3eb6efbb	0.35729775
20	0xa294e6af	-4.0359726e-18
21	0xb9855b10	-0.00025435584
22	0x9642bd2e	-1.573089e-25
23	0xbe2ce7fe	-0.16885373
24	0xbbdb2eea	-0.006688942
25	0x3e3d7fc9	0.18505777
26	0x401b6f9e	2.4286876
27	0xb0c5b9de	-1.4386463e-09
28	0x9d1b0ce4	-2.0520743e-21
29	0x3d2c7706	0.042105697
30	0x3facc518	1.3497648
31	0x4005ca9a	2.0904908
32	0x3ecaed26	0.39634055
33	0xbb7a6bd8	-0.0038211253
34	0xa0c7d103	-3.3850224e-19
35	0xbc8725d7	-0.016497536
36	0x3f85fcd7	1.0467786
37	0x3e9a810c	0.3017658
38	0x99739db0	-1.259465e-23
39	0x3ef67b25	0.48140827
40	0xbdda2cdb	-0.10653087
41	0x3f1dca32	0.6163665
42	0x99b6b8da	-1.889302e-23
43	0x95919d22	-5.8812945e-26
44	0x3c6db70c	0.014508974
45	0xbb6d7e04	-0.0036238441
46	0x3e9393b5	0.2882363
47	0x3e602e40	0.21892643
48	0x3f39987c	0.724983
49	0x9d015a2b	-1.7119624e-21
50	0xb211ba0f	-8.482416e-09
51	0x9a450451	-4.0742132e-23
52	0x98756268	-3.171519e-24
53	0xbd9d0949	-0.07667787
54	0x96c792cc	-3.2242826e-25
55	0xa0e63d61	-3.9004133e-19
56	0x3a9a6a73	0.0011780992
57	0xaf433244	-1.7753005e-10
58	0x3bb78064	0.005600022
59	0xa8a6a205	-1.8499967e-14
60	0x3cdcf109	0.026970403
61	0x3f37e388	0.7183156
62	0x92f76fd8	-1.5615463e-27
63	0x3e05280a	0.13003555
64	0x3f8999c4	1.075005
65	0x3e1ea545	0.15492733
66	0x3d0cae21	0.03434575
67	0xbc4a5ea2	-0.012351664
68	0xbbf7f05b	-0.0075664944
69	0x3cc0d218	0.02353768
70	0x3f073060	0.5280819
71	0xbd1cf3de	-0.038318507
72	0x99442d41	-1.01421015e-23
73	0x3d5a7422	0.05333341
74	0x3d27c0de	0.040955417
75	0x3f5ddcd1	0.86665064
76	0x3f382cda	0.7194344
77	0xa36a3bc5	-1.2697822e-17
78	0x3f58629e	0.8452548
79	0x9add4709	-9.151822e-23
80	0x9a1e0aa1	-3.268222e-23
81	0x3e478948	0.19485962
82	0x993bae39	-9.7028574e-24
83	0x3fa91dac	1.321218
84	0x3f5a727d	0.85330945
85	0x3fb7e7b1	1.4367582
86	0xbd3b100b	-0.045669597
87	0xbd8094ec	-0.062784046
88	0x9405179b	-6.719439e-27
89	0x9654e810	-1.719845e-25
90	0x99d9b2ca	-2.2509486e-23
91	0x3f04c157	0.51857513
92	0xb3ca8a12	-9.431473e-08
93	0xbd3b7c76	-0.045772992
94	0xbe251e24	-0.16124779
95	0x3eaa6c70	0.33285856
96	0x9b92ca3d	-2.4284367e-22
97	0x9d5fe1cf	-2.9630545e-21
98	0xbdfb5da1	-0.12273718
99	0x99acc464	-1.7863705e-23
100	0xbd2313f1	-0.03981394
101	0x3f6b1a9f	0.91837496
102	0xbcd14f25	-0.025550434
103	0xbd872e51	-0.06600631
104	0xacc6acb3	-5.646672e-12
105	0xa0503fa2	-1.763934e-19
106	0x3f642554	0.8911946
107	0xbc2ee917	-0.01067569
108	0x999da023	-1.6298098e-23
109	0x3f3cec27	0.7379784
110	0x9b735e3b	-2.0130936e-22
111	0xbe53a46a	-0.20668188
112	0x959ea3d4	-6.407417e-26
113	0x3f20493f	0.62611765
114	0x3b4377ef	0.0029826125
115	0xacff1049	-7.249344e-12
116	0xac7cd7d2	-3.5931158e-12
117	0x3fdad6cb	1.70968
118	0x3d320de1	0.043470267
119	0x9501b544	-2.6194336e-26
120	0x9fbc19db	-7.966387e-20
121	0x3e07989f	0.13241814
122	0x3be52483	0.006992878
123	0x93a5aa55	-4.1819816e-27
124	0x98f8bb0d	-6.429537e-24
125	0xbf028ee9	-0.50999314
126	0x9511fb16	-2.948059e-26
127	0x3d721e2a	0.059110798

encoder.2.weight f4 [64, 128]
0	0xbd502d89	-0.050824676
1	0x940eadeb	-7.203467e-27
2	0x12b2763d	1.1262527e-27
3	0xbda1515a	-0.07876845
4	0x93703558	-3.031856e-27
5	0xbcf48946	-0.029850613
6	0xbdaf78dd	-0.08567975
7	0xbd99cd44	-0.075098544
8	0x93afd126	-4.4382447e-27
9	0xb9b2eee1	-0.00034128784
10	0x169c39a3	2.5239533e-25
11	0xbd202904	-0.039101616
12	0x3d2e95dc	0.042623386
13	0x13020ddd	1.6415142e-27
14	0xbd6a04db	-0.057133537
15	0x947bf2de	-1.2720159e-26
16	0x3aff997b	0.0019500697
17	0x185c572d	2.8478346e-24
18	0x3d43bdd3	0.047788452
19	0xbd787041	-0.06065393
20	0x943f08ce	-9.644772e-27
21	0x9c4add73	-6.712241e-22
22	0x121e1109	4.9877007e-28
23	0x3c86726c	0.016411982
24	0xbd0b63e8	-0.034030825
25	0xbdab9181	-0.08377362
26	0xbd3cb0bd	-0.04606699
27	0x2bcb97b4	1.4466124e-12
28	0x14d4f3b7	2.1502658e-26
29	0xbcafc742	-0.021457318
30	0x3c81f4d1	0.015863808
31	0xbd90ab16	-0.07063882
32	0x3c510058	0.01275643
33	0x3b826b64	0.003980087
34	0x958a93d9	-5.597102e-26
35	0xbd59fa0b	-0.053216975
36	0xbd962465	-0.073311605
37	0xbd77bf34	-0.06048508
38	0x95294a96	-3.4188116e-26
39	0xbce665a0	-0.02812463
40	0xbcf6e97e	-0.030140635
41	0xbc67f1a0	-0.014156729
42	0x13f692a8	6.2243745e-27
43	0x137b7721	3.173939e-27
44	0x3bbf97f9	0.005846974
45	0xbd94f7f6	-0.07273857
46	0xbda1e945	-0.07905821
47	0x3d218781	0.039435867
48	0xbc94f37a	-0.018182505
49	0x92f1539e	-1.5229851e-27
50	0x359ca175	1.1669896e-06
51	0x950a4cb5	-2.792939e-26
52	0x961ce5d1	-1.2674097e-25
53	0xbd3a386b	-0.04546396
54	0x932235fb	-2.047389e-27
55	0x9608884a	-1.1028998e-25
56	0x3becf4b0	0.0072313175
57	0x315ec9e7	3.242002e-09
58	0xbccd5faf	-0.02507004
59	0x2165ec71	7.7901146e-19
60	0xbd85d642	-0.06535007
61	0xbd3242bd	-0.043520678
62	0x1322ac27	2.0532152e-27
63	0xbd59f645	-0.053213377
64	0x3cdf4b3b	0.027257552
65	0xbd06ea4c	-0.032938287
66	0x3c9274ab	0.017877897
67	0xbc1d601b	-0.009605433
68	0xbca4d4b9	-0.020120965
69	0xbd180f76	-0.03712412
70	0x3caf80e0	0.021423757
71	0x3c848ff9	0.016181933
72	0x145e7596	1.12313255e-26
73	0xbad08d38	-0.0015911227
74	0x3d12ff35	0.035887916
75	0xbd8717c6	-0.06596331
76	0xbd5c11ab	-0.053727787
77	0x14f2d72b	2.4520624e-26
78	0xbd047bd5	-0.032344658
79	0x14765c7d	1.2438066e-26
80	0x13c2f3f9	4.921306e-27
81	0xbdb63809	-0.088974066
82	0x92027a45	-4.1171476e-28
83	0xbdb936d4	-0.09043661
84	0x3bfca0ad	0.0077095837
85	0x3b9cc3b6	0.0047840727
86	0xbcd033f5	-0.0254154
87	0xbda64e4f	-0.08120405
88	0x1306ac1a	1.699803e-27
89	0x13ab8661	4.3298977e-27
90	0x933cbc73	-2.3821849e-27
91	0xbbf5ffe5	-0.0075073116
92	0x2cb157e6	5.0404013e-12
93	0xbc8cf1c8	-0.017205134
94	0xbcbce4a2	-0.02305824
95	0xbb39ac3b	-0.0028331417
96	0x93688f09	-2.9353039e-27
97	0x1a94a209	6.147315e-23
98	0xbd5c61f1	-0.05380434
99	0x13955673	3.7698133e-27
100	0xbd437f32	-0.047728725
101	0xbd5bd8ba	-0.053673483
102	0xbd2ba9e1	-0.041910056
103	0xbc80b27e	-0.015710112
104	0x28aac833	1.8960614e-14
105	0x15924a60	5.9086273e-26
106	0xbd563c5c	-0.052303657
107	0xb95be2db	-0.00020969978
108	0x95f7b27e	-1.00044117e-25
109	0xbc9485d0	-0.018130213
110	0x17e9b854	1.5103803e-24
111	0xbd730afb	-0.059336644
112	0x94534c26	-1.0667795e-26
113	0xbd9c7e71	-0.07641304
114	0x3d5dc7c7	0.0541456
115	0x33b44f2b	8.396304e-08
116	0xb2260c8c	-9.6653245e-09
117	0x3c1bfe5a	0.009521091
118	0xbc861a86	-0.01637007
119	0x14060173	6.765557e-27
120	0x933a199c	-2.3489127e-27
121	0xbd897694	-0.0671207
122	0x3b61bda1	0.0034445303
123	0x13ab092a	4.3175505e-27
124	0x938a7f41	-3.496158e-27
125	0xbd68e5d1	-0.056859795
126	0x928b4549	-8.789213e-28
127	0x3d3cfa29	0.04613701
128	0xbd2a0b4b	-0.041514676
129	0x9a4a51e4	-4.1838772e-23
130	0x16265e49	1.3439124e-25
131	0xbd95ee82	-0.073208824
132	0x159b9b8f	6.284943e-26
133	0x3d05bb5e	0.03264939
134	0x3cb69970	0.022289962
135	0xbdc2207d	-0.09478853
136	0x957bc3bc	-5.0843454e-26
137	0xbd5a3708	-0.05327514
138	0x171a06c6	4.9768633e-25
139	0xbdf66ae6	-0.12032108
140	0xbd26492f	-0.040597137
141	0x15c38eeb	7.898536e-26
142	0x3cfc8ecb	0.030829808
143	0x168d0cdd	2.2787896e-25
144	0x3cc374e7	0.023859454
145	0x97cab030	-1.309842e-24
146	0x3c6e6967	0.014551497
147	0x3d073ed0	0.033018887
148	0x1be6229a	3.807267e-22
149	0x9d55db32	-2.8303637e-21
150	0x9376d97a	-3.115679e-27
151	0x3c99cd05	0.018774519
152	0xbd85e003	-0.065368675
153	0x3cdbe4de	0.02684253
154	0xbe85c922	-0.26130015
155	0x1c59836b	7.196913e-22
156	0x1a43b839	4.047387e-23
157	0x3cd768ea	0.026295144
158	0xbd993bb4	-0.074820906
159	0xbea206bd	-0.31645766
160	0x3d254201	0.04034615
161	0x3b84bcbb	0.0040508187
162	0x1f48d3ba	4.2526783e-20
163	0xbd666cc2	-0.056256063
164	0xbea5bf84	-0.32372677
165	0xb9ae9ef4	-0.00033306296
166	0x92cd08ed	-1.2939519e-27
167	0xbc1b6a38	-0.009485774
168	0xbd9189b3	-0.07106342
169	0xbd3fbf36	-0.046813212
170	0x21e61550	1.5591048e-18
171	0x93721df9	-3.0559472e-27
172	0xbce9a0f9	-0.02851914
173	0x3ce7cb29	0.028295116
174	0x3c3bd5d0	0.011464551
175	0xbda2f0a3	-0.07956054
176	0xbdafdb75	-0.0858678
177	0x96db1b87	-3.539873e-25
178	0x9dbdf1f5	-5.027806e-21
179	0x9355ef24	-2.7002285e-27
180	0x972c2504	-5.562292e-25
181	0xbc20c7d8	-0.009813271
182	0x93368cbc	-2.3041017e-27
183	0x952ef8ac	-3.5335188e-26
184	0xbd6ef679	-0.058340523
185	0x15a2804f	6.5633714e-26
186	0x3cb9126d	0.022591794
187	0x96f8dadb	-4.0204678e-25
188	0xbd16dbc7	-0.03683069
189	0xbc9ba853	-0.019001162
190	0x1417ccff	7.66398e-27
191	0x3c232eae	0.00995986
192	0xbd1a9653	-0.037741017
193	0x3c0e8c46	0.008700436
194	0xbcd31636	-0.025767427
195	0xba136e95	-0.0005624083
196	0xbd67a656	-0.056555115
197	0xbd30c235	-0.04315396
198	0xbda9661c	-0.08271429
199	0x3ce7f2fe	0.02831411
200	0x1f025b82	2.7604264e-20
201	0xbda57427	-0.08078795
202	0x3d085701	0.0332861
203	0xbdb62322	-0.0889342
204	0xbea71ced	-0.32639256
205	0x1c11c114	4.8226023e-22
206	0xbe21909a	-0.15777817
207	0x1927068b	8.635019e-24
208	0x17e57533	1.4828363e-24
209	0xbdf40039	-0.11914105
210	0x1916a84e	7.788807e-24
211	0xbec22f8d	-0.37926903
212	0xbb95c1da	-0.004570228
213	0xbdc19a14	-0.09453216
214	0x3c770de0	0.015078992
215	0xbce044ec	-0.027376615
216	0x9205aacb	-4.217792e-28
217	0x93815ecc	-3.2657655e-27
218	0x16f2a5d1	3.9201854e-25
219	0xbdbaf08d	-0.09127913
220	0xa069fc95	-1.981944e-19
221	0x3c8b5199	0.017006682
222	0xbc7613ff	-0.015019416
223	0xbd81bb46	-0.06334548
224	0x140beef6	7.064833e-27
225	0x13cd89ba	5.1885084e-27
226	0xbd845b1a	-0.06462689
227	0x143ad229	9.432047e-27
228	0xbd0bb12d	-0.034104515
229	0x3a8b5291	0.0010629465
230	0xbd0a59bc	-0.033776984
231	0xbd995cff	-0.07488441
232	0x9e955b4b	-1.5813747e-20
233	0x1d15715e	1.9778595e-21
234	0xbd30bc42	-0.043148287
235	0xb9992a16	-0.0002921379
236	0x1900d94f	6.66133e-24
237	0xbd4031ab	-0.046922367
238	0x1689d258	2.226629e-25
239	0x3cd49c77	0.025953515
240	0x95232e8c	-3.2954307e-26
241	0xbdbd9330	-0.092565894
242	0xbcc84be7	-0.024450256
243	0x1c837617	8.699378e-22
244	0x9b469122	-1.6425071e-22
245	0xbe831a1b	-0.25605854
246	0xbdb5c006	-0.08874516
247	0x15bea6f1	7.7003776e-26
248	0x95b7175c	-7.3949966e-26
249	0x3d14c221	0.03631795
250	0xbdc0e635	-0.094189085
251	0x1242a72a	6.142165e-28
252	0x162d1d7e	1.3984135e-25
253	0xbddfd34c	-0.109289736
254	0x9270e477	-7.601225e-28
255	0x3d13a5f4	0.036046937

encoder.2.bias f4 [64]
0	0xbe0f9ca8	-0.14024603
1	0xbdf126d6	-0.117749855
2	0xbfa6aaad	-1.3020836
3	0xb770ec97	-1.43602e-05
4	0xbe019204	-0.12653357
5	0xa7c3d9cf	-5.435952e-15
6	0xbe3ec733	-0.18630676
7	0x9f178809	-3.208802e-20
8	0xbf27c60f	-0.6553659
9	0xb386d372	-6.278323e-08
10	0xbe3f7b99	-0.18699493
11	0x9e36b22e	-9.6718465e-21
12	0xa4a1fd54	-7.0251774e-17
13	0xbf003d0c	-0.5009315
14	0xbe7d4c66	-0.24736175
15	0xbe91e747	-0.28496763
16	0xacedc0e4	-6.7573603e-12
17	0xbd5b2880	-0.05350542
18	0xbe335694	-0.17513496
19	0xbf527c69	-0.82221085
20	0x9bf28543	-4.012166e-22
21	0xbd2ad395	-0.041705687
22	0xbd12617c	-0.0357375
23	0xbfaaadaf	-1.3334254
24	0x3f8e82bc	1.1133647
25	0x3f83acb3	1.0287079
26	0xbe4d99f3	-0.20078258
27	0x3ff5bd4a	1.9198391
28	0xa455f0b1	-4.6390886e-17
29	0xb0be498d	-1.3845224e-09
30	0xa6b1cbd8	-1.2337094e-15
31	0xa8da5e75	-2.4243826e-14
32	0x3ee798b6	0.45233697
33	0xbc8728c1	-0.016498925
34	0xbf606490	-0.87653446
35	0x98f9fb1d	-6.461855e-24
36	0xbda5d612	-0.08097471
37	0xbf45f8ff	-0.7733306
38	0xbfa53e7e	-1.2909696
39	0xbe3cc22c	-0.18433446
40	0x3e023d8c	0.12718791
41	0xa95ebd5f	-4.9458156e-14
42	0xbf01d370	-0.50713253
43	0xbf7b09a5	-0.9806159
44	0xb90accc3	-0.00013236985
45	0xb8455db6	-4.7055735e-05
46	0xbb382729	-0.0028099513
47	0xa9884688	-6.0518485e-14
48	0xbde13804	-0.10997012
49	0xbefa85b9	-0.48930147
50	0xbddbc4c7	-0.10730892
51	0x3f38c7dd	0.7217997
52	0x9ef00914	-2.5414743e-20
53	0xa3aeca08	-1.8950681e-17
54	0xbbbcd6a5	-0.0057628923
55	0xbf099704	-0.53746057
56	0xbe2916a3	-0.16512541
57	0xa8ef1a45	-2.6545723e-14
58	0xa6baf28e	-1.2972087e-15
59	0xbc4c34af	-0.012463733
60	0xbe37b3b1	-0.1793964
61	0x9e4fa94f	-1.0993501e-20
62	0xbe44c87c	-0.19217104
63	0x3f4d0df6	0.8009943

encoder.4.weight f4 [36, 64]
0	0x3d285c45	0.04110362
1	0x3dbf0565	0.09327201
2	0xbeafb73a	-0.34319478
3	0x237886ba	1.3472636e-17
4	0x3d557c92	0.052120753
5	0x1f9edfb5	6.7285695e-20
6	0xbd9b50bb	-0.075837575
7	0x148893af	1.3790742e-26
8	0xbf3e122a	-0.74246466
9	0x1d82523f	3.4495754e-21
10	0xbbc6fa66	-0.0060723303
11	0x1921b4e3	8.360035e-24
12	0x1c34291e	5.9610147e-22
13	0x3e8b6300	0.27223969
14	0x3d62017e	0.055177204
15	0x3e0b154d	0.13582344
16	0x1c77e029	8.2015165e-22
17	0xbde8e739	-0.11372227
18	0x3c779117	0.015110276
19	0x3d557831	0.052116577
20	0x93f1f2e3	-6.1076458e-27
21	0x3c34ce5e	0.01103553
22	0xbd60d58c	-0.054891154
23	0x3dc95065	0.09829787
24	0xbc97b137	-0.01851712
25	0xbee7a779	-0.4524496
26	0x3dc7c986	0.097552344
27	0xbf01ec5d	-0.50751287
28	0x1b4266de	1.6080542e-22
29	0x1f9ed1b5	6.7262534e-20
30	0x22d1e6a5	5.6893768e-18
31	0x1cb585db	1.2012176e-21
32	0x3d3fe166	0.046845816
33	0xbdcd24cf	-0.10016786
34	0xbe21f55a	-0.1581625
35	0x16528088	1.7004222e-25
36	0xbd83db68	-0.06438333
37	0xbe18f0d9	-0.14935626
38	0xbeab4772	-0.33452946
39	0x3d6361dc	0.055513248
40	0x3d088f7f	0.033339974
41	0x9aa1cbdd	-6.69174e-23
42	0x3edddb85	0.43331543
43	0xbe073c3d	-0.13206573
44	0x327dd582	1.4775084e-08
45	0xa36f8b0f	-1.2985663e-17
46	0x3b8cbf47	0.004295263
47	0xa286e8b1	-3.6567144e-18
48	0xba141dfa	-0.0005650219
49	0x3c98119e	0.018563088
50	0xbafa8af6	-0.00191149
51	0x3f626f7b	0.88451356
52	0x157988c9	5.0393054e-26
53	0x9c2780fb	-5.542237e-22
54	0xb651f8bc	-3.128821e-06
55	0xbc734252	-0.014847355
56	0xbd90784f	-0.07054197
57	0x1b0c33d5	1.1597276e-22
58	0xa550e853	-1.8119839e-16
59	0xbab35df6	-0.0013684619
60	0x3c0e0dbe	0.008670269
61	0x1c37b567	6.078408e-22
62	0xbd9b24f2	-0.07575406
63	0xbf951124	-1.1645856
64	0x96552267	-1.7216858e-25
65	0x9701aa31	-4.189696e-25
66	0x96e7fcc7	-3.7479588e-25
67	0x96ab7fdf	-2.7707238e-25
68	0x94046202	-6.6836256e-27
69	0x1891a192	3.7644766e-24
70	0x948fd9c2	-1.45252e-26
71	0x93054313	-1.682003e-27
72	0x94f8c46b	-2.5119074e-26
73	0x973f7546	-6.186345e-25
74	0x9c9c039d	-1.0324148e-21
75	0x961d7653	-1.2719696e-25
76	0x97dbc8ea	-1.4203261e-24
77	0x122837f8	5.308044e-28
78	0x961fd7ee	-1.2912053e-25
79	0x95b02462	-7.1143236e-26
80	0x12426873	6.134435e-28
81	0x1387ed3a	3.4312715e-27
82	0x184cd3d4	2.6473328e-24
83	0x9735a185	-5.868812e-25
84	0x927130bb	-7.6106256e-28
85	0x1410c60e	7.3092015e-27
86	0x939746f3	-3.818772e-27
87	0x9c66837c	-7.6270556e-22
88	0x91805b93	-2.0251276e-28
89	0x934a754f	-2.5553822e-27
90	0x163c2962	1.5199577e-25
91	0x18953da5	3.8577842e-24
92	0x14800f7c	1.2930805e-26
93	0x964024b9	-1.5521224e-25
94	0x9a3f1ced	-3.952124e-23
95	0x170ead2a	4.610124e-25
96	0x961859dd	-1.2306818e-25
97	0x13f661d6	6.2195604e-27
98	0x968a7024	-2.2365873e-25
99	0x157dc25c	5.1246266e-26
100	0x97c354eb	-1.2623016e-24
101	0x9d69010f	-3.083784e-21
102	0x9f78d87c	-5.2695114e-20
103	0x9a56b28a	-4.4398385e-23
104	0x98dac3f4	-5.654954e-24
105	0x14d616a2	2.1617405e-26
106	0x1c60e9f5	7.4417765e-22
107	0x93b412a0	-4.5456754e-27
108	0x9b76e064	-2.0421148e-22
109	0x1a81f4be	5.374855e-23
110	0x9434f2de	-9.135575e-27
111	0x1ada219f	9.0217005e-23
112	0x9445ec2d	-9.992536e-27
113	0x916fd68c	-1.8919888e-28
114	0x92bba4c0	-1.1841973e-27
115	0x181eb39d	2.0511703e-24
116	0x93faa466	-6.327098e-27
117	0x9461596b	-1.1377232e-26
118	0x97e54ac9	-1.4817657e-24
119	0x9936acbc	-9.444063e-24
120	0x1335eee3	2.2963192e-27
121	0x9286a184	-8.496406e-28
122	0x99a4d921	-1.70449e-23
123	0x9bef24b5	-3.9562955e-22
124	0x94ce4fec	-2.0832208e-26
125	0x17ed3f4a	1.5331742e-24
126	0x128788e8	8.553448e-28
127	0x98d0b532	-5.39497e-24
128	0x21b99251	1.2574817e-18
129	0xa549cce4	-1.750339e-16
130	0x9c931f9a	-9.735813e-22
131	0x93433712	-2.4639612e-27
132	0x12d34c9b	1.3334857e-27
133	0x9444bb02	-9.932352e-27
134	0xa3616599	-1.22187886e-17
135	0x939f6c1b	-4.0243843e-27
136	0xade3c68f	-2.589509e-11
137	0x13fea982	6.4285762e-27
138	0xac685adc	-3.301962e-12
139	0x13639e00	2.8729328e-27
140	0x942effd4	-8.835208e-27
141	0xb6aeccb5	-5.209435e-06
142	0x9e5992a8	-1.1518212e-20
143	0xb479cf8e	-2.326544e-07
144	0x9406b2ef	-6.8005596e-27
145	0xabf08e6c	-1.7092556e-12
146	0xa025aa9a	-1.4032491e-19
147	0xadaa9f04	-1.939738e-11
148	0x140c88cc	7.095172e-27
149	0x9342b872	-2.4577181e-27
150	0x942f2ea2	-8.844439e-27
151	0xb032f62f	-6.510587e-10
152	0xbbd0675d	-0.006359978
153	0xa72194ea	-2.2423965e-15
154	0x936e021d	-3.0040865e-27
155	0xb73f1281	-1.1388795e-05
156	0x14071485	6.819805e-27
157	0x13340c6a	2.2725315e-27
158	0x91985420	-2.4033218e-28
159	0x1330b903	2.230554e-27
160	0x9e805750	-1.3588639e-20
161	0x2426914c	3.6118583e-17
162	0xb49b7d75	-2.8962282e-07
163	0x9333b938	-2.2684296e-27
164	0x12f4d464	1.5450923e-27
165	0xaa86f7ca	-2.397512e-13
166	0xaf805086	-2.334028e-10
167	0x1b72810a	2.0059466e-22
168	0xb6056b7e	-1.9881113e-06
169	0x9393bac8	-3.7292198e-27
170	0xb2cc86aa	-2.3809964e-08
171	0xaf21874a	-1.4690929e-10
172	0x9331e842	-2.2455053e-27
173	0x9318a2d5	-1.926538e-27
174	0x92feeece	-1.60885235e-27
175	0x93f2bd09	-6.127579e-27
176	0x94168de0	-7.6010446e-27
177	0x163adc1a	1.5094412e-25
178	0x9426f55f	-8.429249e-27
179	0x2801293e	7.1698815e-15
180	0x11aa7833	2.689535e-28
181	0x140046d7	6.476319e-27
182	0x939c09ea	-3.9389712e-27
183	0xa2938318	-3.998323e-18
184	0x949dad95	-1.5921415e-26
185	0x11ebff15	3.723367e-28
186	0x1325ea62	2.0941488e-27
187	0x94123a4c	-7.382613e-27
188	0x241d8fe1	3.416582e-17
189	0x93c8a72b	-5.065194e-27
190	0x13ba9a25	4.7105e-27
191	0xaa8e4e97	-2.52788e-13
192	0x3c9cd8b7	0.019146306
193	0xbd9925cc	-0.07477912
194	0x3db21997	0.08696287
195	0x22f4a5bf	6.6311823e-18
196	0x3d185ed9	0.03719983
197	0x980e24fd	-1.8371744e-24
198	0xbe05ea3d	-0.13077636
199	0x930ace22	-1.751968e-27
200	0xbef0bd3c	-0.47019374
201	0x971243a7	-4.7260534e-25
202	0xbc3e9328	-0.0116317645
203	0x159570ee	6.035879e-26
204	0x971704eb	-4.879694e-25
205	0xbe37896d	-0.17923518
206	0xbcc6f4c2	-0.024286631
207	0xbda83683	-0.08213522
208	0xab78f323	-8.844472e-13
209	0xbdd3014d	-0.103029825
210	0xbcc50b84	-0.024053343
211	0x3f1aef29	0.6052118
212	0x153b5a10	3.7835396e-26
213	0xbdb3a4b9	-0.08771653
214	0xbe065880	-0.13119698
215	0xbef18806	-0.4717409
216	0x3e477611	0.19478633
217	0xbebea2de	-0.37233633
218	0x3d8c4930	0.06849897
219	0xbf233665	-0.63754874
220	0x94d74303	-2.1735884e-26
221	0x1b26be4f	1.379269e-22
222	0x16ab834a	2.7709395e-25
223	0x16b1e0aa	2.8737675e-25
224	0xbccada2f	-0.024762241
225	0x3d5bec5b	0.053692203
226	0xbf3067b4	-0.6890824
227	0x1495ebb1	1.5138119e-26
228	0xbe04e49a	-0.1297783
229	0xbe7a9126	-0.24469432
230	0x3e88d2ba	0.26723272
231	0xbd2aa48f	-0.04166084
232	0x3f439c71	0.76410586
233	0x16d87879	3.497271e-25
234	0xbd164cf5	-0.036694486
235	0x3f1092d8	0.56474066
236	0x2f40603c	1.7496488e-10
237	0x193a74d7	9.63957e-24
238	0x3ba6c529	0.0050894213
239	0x9c61563d	-7.4557715e-22
240	0x3d0fbf9a	0.035094835
241	0x3d67db09	0.056605373
242	0x3ae52bbe	0.001748435
243	0xbf501793	-0.8128597
244	0x943cd947	-9.534425e-27
245	0x145e9080	1.1236633e-26
246	0xb610be5c	-2.1568476e-06
247	0xbe0c22d1	-0.13685156
248	0x3d830507	0.06397443
249	0x1890e8dc	3.7458255e-24
250	0x25b952cc	3.214849e-16
251	0x3a437b4e	0.00074570335
252	0xbc881a5f	-0.016614137
253	0x16bd7c91	3.061321e-25
254	0xbf28d6eb	-0.6595294
255	0xbe054694	-0.13015205

encoder.4.bias f4 [36]
0	0x3e7d11a0	0.24713755
1	0xaca72328	-4.7503286e-12
2	0xb9002679	-0.00012221363
3	0x3f541b17	0.82853836
4	0xbe0c3bbe	-0.13694665
5	0xbdbf60e7	-0.093446545
6	0x3fc49858	1.5358992
7	0xbeb48729	-0.3525937
8	0xbdd29fea	-0.102844074
9	0xbde1c2ae	-0.1102346
10	0x3ce9ba1e	0.02853113
11	0xbde9fabe	-0.114247784
12	0xbee6fa19	-0.45112684
13	0xbe01ee96	-0.1268867
14	0xaed53303	-9.69518e-11
15	0xa6147805	-5.151047e-16
16	0xb1173bf0	-2.2007463e-09
17	0xbcec6067	-0.028854562
18	0xbbbae9b5	-0.0057041296
19	0xbed9d651	-0.42546323
20	0xbd956695	-0.072949566
21	0xb9995bbd	-0.00029250784
22	0xbeaf46ad	-0.3423361
23	0xbed73f88	-0.42040658
24	0xacd70155	-6.1108154e-12
25	0xb0aa5135	-1.2392208e-09
26	0xbdf1eb0b	-0.11812409
27	0x9cce374f	-1.3646233e-21
28	0x3f364e29	0.7121301
29	0xbdaecc02	-0.08535005
30	0xb9aa8042	-0.00032520486
31	0x3f853eb0	1.0409756
32	0xbe140d67	-0.14458238
33	0xbdc4204b	-0.09576472
34	0xac617490	-3.2039128e-12
35	0xbde05e36	-0.10955469

encoder.6.weight f4 [18, 36]
0	0x9eb13a11	-1.876462e-20
1	0x15b4a5f0	7.2963224e-26
2	0x92eb7f85	-1.4862021e-27
3	0xa0ceef92	-3.5056292e-19
4	0x2179e61d	8.4669034e-19
5	0x9a2cf13e	-3.576364e-23
6	0x1248f24d	6.340753e-28
7	0x14267701	8.404328e-27
8	0x91ed611f	-3.7451862e-28
9	0x94146f40	-7.494031e-27
10	0x95008adb	-2.5958932e-26
11	0x95e4c534	-9.23996e-26
12	0x979c5b0e	-1.0104249e-24
13	0x96719103	-1.9513583e-25
14	0x171ff5de	5.1686e-25
15	0x13443b84	2.4768021e-27
16	0x94a9a995	-1.7131527e-26
17	0x9a4ae15f	-4.1954674e-23
18	0x9f72e70d	-5.1436614e-20
19	0x9f105a4c	-3.0567878e-20
20	0x992e8460	-9.022322e-24
21	0x96b00f0c	-2.844383e-25
22	0x948b9d3c	-1.4097431e-26
23	0x9a748146	-5.0562444e-23
24	0x138e9b71	3.5999117e-27
25	0x17d9e934	1.4082165e-24
26	0x935af466	-2.7635966e-27
27	0x1443f50d	9.893312e-27
28	0x194a4ada	1.0458271e-23
29	0x9a95ca8e	-6.19522e-23
30	0x924554aa	-6.2266596e-28
31	0x9946740b	-1.0259795e-23
32	0x92dc710d	-1.3911821e-27
33	0x9316a865	-1.9015687e-27
34	0x93b281e1	-4.5061588e-27
35	0x945196ce	-1.05815444e-26
36	0x9e60fd19	-1.1910801e-20
37	0x92b2ce1e	-1.1284191e-27
38	0x12fb60ac	1.5864158e-27
39	0x9d22ad31	-2.153006e-21
40	0x1225443c	5.2148925e-28
41	0x9edd9de5	-2.3464589e-20
42	0xa095ff12	-2.5410373e-19
43	0x13b7eec3	4.643113e-27
44	0x94a24763	-1.6385977e-26
45	0x93a00881	-4.0398064e-27
46	0x9db50c09	-4.7922745e-21
47	0x143d74b4	9.565077e-27
48	0x92e85de6	-1.4664406e-27
49	0x140fb1e5	7.2547385e-27
50	0x13491629	2.5380693e-27
51	0x94545315	-1.071965e-26
52	0x946e5720	-1.2033112e-26
53	0x131da0df	1.9895502e-27
54	0x93cee8e6	-5.2231366e-27
55	0x93bdb9fa	-4.7893695e-27
56	0x1424b15c	8.314862e-27
57	0x1367d2d2	2.9260241e-27
58	0x13e8d22f	5.877229e-27
59	0x94b50e5e	-1.8281996e-26
60	0x13cf8e0b	5.239421e-27
61	0x93668666	-2.9096345e-27
62	0x13c6f6ae	5.022547e-27
63	0x945488e2	-1.073026e-26
64	0xa108ac07	-4.630627e-19
65	0x12845db6	8.353473e-28
66	0x142922f2	8.539211e-27
67	0x9cf8aff6	-1.6456748e-21
68	0x92cf4582	-1.3080672e-27
69	0x94233da9	-8.241557e-27
70	0x93eba416	-5.948414e-27
71	0x931805d9	-1.918798e-27
72	0xbc30d2e3	-0.010792467
73	0x13b5bae9	4.587513e-27
74	0x2b0d597b	5.021744e-13
75	0x3cb063ae	0.021531906
76	0xbd804671	-0.06263436
77	0x3f31c920	0.6944752
78	0xbd6348bc	-0.055489287
79	0x3e6a5f14	0.22887832
80	0x3c0ba509	0.008523234
81	0xbcd7e73b	-0.026355376
82	0x3e55e833	0.20889358
83	0xbe8b060e	-0.27153057
84	0x3e251013	0.16119413
85	0x3e8be96b	0.2732652
86	0x13a3581a	4.123386e-27
87	0x93c16b46	-4.882583e-27
88	0x1980d50e	1.3320942e-23
89	0xbe2f2ec7	-0.17107688
90	0x3b87bbbf	0.004142254
91	0xbe5de265	-0.21668394
92	0xb56d5ed1	-8.8427356e-07
93	0x1cba2537	1.2318067e-21
94	0x3e024866	0.1272293
95	0x3e59baed	0.21262713
96	0x126f1342	7.543884e-28
97	0x944a0dff	-1.0201154e-26
98	0x3a818c79	0.0009883783
99	0x138893b7	3.4476885e-27
100	0x3e9740fb	0.29541764
101	0x3d34ef52	0.044173546
102	0x14b34d03	1.8104757e-26
103	0x3f19b493	0.6004116
104	0xbdb51400	-0.08841705
105	0xbe36a3fe	-0.17835996
106	0x1430c83a	8.925217e-27
107	0xb2d3ab33	-2.4641485e-08
108	0xbe8c8353	-0.27443942
109	0x94a00c08	-1.6160617e-26
110	0x12c839e3	1.2636045e-27
111	0x3e282489	0.16420187
112	0x3de53199	0.111911006
113	0x3e214a55	0.15751012
114	0xbd8b7c62	-0.068108335
115	0x3e4689bd	0.1938848
116	0x1398142b	3.839008e-27
117	0xbd5dcddc	-0.0541514
118	0xbe128011	-0.14306666
119	0x3de9ef96	0.114226505
120	0xbe659b65	-0.2242256
121	0xbe192948	-0.14957154
122	0x13245319	2.074068e-27
123	0x124b7b1a	6.420724e-28
124	0x14b0fba6	1.7870716e-26
125	0x3c40a11b	0.011757161
126	0x93892c3f	-3.4627292e-27
127	0x3ecabee3	0.3959876
128	0x3d6a754d	0.057240773
129	0x126f17c5	7.54444e-28
130	0xbd23ea7b	-0.04001854
131	0xbe43df8e	-0.19128248
132	0x26cd269f	1.4235201e-15
133	0x9328c162	-2.1299926e-27
134	0xbbc054dd	-0.0058694915
135	0x1472d518	1.2259903e-26
136	0xbee41c70	-0.44552946
137	0x300552f7	4.850302e-10
138	0x13a3dffe	4.136786e-27
139	0x3e0f28c6	0.13980398
140	0xbe04ddf0	-0.12975287
141	0xbce3aa24	-0.02779109
142	0x144235a3	9.805075e-27
143	0x3af94363	0.0019017275
144	0x3e09a227	0.13440762
145	0x186a1831	3.0256005e-24
146	0x2a4f1769	1.8393415e-13
147	0xbe44e4a1	-0.1922784
148	0x3e81ac54	0.25326788
149	0x3e20b125	0.15692575
150	0x3dc32c2b	0.09529909
151	0xbd93caf5	-0.07216445
152	0xbd3f8c28	-0.046764523
153	0x3e052fb8	0.13006485
154	0x3ad7decc	0.0016469597
155	0x3eac14c7	0.33609602
156	0xbefa0939	-0.4883516
157	0x3dc12a03	0.09431841
158	0x9ea58aa9	-1.7527403e-20
159	0x157ec56c	5.145063e-26
160	0x9d69e621	-3.0956267e-21
161	0xbb908254	-0.0044100676
162	0x3d9c96f5	0.0764598
163	0x3d629b22	0.055323727
164	0x3dd0aaec	0.10188851
165	0x2320730e	8.697981e-18
166	0xbe9f82a6	-0.31154364
167	0x3c540c06	0.01294232
168	0x14c40a55	1.9795018e-26
169	0x1fbff103	8.129037e-20
170	0x3d81a4d4	0.063302666
171	0x922061e6	-5.0607767e-28
172	0x3ee12892	0.43976265
173	0xbd4ff794	-0.05077322
174	0x1f8a5029	5.857789e-20
175	0xbfa4ef9f	-1.2885627
176	0x3808aab1	3.2583896e-05
177	0x3d0aed7d	0.033917893
178	0x17e6708a	1.489181e-24
179	0xbceede06	-0.029158603
180	0xbc97ea6d	-0.0185444
181	0x1a0cd74b	2.9125234e-23
182	0xb2cd47ed	-2.3897849e-08
183	0xbd435715	-0.04769047
184	0x3d3bfe81	0.04589701
185	0xbd8dfec7	-0.069333605
186	0xbdade388	-0.08490664
187	0x3d7b0159	0.061280582
188	0x3d038c0c	0.03211598
189	0x3de583ef	0.11206805
190	0xbd5330da	-0.05156026
191	0xbc7b960f	-0.015355601
192	0xbdbbdf48	-0.09173447
193	0xbe235a5a	-0.15952435
194	0x21e89efd	1.5763015e-18
195	0x96c5340f	-3.185992e-25
196	0x9ea5aca2	-1.7541454e-20
197	0x3da9d870	0.08293235
198	0x3db68425	0.08911923
199	0xbb3c2aaa	-0.0028711953
200	0xbdfbe997	-0.12300413
201	0xa11f7b0e	-5.4034157e-19
202	0x3e25d0a9	0.16192879
203	0x3de99847	0.11405998
204	0x9795c57e	-9.678753e-25
205	0x214b91fa	6.8972274e-19
206	0xbcdd9f12	-0.02705339
207	0x9263cbfd	-7.1880005e-28
208	0xbcd052d1	-0.025430115
209	0x3d8c1d0b	0.06841477
210	0xa5ea8852	-4.0684904e-16
211	0xbe178e5a	-0.14800397
212	0x372cb8cc	1.0295025e-05
213	0xbc7f939f	-0.01559916
214	0x194ee3d9	1.0695964e-23
215	0xbb226b1f	-0.0024783087
216	0xbe194eb6	-0.14971432
217	0x13847513	3.343693e-27
218	0x13eaedaa	5.930426e-27
219	0xbe75e897	-0.24014507
220	0xbe21e56a	-0.15810171
221	0xbe4d8d2b	-0.20073383
222	0xbd16ad26	-0.03678622
223	0x3d296a83	0.041361343
224	0xbb31f150	-0.002715189
225	0xbe611add	-0.21982904
226	0x3d8b1fb3	0.067931555
227	0xb983e6f6	-0.00025158346
228	0x17280b95	5.4298346e-25
229	0x3ca9987b	0.020702591
230	0x9414d767	-7.514571e-27
231	0x9426e5cb	-8.426177e-27
232	0x149c1ac6	1.5762535e-26
233	0x3e45333a	0.19257823
234	0x3cea8bae	0.028631058
235	0xbc66d18f	-0.014088049
236	0x3c359525	0.011082922
237	0x9484976e	-1.3388322e-26
238	0xbd99b18e	-0.07504569
239	0xbd94b9df	-0.072620146
240	0x94244d79	-8.295163e-27
241	0x1693a4d5	2.3853155e-25
242	0xbbd2198b	-0.0064117364
243	0x12d2639f	1.3277422e-27
244	0xbe824dfd	-0.25450125
245	0xbdef728b	-0.11691769
246	0x9097c022	-5.9855026e-29
247	0xbeaebbce	-0.3412766
248	0x135b69fe	2.7693944e-27
249	0xbc1a2f1a	-0.009410644
250	0x92e512e0	-1.4456585e-27
251	0x3c08638b	0.008324514
252	0xbe063590	-0.1310637
253	0x956e204a	-4.808919e-26
254	0x94a29bda	-1.6419292e-26
255	0xbdf6f238	-0.12057918

encoder.6.bias f4 [18]
0	0xb03f50ac	-6.9600037e-10
1	0xa4a88b40	-7.3094285e-17
2	0x3dc48f6e	0.095976695
3	0xbe83d2ef	-0.25746867
4	0x3e2c6e26	0.16838893
5	0xbc3585b1	-0.011079238
6	0xbeae60b5	-0.34058157
7	0xbe260dbc	-0.16216177
8	0xba0b12ad	-0.0005305212
9	0xbdca15ec	-0.098674625
10	0xb43a8805	-1.7372084e-07
11	0xb9bc5eb0	-0.00035928702
12	0x3e408b79	0.18803205
13	0xbb9daad8	-0.004811626
14	0xbdbe1d78	-0.092829645
15	0xbd876075	-0.066101946
16	0x3ed28460	0.4111662
17	0xbe0bde36	-0.13658985

encoder.8.weight f4 [10, 18]
0	0x1510e3aa	2.9260164e-26
1	0x95f8e3f2	-1.00526037e-25
2	0xbeffe528	-0.4997952
3	0x3ead0b3e	0.3379764
4	0x3ebd7ce1	0.37009338
5	0xbe1096e3	-0.14120059
6	0xbdb547f1	-0.08851612
7	0x3e2a936a	0.16657797
8	0xa08aac97	-2.349232e-19
9	0xbc983724	-0.01858098
10	0xa2208eb3	-2.1759588e-18
11	0x202ed910	1.4810193e-19
12	0xbe57b90a	-0.2106668
13	0x2925af1b	3.678924e-14
14	0x3dbae40d	0.091255285
15	0x37a77e2a	1.9966701e-05
16	0x3f0370fe	0.5134429
17	0x3deb3da6	0.11486368
18	0x140a22db	6.9740935e-27
19	0x171d8911	5.090244e-25
20	0x3e6c911f	0.23102234
21	0x3e2d9a4e	0.16953394
22	0xbe12a994	-0.14322501
23	0x3b735bd8	0.00371336
24	0xbd259747	-0.040427472
25	0xbe118ad9	-0.14213122
26	0xa2000cc1	-1.7353987e-18
27	0x3cb21002	0.021736149
28	0x26d95f08	1.5083158e-15
29	0xa02b03ad	-1.448548e-19
30	0xbf046380	-0.51714325
31	0xa9afe623	-7.8114835e-14
32	0x3f01403c	0.5048864
33	0xb8fed18e	-0.000121506964
34	0x3e80ac1f	0.25131318
35	0xbe00f638	-0.12593925
36	0x9558bf38	-4.3771698e-26
37	0x163a1927	1.5032897e-25
38	0x3d9d2d72	0.07674684
39	0xbea82559	-0.32840994
40	0x3e1953b4	0.14973336
41	0x3e1c7b75	0.1528147
42	0xbd87e843	-0.06636097
43	0xbe56544c	-0.20930594
44	0x9d84aa61	-3.5116277e-21
45	0xbdb1eb79	-0.08687491
46	0x2f641b1b	2.0746109e-10
47	0x29d633d3	9.512499e-14
48	0xbe38de04	-0.18053442
49	0x29901708	6.39888e-14
50	0x3ef9c3ca	0.48782188
51	0x3bd0896a	0.0063640373
52	0xbd08f149	-0.033433232
53	0x3e49998e	0.19687483
54	0x1581751e	5.2287463e-26
55	0x95249de2	-3.3244084e-26
56	0xbca15817	-0.019695325
57	0x3d230b36	0.039805613
58	0xbd3d08a3	-0.046150815
59	0xbdf08192	-0.117434636
60	0x3e12ef49	0.14349093
61	0xbd8af106	-0.06784253
62	0x20d3c7c6	3.587699e-19
63	0x3bcbf18e	0.006223864
64	0x9c8f877e	-9.49797e-22
65	0xb1858e3d	-3.88698e-09
66	0xbc1f2459	-0.009713256
67	0xb2edc7b6	-2.768125e-08
68	0xbf0b2bd4	-0.5436375
69	0x3533d57f	6.6993374e-07
70	0xbe479395	-0.19489892
71	0xbcf4e94d	-0.029896403
72	0x1326b05f	2.1039103e-27
73	0x969a093b	-2.4885867e-25
74	0xbc70e5ae	-0.014703197
75	0xbc688e3d	-0.0141940685
76	0xbc8a33ae	-0.016870346
77	0x3a869c47	0.0010269963
78	0xbe1b78cf	-0.15182804
79	0x3d3f3848	0.046684533
80	0x2052fbbc	1.7870984e-19
81	0x3e8ee75e	0.27910894
82	0x23a89a33	1.8279902e-17
83	0xa6eb6862	-1.6334694e-15
84	0xbd4a8d23	-0.049451005
85	0x29ba00de	8.26021e-14
86	0xbd115d9a	-0.035489656
87	0x37d02c66	2.4816207e-05
88	0x3cd19e2e	0.025588121
89	0xbd31903c	-0.043350443
90	0x15b86158	7.447059e-26
91	0x95d4475c	-8.5738703e-26
92	0xbd950edc	-0.07278225
93	0x3f11b8ac	0.5692241
94	0xbb408846	-0.00293781
95	0x3cf3b6e9	0.029750304
96	0x3e846298	0.2585647
97	0xbce95b00	-0.028485775
98	0xa1275ba6	-5.6703097e-19
99	0x3e800949	0.25007084
100	0x1efde143	2.6880583e-20
101	0x329a0e88	1.7934568e-08
102	0x3d476e00	0.04868889
103	0xb44be42d	-1.8988858e-07
104	0xbe8380bd	-0.25684157
105	0x373465d0	1.0752541e-05
106	0xbeaa37ca	-0.3324569
107	0x3e2dc3ce	0.16969225
108	0x95f0294f	-9.70004e-26
109	0x95a41e3f	-6.628679e-26
110	0xbbba79af	-0.0056907753
111	0x3d0a56cb	0.03377418
112	0x3c29ebbf	0.010371148
113	0x3d6b82a9	0.057497654
114	0xbc809528	-0.015696123
115	0x3d02e8e1	0.031960372
116	0x1dc1704b	5.1202783e-21
117	0x3d69e3a1	0.05710185
118	0x2bf82ef2	1.763449e-12
119	0x2b5f3de0	7.9311384e-13
120	0x39b86b4c	0.00035175157
121	0x2a5c2e83	1.9556062e-13
122	0xbe041496	-0.12898478
123	0xba0b1e82	-0.0005306975
124	0xbd0d6cfd	-0.034527767
125	0xbe2c787b	-0.16842835
126	0x16937222	2.382116e-25
127	0x1491d780	1.4726258e-26
128	0xbaf243d2	-0.0018483347
129	0x3c1f08f8	0.009706728
130	0x3d09d1be	0.03364729
131	0x3e2783c3	0.16358857
132	0x3e12c592	0.1433318
133	0xbdbef387	-0.09323793
134	0x230814a7	7.376948e-18
135	0xbe1ccead	-0.15313216
136	0xb105a549	-1.9448e-09
137	0xb34001a5	-4.470498e-08
138	0x3d08f8c7	0.033440378
139	0xb49adde9	-2.8846196e-07
140	0x3ddd1af8	0.107961595
141	0xbbcf29ca	-0.0063221203
142	0x3d376ac9	0.044779573
143	0xbde24c1a	-0.110496715
144	0x93efe49e	-6.0557516e-27
145	0x951af167	-3.1290485e-26
146	0xbd584caf	-0.052807506
147	0x3de615d5	0.11234633
148	0x3e29be23	0.16576438
149	0xbd05acf0	-0.03263563
150	0xbe3df998	-0.18552244
151	0xbd0e5553	-0.03474934
152	0x1e904cfe	1.5278436e-20
153	0x3eb2897f	0.34870526
154	0xa5e32b8d	-3.9407734e-16
155	0x968c18e9	-2.263394e-25
156	0x3dcf35d9	0.101176925
157	0x2d9e5a96	1.8002749e-11
158	0x3ebb942d	0.36636487
159	0xb6d8e321	-6.463743e-06
160	0xbc5ccfa1	-0.013477237
161	0xbe516589	-0.20448889
162	0x13978974	3.82533e-27
163	0x135bfb53	2.7765599e-27
164	0x3da1aad2	0.078939095
165	0xbac616d0	-0.0015113
166	0x3ee7f123	0.4530116
167	0x3d689379	0.056781266
168	0x3cb8bf87	0.022552265
169	0x3e11c5a6	0.14235553
170	0x99a21ea1	-1.6762778e-23
171	0x3b688e50	0.0035485215
172	0x30032f44	4.772469e-10
173	0x290d0852	3.1315506e-14
174	0xbe09eb58	-0.13468683
175	0x2e68c218	5.2923083e-11
176	0x3e923021	0.28552344
177	0xbb559a72	-0.0032593277
178	0xbe55f777	-0.20895182
179	0xbe3a2ac2	-0.18180373

encoder.8.bias f4 [10]
0	0xbda598b4	-0.080857664
1	0xbdad200b	-0.08453377
2	0x3dfdf765	0.124007024
3	0x3de84d25	0.11342839
4	0xbb080ed3	-0.002076079
5	0xbd8ae166	-0.067812726
6	0xbd3e2d4e	-0.046429925
7	0xbe08143d	-0.1328897
8	0xbea7dbd8	-0.32784915
9	0xbe2b8fce	-0.16754076

decoder.0.weight f4 [18, 10]
0	0x3e02cbec	0.12773103
1	0xbd6f7f77	-0.05847117
2	0x3eab4577	0.33451435
3	0x3f53acdb	0.8268563
4	0x3dd73162	0.10507466
5	0xbe528fe4	-0.20562702
6	0x3da5e52d	0.081003524
7	0xbf0a5383	-0.5403368
8	0xbf0704e7	-0.52741855
9	0xbe390f2e	-0.18072197
10	0x3e9cd2b3	0.306295
11	0xbbd718c4	-0.0065642316
12	0x3f07db75	0.5306924
13	0x3e79163a	0.24324885
14	0x3e38be00	0.18041229
15	0x3e0b1974	0.13583928
16	0x3e3767be	0.17910668
17	0xbea1b65f	-0.3158445
18	0xbeda85e6	-0.4268028
19	0xbe12a2ae	-0.1431987
20	0xbf275457	-0.6536307
21	0x3e55e476	0.20887932
22	0xbccbbbfb	-0.02486991
23	0xbc39a93f	-0.011331855
24	0x3d0d623b	0.034517508
25	0x3bdbc39e	0.006706669
26	0xbb0c7c28	-0.0021436308
27	0x3ab88545	0.0014077803
28	0xbd7963e2	-0.06088627
29	0xbd6bed51	-0.05759937
30	0x3e1b72b2	0.15180472
31	0x3c6f2472	0.014596092
32	0x3e77f764	0.24215466
33	0x3e8d2db6	0.27573937
34	0x3e3623aa	0.17787042
35	0x3dca0dd8	0.09865922
36	0xbc1f20a4	-0.009712372
37	0xbe9b8bdd	-0.30380145
38	0xbf274bda	-0.65350115
39	0xbc92c56e	-0.017916407
40	0x3f1f6df4	0.6227715
41	0x3e8e4aad	0.27791348
42	0x3cdd4697	0.027011199
43	0xbd5054cb	-0.050862115
44	0x3cb626e7	0.022235347
45	0xbc0516e8	-0.008123137
46	0xbd48cdca	-0.04902438
47	0x3c253262	0.010082813
48	0xbda512ab	-0.08060201
49	0xbe4e17a0	-0.201262
50	0x3e518def	0.204643
51	0xbddd3e40	-0.10802889
52	0x3e69bbb2	0.22825506
53	0x3f5dd083	0.8664629
54	0xbd72c912	-0.059273787
55	0xbe011c88	-0.1260854
56	0xbc9a8443	-0.018861895
57	0xbe9ec64d	-0.31010666
58	0xbf14c471	-0.58112246
59	0xbaebea00	-0.0017998815
60	0xbe539b26	-0.20664653
61	0x3ef20fd4	0.472777
62	0x3e3f173c	0.18661207
63	0xbd18c193	-0.03729398
64	0xbccee141	-0.025253894
65	0xbd411eb1	-0.04714841
66	0xbc18b640	-0.009320796
67	0xbc500dd3	-0.012698608
68	0x3d2cb3c6	0.042163633
69	0x3e161a67	0.14658509
70	0x3de8076a	0.11329539
71	0x3d64582d	0.055748153
72	0xbdcce7b1	-0.10005129
73	0xbe508d2c	-0.20366353
74	0xbd65e710	-0.05612856
75	0xbee5aecd	-0.44859925
76	0x3cb31afc	0.021863453
77	0x3d0867b4	0.033302024
78	0xba482798	-0.00076352945
79	0xbdeff701	-0.11717034
80	0x3eb9fa50	0.36323786
81	0xbe601932	-0.21884611
82	0x3eaddbf2	0.33956867
83	0x3ebf8596	0.37406605
84	0xbd0b9994	-0.03408201
85	0x3d3ac16e	0.045594625
86	0x3cd09991	0.025463851
87	0xbd1c7728	-0.038199574
88	0xbf088635	-0.53329784
89	0xbedf6280	-0.43629837
90	0xbae40977	-0.001739784
91	0xbe6b278e	-0.22964308
92	0x3e3b701a	0.18304482
93	0xbcd6665e	-0.02617186
94	0xbc31e883	-0.010858658
95	0xbd5225f6	-0.051305734
96	0x3bee25c2	0.0072676847
97	0x3cb85159	0.022499727
98	0x3dd503b6	0.104010984
99	0x3f09e08b	0.5385825
100	0x3e848050	0.25879145
101	0xbe397798	-0.18112028
102	0x3ea3c994	0.3198973
103	0x3ece56cc	0.40300596
104	0x3ea93d74	0.33054698
105	0x3d1150fb	0.03547762
106	0x3db5fcc6	0.08886103
107	0xbedf0c34	-0.43563998
108	0xbef2afb2	-0.4739967
109	0xbe750786	-0.23928651
110	0x3e1acfc9	0.15118326
111	0x3b8e4c65	0.004342603
112	0x3e50ad1b	0.20378534
113	0x3eb13a8e	0.34614986
114	0x3cade8d0	0.021229178
115	0xbce9c6b0	-0.028537124
116	0xbdcd3c74	-0.10021296
117	0xbe5e5d6e	-0.21715328
118	0xbe0ec9e8	-0.13944209
119	0xbde4c364	-0.1117008
120	0xbd01524a	-0.031572618
121	0xbd850e88	-0.06496912
122	0x3eac1f88	0.33617806
123	0x3e59aa77	0.21256433
124	0x3c9907ff	0.01868057
125	0xbeae94bd	-0.34097853
126	0xbcb755c5	-0.022379765
127	0xbe2d8d0d	-0.16948338
128	0xbef15c7b	-0.4714087
129	0xbe174965	-0.14774092
130	0xbe0900b6	-0.13379177
131	0x3e7659dc	0.24057716
132	0xbe9bd40e	-0.30435222
133	0x3c9970e5	0.01873059
134	0x3c70baa0	0.014692932
135	0x3f00a062	0.50244725
136	0x3c5a5aec	0.0133273415
137	0x3c00c58a	0.007859597
138	0x3d263995	0.04058226
139	0xbdb8090c	-0.089861006
140	0x3e1a1e36	0.15050587
141	0x3c9fae73	0.019492364
142	0x3e5c00d9	0.21484698
143	0x3e1acaf7	0.15116487
144	0x3d8e5187	0.06949144
145	0xbe9a9fee	-0.30200142
146	0xbdae0084	-0.08496192
147	0xbcb63119	-0.022240208
148	0xbecc0a5b	-0.3985165
149	0xbf0e9f1e	-0.55711544
150	0xbe5d4ed1	-0.21612097
151	0xbee81047	-0.4532492
152	0xbe24f42f	-0.16108774
153	0xbc2b406a	-0.010452369
154	0x3c403530	0.011731431
155	0x3e1a1e3c	0.15050596
156	0xba1fb020	-0.00060916133
157	0xbb371296	-0.0027934662
158	0x3dc8872b	0.09791406
159	0xbd4934c8	-0.0491226
160	0x3e8978bf	0.26849934
161	0xbe0a123c	-0.13483518
162	0x3f049f41	0.518055
163	0x3e2175c1	0.15767576
164	0x3d70f5fd	0.058828343
165	0xbec54e6c	-0.38536394
166	0xbd9fd878	-0.0780496
167	0xbeb02b75	-0.34408155
168	0xbe8fdbc6	-0.2809736
169	0xbed0924e	-0.40736622
170	0x3d9252dc	0.071447104
171	0xbd947a27	-0.07249861
172	0x3f0b3b9d	0.5438784
173	0x3eadfa04	0.3397981
174	0x3e449d03	0.1920052
175	0xbeacf968	-0.33784032
176	0xbd24db70	-0.040248334
177	0xbea28d8a	-0.3174861
178	0xbed32a6a	-0.41243297
179	0xbf03e6ed	-0.5152424

decoder.0.bias f4 [18]
0	0xbf4fb4c2	-0.8113519
1	0xbfa21cd6	-1.266505
2	0x3c522f98	0.01282873
3	0xbf9fe8a7	-1.2492875
4	0xbe23da0c	-0.16001147
5	0xbfd09cf8	-1.6297903
6	0x3e0023dd	0.12513681
7	0xbea51f5d	-0.3225049
8	0xbf5098a5	-0.8148292
9	0xbe8959d5	-0.2682635
10	0xbf29ea2f	-0.6637296
11	0xbfaa575f	-1.3307914
12	0xbf061694	-0.523782
13	0x3e5cb910	0.2155497
14	0xbe338c09	-0.17533888
15	0x3e570839	0.2099923
16	0xbf7da439	-0.9907871
17	0xbdaa93bb	-0.083289586
