Bachelor/lightning_logs/version_12/checkpoints/epoch=49-step=3050.ckpt (torch, 58651 bytes, 4 tensors)

fc1.weight f4 [10, 1350]
00000000: 8905 9ebc 3780 66bc 1eac b63c b4e3 cdbb
00000010: 06e5 9d3c 687a e13c 37af 0f3d 6f0c 4dbc
00000020: cf05 9e3c 9601 033d 0ca7 f1bb e258 2ebc
00000030: efe3 5e3a 1fda b9bb b334 12bc 8a6c 16bc
00000040: b0db 80bc f793 a83c 72a8 0e3c 706d af3b
00000050: 74f4 77bc f984 f73c 459a 5e3c 9c54 fc3c
00000060: 7444 3a3c 9d99 fc3c c363 243b 7591 3a3b
00000070: 5219 213b 50b3 b63b 0ea4 213b 0413 e6bb
00000080: 61f1 3fbc de17 8bbc 4137 78bc e50e 08bc
00000090: 6828 243c 8d54 3d3b 594a b93c 1081 c03b
000000a0: c221 d63c 12dd d73b b2f6 873a 8023 01bc
000000b0: 6080 2f3c 7627 153c 5da4 d33c 012b 8c3c
000000c0: 8d18 b53b f616 2eba bb3b a33c 12c0 ac3c
000000d0: 5fb9 c83c 4c1a 13bb 9724 eb3c 6da4 ffb9
000000e0: 575b 283b 72c8 953c 4c9c c03c d895 783c
000000f0: 370d f93b 2e1d c43c 3a83 993c 5496 17bc
00000100: 33b5 693c a161 8f3c 1b63 de3c e740 263c
00000110: 10ad 4fbc eb71 b43c 409f ca3c fe15 043d
00000120: 9aa0 b83c d742 833c 098d 313c 7cc4 f13c
00000130: 7085 d63c 6d46 cc3c f71c 443a 3283 e2bb
00000140: 719d 11bb 2a8c c13b 1ec8 183c 9c6f d53b
00000150: 123c 66bb 6b26 21bb e530 3bbc 9bda 87bc
00000160: 1345 b73b a4d4 393c 7c1a 9b3c 1049 da3a
00000170: 06d5 113d e991 c23c 8181 623c 9b07 703b
00000180: 74cb 2b3b 0c5a e03c ec1d 71bc df07 61bc
00000190: ee85 cf3c a54c 273c a6af 973c 4e68 813b
000001a0: e7fe 093d 4954 34bc 7350 fc3b 0f33 b8bb
000001b0: d0d1 63bc 0448 2b3c 9671 2cbb 798d 66bc
000001c0: 6f51 7e3c 7039 163c a55a 823c 26bc e63c
000001d0: 97dd 1bbc 602c 103d 9e12 113d f7e7 863c
000001e0: 0943 e4ba abd6 0f3d 6f09 ecbb 15a9 f13c
000001f0: eed2 28bc 3822 553c 9071 3ebc d296 f03c
00000200: 6c54 79bc 2b0b 043d 01bf 0f3d 354a 623c
00000210: 6a03 68bc f337 acbb 47c5 063d cdc6 593c
00000220: 1d4a 6e3c a1a0 0c3d 5aa0 ac3c 7fc7 7e3c
00000230: e125 b83c e4ea c73c b7fe 03bc 460b 0e3c
00000240: d335 0f3d 2fbf 003d e34d 123c 5969 0f3d
00000250: 1671 88bb 89ed 0a3d 0e04 4b3c a506 a63c
00000260: 2575 093c fd44 843c c84c 1e3b 7533 e63a
00000270: 022c 763c da28 8abc eca0 843c f886 dd3c
00000280: 3253 e7bb 7e3f d0bb 7915 b13c 8929 a73c
00000290: a5b6 13bc 0810 fcbb f804 e33c 0232 5ebc
000002a0: 6444 41bc 4876 03bc 2303 81ba 990d a03b
000002b0: b260 6abc 78a7 e83b 4963 2ebb d526 9d3a
000002c0: 0a67 463c e858 9a3c 0cdd 073d f683 2fbc
000002d0: 1104 883c 0759 a1bb 16c0 23bc feea e5bb
000002e0: 5c8e c93c 9305 84bc 2c4e dcbb 70f4 cb3c
000002f0: 1d40 f33c 998b 50ba 1ad4 4e3c 0387 cdbb
00000300: 151f 893c f357 8c3c f59a e33c f97d 093b
00000310: 8674 4b3c 1910 f03c 91cf 9bbb d534 f93c
00000320: b4a5 d53c 4cf0 7cbc bce3 913c a8c1 4c3b
00000330: eddf 20bc b4da 043d 8275 6e3c 80d7 8cbc
00000340: 77dd 2cbc bba5 0cbb c7ce 43bc 9ce7 5dbc
00000350: 32c5 c63b cbe8 41bc aeba 5a3c 81c9 9e3c
00000360: 6787 c43c be6f d63c 3428 8a3c b0e9 7a3b
00000370: e15a 0f3d 8209 9c3c beb2 22bc a3af a8ba
00000380: 256a 483c 7b5a 943c b356 8d3c 15f0 053c
00000390: f5dd 023d 78a7 733c 2437 033c 3d77 c83c
000003a0: 782e 80bb 18df 83bc 4148 e23c 3f4e 903c
000003b0: f50d c23c 3f72 6abc 3832 b53c 309d 013d
000003c0: 9469 83bc ab71 87bc fc69 3e3c 1c64 953b
000003d0: d227 073d f1c6 1b3c 6495 f8bb 66be f13b
000003e0: b575 3e3c 02ce b03c 2067 483b ef02 d83b
000003f0: 7413 6dbc a747 3ebc 67f0 cc3b 2a6d bb3c
-0.019289749 -0.014068655 0.022298869 -0.006283248 0.019274246 0.027524188 0.035079207 -0.012515171
0.01928988 0.031983934 -0.00737465 -0.0106413085 0.00085025927 -0.005671754 -0.008923697 -0.009181151
-0.015729755 0.020578368 0.008707153 0.005353622 -0.015133966 0.030214773 0.013586585 0.030802064
0.01136886 0.030834967 0.0025083877 0.0028468047 0.0024581742 0.005575575 0.0024664435 -0.00702131
-0.011715264 -0.016979154 -0.015149892 -0.008304332 0.010019399 0.0028889508 0.02261846 0.0058747604
0.026139144 0.006587633 0.0010373204 -0.007881999 0.010711759 0.0091036465 0.02583521 0.01711035
0.0055266083 -0.00066409947 0.019925943 0.02108768 0.024502454 -0.0022446094 0.02870397 -0.00048759897
0.0025689208 0.018284056 0.023512028 0.015172444 0.0076004523 0.023939695 0.018739332 -0.00925215
0.014264393 0.017502608 0.027146867 0.01014731 -0.012675539 0.022026977 0.02473414 0.032247536
0.022537518 0.016023083 0.010836848 0.029512636 0.026186675 0.024935925 0.0007481123 -0.0069126124
-0.0022219087 0.0059066014 0.009325055 0.006513549 -0.003513102 -0.002458955 -0.011425232 -0.016583731
0.005592951 0.011342201 0.018933527 0.0016653854 0.035603546 0.023751216 0.013824821 0.0036625627
0.0026213797 0.027386688 -0.014716607 -0.013734787 0.025332417 0.010211145 0.018516373 0.0039492017
0.03369036 -0.011006423 0.00770002 -0.005621321 -0.013905004 0.010454182 -0.002631282 -0.014071816
0.015522345 0.009168968 0.015912363 0.028165888 -0.00951328 0.03519857 0.035418145 0.016468031
-0.0017414998 0.035116833 -0.007203273 0.02949957 -0.010304196 0.013008647 -0.011623755 0.029368792
-0.015217882 0.032237213 0.035094265 0.013811638 -0.01416097 -0.005255693 0.032902982 0.013292027
0.014544037 0.034332875 0.021072555 0.015550493 0.022479 0.024403997 -0.008056334 0.00866968
0.03496344 0.031432327 0.008929702 0.035012577 -0.0041638715 0.033917937 0.012391103 0.02026684
0.008389746 0.016146177 0.0024154652 0.0017562943 0.015025141 -0.016865183 0.016190015 0.027041897
-0.007059478 -0.006355225 0.021616684 0.020405548 -0.009015714 -0.0076923408 0.02771233 -0.0135617275
-0.011796091 -0.008023806 -0.0009842854 0.0048844335 -0.0143052805 0.007100042 -0.0026609472 0.0011989722
0.012109527 0.018841222 0.03316979 -0.010712614 0.016603502 -0.004923943 -0.009994527 -0.0070165386
0.024604015 -0.01611594 -0.006723186 0.02489683 0.029693658 -0.0007955372 0.012623811 -0.006272198
0.016738454 0.017131781 0.02778385 0.0020979627 0.012417918 0.029304551 -0.0047549685 0.0304207
0.02607999 -0.015438151 0.017808788 0.0031243358 -0.009819013 0.032435134 0.014554383 -0.017192602
-0.010550848 -0.0021461088 -0.011951155 -0.0135439895 0.006065988 -0.011835287 0.013350172 0.019383194
0.023990346 0.02617633 0.016864873 0.0038286261 0.03499878 0.019047502 -0.009930311 -0.0012869727
0.012232338 0.01810955 0.017253255 0.008174916 0.031949956 0.014871471 0.008008752 0.02447092
-0.0039117895 -0.01609759 0.027622344 0.017615436 0.023688296 -0.014309465 0.022118673 0.031644046
-0.016041555 -0.016533693 0.011621948 0.004559053 0.03299696 0.009507881 -0.007586168 0.0073774336
0.011624743 0.021582607 0.0030579045 0.0065921466 -0.01446997 -0.011613763 0.006254244 0.022879202

fc1.bias f4 [10]
00000000: c15f 3abe c5f4 4b3d 2f68 6dbe 8c61 47be
00000010: 0147 173e 8812 2cbe f838 bbbc 1203 5b3e
00000020: 7235 93be 6bed 6dbd
-0.1820059 0.049793977 -0.23184274 -0.19470805 0.1477318 -0.16803944 -0.022854313 0.2138789
-0.28751713 -0.058087748

fc2.weight f4 [3, 10]
00000000: 9f2a 1c3f f8ff c43e 810c c33e 0507 f13e
00000010: 83ac 1cbe af65 ebbe 2f99 183f 7c3f d33e
00000020: 8474 28bf 651c 013f 18a6 ce3e ee7f ec3e
00000030: aa53 0b3f f761 6f3e 217e f4be bd3c 9abe
00000040: 8ca1 0d3f 54b0 e63e cf32 30bf 51a1 d53e
00000050: c233 aa3e e09b d03e 23c5 f23e e27a 9c3e
00000060: 886d 03bf 119f d0be fe15 1b3f 2aab ef3e
00000070: db36 23bf 4897 e73e
0.61002535 0.3847654 0.38095477 0.47075668 -0.15300183 -0.45976016 0.5960874 0.41259372
-0.6580279 0.5043395 0.40361094 0.46191353 0.54424536 0.23377214 -0.4775248 -0.30124465
0.55324626 0.45056403 -0.6882753 0.41724637 0.33242613 0.40743923 0.47416028 0.30562502
-0.51339006 -0.40746358 0.6058043 0.46810275 -0.6375558 0.45232606

fc2.bias f4 [3]
00000000: 2a8c a7be 6ed4 86bd c2ef c0bc
-0.32724124 -0.065834865 -0.023551825
