Bachelor/Fit tasks/lightning_logs/version_17/checkpoints/epoch=49-step=3050.ckpt (torch, 221147 bytes, 4 tensors)

fc1.weight f4 [40, 1350]
0	0x3c914420	0.01773268
1	0x3d01b1d7	0.031663742
2	0x3ca7939a	0.020456124
3	0x3c8908a0	0.016727746
4	0x3c2afae1	0.010435791
5	0x3c34e323	0.011040482
6	0xbbcea5f3	-0.006306404
7	0xbbfab705	-0.007651212
8	0x3cfcc44f	0.030855326
9	0x3ca7f331	0.020501705
10	0xbc8ce3a7	-0.017198397
11	0xbb5a08e9	-0.003326947
12	0x3c6e8f0d	0.014560473
13	0x3ca2450b	0.019808313
14	0x3c5c739d	0.013455299
15	0x3d02c515	0.031926233
16	0x3bfb4ca8	0.0076690502
17	0x3a91b0b0	0.0011115279
18	0x3c0702a0	0.008240372
19	0x3c87ff24	0.016601153
20	0xbb814df6	-0.0039460612
21	0x3bbc1198	0.005739402
22	0x3c2604b8	0.010132961
23	0xbaf65b8a	-0.0018795591
24	0x3c17d43b	0.009266908
25	0x3c48eb05	0.012263064
26	0x3cf4bb47	0.029874457
27	0x3be322e4	0.0069316495
28	0xbc35d929	-0.011099138
29	0xbc9b61dc	-0.018967561
30	0xbc25993f	-0.0101073375
31	0xbb351e1c	-0.0027636355
32	0x3a441720	0.00074802525
33	0xbc3b89d5	-0.011446436
34	0x3ca5983a	0.020214189
35	0xbc9ecc76	-0.019384604
36	0x3cf2283b	0.029560199
37	0x3c46f5e7	0.012143589
38	0x3a0ae529	0.000529843
39	0x3ce48951	0.027897509
40	0x3c53ca44	0.012926642
41	0xba8e94ac	-0.0010878048
42	0x3cf55cc9	0.02995147
43	0xbc9a60dd	-0.018845016
44	0x3cbff72e	0.023433294
45	0x3bd7a31c	0.0065807234
46	0x3bfb1653	0.0076625734
47	0xbca23671	-0.01980135
48	0xbca44be8	-0.020055726
49	0x3c6c28ad	0.014413995
50	0xbc4a3c0b	-0.012343417
51	0x3cc53844	0.024074681
52	0xbc33d47d	-0.010975954
53	0x3ba30392	0.004974791
54	0xb74a3b06	-1.2053881e-05
55	0x3c943bb2	0.018094871
56	0xbcaa4224	-0.020783491
57	0xbc427a6a	-0.011870006
58	0x3c1e2e02	0.009654524
59	0xbb3392ee	-0.002740081
60	0xbc59a5a6	-0.013284123
61	0x3cb5a860	0.022175014
62	0x3c47868c	0.012178075
63	0x3c025ef1	0.007957206
64	0x3c1dc72a	0.009630004
65	0x3bab6bdf	0.005231365
66	0x3ca5b157	0.020226164
67	0x3bc62093	0.0060463636
68	0xbbca1a95	-0.0061677196
69	0x3c08323f	0.008312761
70	0xbc0348a9	-0.008012929
71	0xbc54b0a5	-0.012981568
72	0x3cfdee0b	0.030997297
73	0x3c5e4dc8	0.013568349
74	0x3cbfadae	0.023398247
75	0x3c8ac1e9	0.016938167
76	0xba62ad30	-0.0008647023
77	0x3ce3c50f	0.027803926
78	0x3ca15de3	0.019698089
79	0xbb1bd009	-0.0023775122
80	0xbc4187a0	-0.011812121
81	0x3ab95bb0	0.0014141705
82	0x3cc69981	0.024243118
83	0xbbf291cc	-0.0074026342
84	0x3bf08704	0.007340314
85	0xbc87d990	-0.016583234
86	0xbc0d9829	-0.008642235
87	0x3a941666	0.0011298179
88	0x3b1beb03	0.00237912
89	0xbc45c7ee	-0.012071593
90	0x3bb21043	0.0054340675
91	0x3ce21c11	0.027601274
92	0xbb2c9b2a	-0.0026337602
93	0xbc824265	-0.0159008
94	0xbb9b43c1	-0.0047383015
95	0xbbe6fbe1	-0.0070490693
96	0xba98b4c9	-0.0011650558
97	0x3c343072	0.010997878
98	0x3c804978	0.015660033
99	0x3c4daa43	0.012552801
100	0xbb348325	-0.0027543989
101	0x3cfb5b85	0.030683288
102	0x3ce06e6c	0.027396403
103	0xbbc6f4d8	-0.006071668
104	0x3c777ea8	0.015105881
105	0x3c0b1ee3	0.008491251
106	0x3cc15255	0.02359883
107	0x3b801e90	0.0039098933
108	0xbc676bd8	-0.014124833
109	0xbbede1f6	-0.0072596027
110	0xbcab8150	-0.020935684
111	0xbc5534b9	-0.013013058
112	0x3cdf2bd5	0.02724258
113	0x3c198e07	0.009372241
114	0x3b5a00ef	0.0033264717
115	0x3cdd46c7	0.027011288
116	0x3c27ca53	0.010241109
117	0x3ca7105e	0.020393547
118	0x3ae2355c	0.0017258334
119	0x3b65f2e9	0.0035087413
120	0xbc85630b	-0.016282579
121	0x3ca3c080	0.019989252
122	0xba90b796	-0.0011041041
123	0xbc617087	-0.013759739
124	0x3c8d05c0	0.017214656
125	0xbb93f76d	-0.0045155794
126	0x3c52f30d	0.012875331
127	0xbc0af002	-0.008480074
128	0xbbd8e00f	-0.0066185067
129	0x3cc9b043	0.024620181
130	0xbc5788e1	-0.013155193
131	0x3aea8c74	0.0017894641
132	0x3ce77141	0.028252246
133	0x3bef03ed	0.007294169
134	0x3bbdf19b	0.005796624
135	0x3c2e954f	0.010655715
136	0xbc0e15d8	-0.0086722
137	0x3c4ce533	0.012505817
138	0x3c171002	0.009220125
139	0x3bade712	0.0053070867
140	0xbc02bb2b	-0.007979195
141	0x3c84bcbd	0.016203279
142	0x3c6bc2d9	0.014389717
143	0x39db63bb	0.0004184524
144	0x3c7c1649	0.015386173
145	0x3ccc79f2	0.024960492
146	0x3c8a2f52	0.016868267
147	0xbc88ed92	-0.016714845
148	0x3c1aedbf	0.009456097
149	0x3cec912f	0.028877823
150	0x3aac2e38	0.0013136333
151	0x3c393f6c	0.011306625
152	0x3bf455b0	0.007456504
153	0x3cf230cc	0.029564284
154	0x3c4a5914	0.012350339
155	0x3ba7eb27	0.005124468
156	0x3cb4f237	0.022088153
157	0x3cfb5c7e	0.030683752
158	0x3c813dc3	0.01577652
159	0x3ce0c9a2	0.027439896
160	0x3cfca960	0.030842483
161	0xbc21a9ad	-0.009867114
162	0xbc83594c	-0.016033791
163	0xbc549d73	-0.012976992
164	0x3ca1997d	0.01972651
165	0x3cd546bc	0.026034705
166	0x3ca6729e	0.020318326
167	0xbb9a8c1b	-0.004716409
168	0x3b625769	0.0034536964
169	0x3c8b9ccb	0.017042538
170	0xbc90dfe1	-0.017684879
171	0xbbe726c2	-0.007054181
172	0xbc13f7bb	-0.0090312315
173	0x3cbf20c1	0.023331048
174	0x3c409736	0.0117548015
175	0x3cbc671e	0.022998389
176	0x3cc299d7	0.023754997
177	0xbc18698a	-0.009302506
178	0x3b952361	0.0045513366
179	0x3c7fcee3	0.0156132905
180	0xbc46aa06	-0.012125498
181	0xbc926754	-0.017871536
182	0x3c1f9214	0.009739418
183	0xbb14a38c	-0.002268049
184	0x3cbfa539	0.023394214
185	0x3cc4bc37	0.02401553
186	0xbc972268	-0.018449023
187	0xbc959606	-0.018260013
188	0x3cfe59a5	0.031048605
189	0x3c5dd8c1	0.013540448
190	0xbc25e2e3	-0.010124895
191	0x3c7b2bc4	0.015330259
192	0x3c493161	0.012279839
193	0x3cec6863	0.02885837
194	0x3cf4f1f5	0.02990053
195	0xbbf50632	-0.007477545
196	0x3c1a7695	0.009427686
197	0x3c12170d	0.008916629
198	0x3c7fa48f	0.015603199
199	0xbc1a20c7	-0.009407229
200	0xbc0299af	-0.007971211
201	0xb9553ae5	-0.00020335203
202	0x3c695446	0.014241284
203	0xbbff29f4	-0.0077869836
204	0xbc5a2cc8	-0.013316341
205	0x3cfbd0ed	0.030739272
206	0x3c198285	0.009369497
207	0x3cc98c69	0.024603086
208	0xbc0dc284	-0.008652333
209	0x3c0b4dc0	0.008502424
210	0x3c97e25f	0.01854056
211	0xbc03f926	-0.008055007
212	0x3b2e623e	0.002660885
213	0xbc56c291	-0.013107912
214	0x3cd97c76	0.026548605
215	0x3cd46159	0.025925325
216	0xba11f5da	-0.0005567946
217	0x3d04607a	0.03231857
218	0x3cbef345	0.02330936
219	0x3c40b7e8	0.011762597
220	0x3c48b8c7	0.012251086
221	0xbcaa6900	-0.020802021
222	0x3cc15b9d	0.023603255
223	0x3c8e9175	0.017403344
224	0xbba20385	-0.004944267
225	0xbc8b3b82	-0.016996149
226	0x3c5aae75	0.013347258
227	0x3c88c4e1	0.016695442
228	0x3b028a12	0.0019918722
229	0x3c64d8cb	0.013967703
230	0x3c95ed24	0.018301554
231	0x3bfdfba5	0.0077509456
232	0x3ca4e058	0.020126507
233	0xbb487e2e	-0.0030592787
234	0xbc8bb134	-0.01705227
235	0x3c51a748	0.012796231
236	0x3bebcc61	0.0071959947
237	0x3c95691d	0.018238598
238	0x3ca15543	0.019693976
239	0x3cd02819	0.025409745
240	0xbc3b793c	-0.011442479
241	0xbc21a057	-0.009864888
242	0x3d005683	0.031332504
243	0xbc61257d	-0.013741848
244	0x3ce2b4d6	0.02767412
245	0xbc5a6404	-0.01332951
246	0x3cbcd16d	0.02304908
247	0xbc45d8bf	-0.012075602
248	0xbc59735f	-0.0132721355
249	0x3c042551	0.008065538
250	0x3ce497bd	0.027904386
251	0xba9a146c	-0.0011755354
252	0x3cc8c767	0.024509145
253	0x3cd35fcd	0.025802517
254	0x3ce76b43	0.028249389
255	0xbca9509d	-0.020668322

fc1.bias f4 [40]
0	0x3bf77d3b	0.0075527704
1	0xbd35e695	-0.044409353
2	0xbd2d92e9	-0.042376433
3	0x3b8f9766	0.004382062
4	0x3b6d34f6	0.0036194897
5	0xbca115fb	-0.019663801
6	0xbcdaa13e	-0.026688214
7	0x3aad3711	0.0013215264
8	0xbd85606e	-0.06512533
9	0x3d922d13	0.071375035
10	0x3b8467b2	0.0040406818
11	0xbd7e78f5	-0.062127072
12	0xbcb9772f	-0.022639839
13	0xbd1e888a	-0.038704433
14	0xbc7eb109	-0.015545138
15	0x3db6b4db	0.08921214
16	0x3db904c9	0.09034116
17	0xbc876007	-0.016525282
18	0xbe35683e	-0.17715546
19	0xbdfa696a	-0.122271374
20	0xbda13812	-0.07872023
21	0xbda187c8	-0.07887226
22	0xbe1b6574	-0.1517542
23	0xbbd539ef	-0.0065071504
24	0xbd7fbf3e	-0.062438242
25	0xbd4eabde	-0.050456874
26	0xbcfb5f26	-0.030685019
27	0xbc1dd75e	-0.009633867
28	0x3c42bf08	0.011886366
29	0xbd1f0528	-0.038823277
30	0xbcd6b243	-0.026208049
31	0xbdf02ff4	-0.11727896
32	0xbc071cf0	-0.008246645
33	0xbcd5d187	-0.026100887
34	0xbdb4a55c	-0.08820602
35	0xbe08d8ae	-0.13363907
36	0xbdf0e3fa	-0.11762233
37	0xbdd73e41	-0.10509921
38	0xbcf68cdc	-0.030096464
39	0x3e16c274	0.14722615

fc2.weight f4 [3, 40]
0	0x3e1e0803	0.15432744
1	0x3dcb2323	0.09918811
2	0x3d1fbe3a	0.038999774
3	0xbe7b88e5	-0.2456394
4	0x3bee4795	0.007271717
5	0xbd25574f	-0.040366467
6	0x3c3c2fea	0.011486033
7	0x3e904daf	0.28184268
8	0xbe4bbf1d	-0.19897123
9	0x3df666e8	0.120313466
10	0x3e076e4b	0.13225667
11	0xbd71f46a	-0.059070982
12	0x3d3edf0e	0.04659944
13	0x3e87fe8c	0.2656139
14	0x3dec57e3	0.115402006
15	0x3e08a0d5	0.13342603
16	0x3da16120	0.07879853
17	0x3c21a0da	0.00986501
18	0xbeb69f95	-0.35668626
19	0xbe947db0	-0.29002142
20	0xbe42af00	-0.1901207
21	0x3d83d0b0	0.06436288
22	0xbe86e8ea	-0.26349574
23	0x3e033ee4	0.1281696
24	0xbdac11cd	-0.08401833
25	0x3e797191	0.24359728
26	0x3e352fce	0.17694017
27	0x3e996d22	0.29966074
28	0x3e58f928	0.21188796
29	0x3e2f11da	0.17096654
30	0xbddc7597	-0.10764616
31	0xbe8a44cf	-0.27005622
32	0x3d1b9304	0.037982002
33	0x3e602721	0.21889926
34	0xbde8927f	-0.11356067
35	0xbe97c1e7	-0.29640123
36	0xbe1979ea	-0.14987913
37	0xbe13d713	-0.14437513
38	0x3e7348e3	0.23758273
39	0x3e4aee25	0.19817407
40	0x3e4bc2b9	0.198985
41	0x3e822a4f	0.25422904
42	0x3e22fc25	0.15916498
43	0xbe3977ce	-0.18112108
44	0x3e84d5da	0.25944406
45	0x3e5f49c5	0.21805485
46	0xbde305b5	-0.11085073
47	0x3dbacee5	0.09121493
48	0x3c2fb893	0.010725158
49	0x3db5afa6	0.08871393
50	0x3e1929d1	0.14957358
51	0xbded589a	-0.11589165
52	0x3e33dc1d	0.17564435
53	0x3d64a3b0	0.055820167
54	0x3d77ce0e	0.060499243
55	0x3e3fa764	0.18716198
56	0x3e4aac13	0.19792204
57	0xbe33b706	-0.17550287
58	0xbee8b71e	-0.45452207
59	0xbe906561	-0.28202346
60	0xbe818492	-0.25296456
61	0x3e2bea29	0.16788544
62	0xbe35c4a7	-0.17750798
63	0x3e1051fd	0.14093776
64	0xbe0d2274	-0.13782674
65	0x3d44bcba	0.048031546
66	0x3db7a94f	0.0896784
67	0x3e743994	0.2385009
68	0x3d3c369f	0.04595053
69	0x3e1b0526	0.15138683
70	0xbd8db1e0	-0.069186926
71	0xbe24847c	-0.16066164
72	0x3e45fb69	0.19334187
73	0x3e3417eb	0.17587249
74	0xbe6b5e60	-0.2298522
75	0xbe280787	-0.16409121
76	0xbe23e78b	-0.16006295
77	0xbe015b8f	-0.12632583
78	0x3c1905d0	0.009339765
79	0x3df063c8	0.11737782
80	0x3e33e538	0.17567909
81	0x3e1dee2c	0.15422887
82	0x3e9523f8	0.29129004
83	0xbe842f42	-0.25817305
84	0x3d06c2e0	0.03290069
85	0x3e06a6e2	0.13149598
86	0xbe154b1e	-0.14579436
87	0x3de0b93e	0.10972832
88	0xbe1db480	-0.15400887
89	0x3e49486f	0.19656537
90	0x3df174e2	0.11789872
91	0xbdc25acb	-0.09489974
92	0x3e599411	0.21247889
93	0x3d332d4f	0.04374438
94	0x3e22575b	0.15853636
95	0x3d8b8d88	0.06814104
96	0x3e21c5e1	0.15798141
97	0xbd28257a	-0.041051365
98	0xbedce768	-0.431453
99	0xbe886fd8	-0.2664783
100	0x3bf79bec	0.007556429
101	0x3e655795	0.22396691
102	0xbe3cf029	-0.18450989
103	0x3e5bb5fa	0.21456137
104	0xbd9f34c6	-0.077737376
105	0x3dc53f7d	0.0963125
106	0x3e21e919	0.15811576
107	0x3e60406d	0.21899576
108	0x3e528588	0.2055875
109	0x3d005dea	0.031339563
110	0xbd18cc76	-0.037304364
111	0xbe586fa2	-0.21136335
112	0x3ddf9564	0.10917166
113	0x3d692704	0.056921974
114	0xbe1dbde9	-0.15404476
115	0xbe73d0a1	-0.23810054
116	0xbe55f639	-0.20894708
117	0xbe188ff2	-0.14898661
118	0x3de6f71c	0.11277601
119	0x3e60663d	0.21914001

fc2.bias f4 [3]
0	0x3c126e78	0.008937471
1	0xbc33f442	-0.010983529
2	0xbdadb309	-0.08481414
