Bachelor/lightning_logs/version_14/checkpoints/epoch=49-step=1350.ckpt (torch, 47835 bytes, 4 tensors)

fc1.weight f4 [10, 1080]
0.041366078 0.06303791 0.09462206 0.056718558 0.062998556 0.08630055 0.03829246 0.04893738
0.083298415 0.08332665 0.06166753 0.073099926 0.041531842 0.093229465 0.0856592 0.07566748
0.07200285 0.09630384 0.08750006 0.052523695 0.047346175 0.05756355 0.04881487 0.05034454
0.06374349 0.082177125 0.09050148 0.090897195 0.08380676 0.043155506 0.04229161 0.05748023
0.056165956 0.06350684 0.0626562 0.0478516 0.07301616 0.04963234 0.055540405 0.06651189
0.059504427 0.052435152 0.062484648 0.08814063 0.08457827 0.08931545 0.09077894 0.039710164
0.043125197 0.039499253 0.063659824 0.08473214 0.07450459 0.051226072 0.05042652 0.07667936
0.071459 0.09632442 0.09370806 0.061686873 0.046266995 0.09189374 0.047890417 0.08117031
0.07078964 0.091848694 0.06056428 0.07215505 0.06762784 0.07804269 0.06830781 0.08518692
0.071032666 0.07076999 0.056035172 0.08990861 0.08041271 0.08156227 0.09420774 0.055490676
0.043659817 0.038161423 0.06156006 0.08251671 0.05495419 0.040865604 0.07913367 0.04140984
0.06923307 0.060095023 0.052644867 0.05161875 0.07374794 0.039836686 0.0721208 0.08806066
0.05249312 0.039423365 0.0528186 0.08468147 0.050252434 0.07014271 0.06489887 0.048163
0.04450516 0.05521686 0.07665225 0.08852061 0.061425433 0.08449664 0.06303983 0.093426086
0.07977996 0.03899081 0.07503014 0.08888585 0.05615913 0.07593345 0.051328465 0.047829613
0.046375245 0.093672745 0.05828584 0.08144722 0.036533568 0.064920984 0.07001502 0.037430223
0.043204326 0.09026069 0.06583396 0.07362623 0.057132084 0.08412147 0.06376467 0.04907534
0.058228042 0.06936207 0.038734023 0.06944876 0.045602072 0.062494893 0.084318526 0.071534194
0.080172725 0.08936373 0.04831731 0.09240607 0.044853065 0.06656464 0.04961362 0.090792604
0.08543634 0.03975213 0.07497793 0.036137816 0.049758326 0.0748957 0.06761647 0.058139335
0.051825862 0.06428788 0.06502301 0.044637095 0.0648066 0.09000114 0.090363495 0.0688776
0.079034664 0.095023505 0.040445153 0.046378616 0.061851125 0.09156579 0.07546288 0.08623016
0.06343058 0.08139716 0.09658961 0.055903044 0.048969705 0.060970593 0.09261523 0.08995281
0.056776706 0.04990684 0.042229507 0.05434781 0.041435216 0.08345722 0.05970047 0.09058213
0.039983667 0.053218193 0.037332706 0.039341964 0.074446544 0.061445586 0.06237037 0.03929019
0.08579615 0.07878235 0.054149687 0.08603613 0.09383401 0.059474062 0.045708273 0.05763736
0.06878257 0.0388111 0.071785 0.039547008 0.05885463 0.0562527 0.0584169 0.058989625
0.041783694 0.037350867 0.06881225 0.075779244 0.08541255 0.07922773 0.07862261 0.044448156
0.059304316 0.070797026 0.06188823 0.058018595 0.039470993 0.07729992 0.06944081 0.09612225
0.08458914 0.08162093 0.068308726 0.047618106 0.061450057 0.08650988 0.042410083 0.09319392
0.046757713 0.08015023 0.065644205 0.05915893 0.063883334 0.050852895 0.058086835 0.058338396
0.09686181 0.0634696 0.043074638 0.05924228 0.05302868 0.075434774 0.06442009 0.058777824
00000000: 7a6f 293d 051a 813d 36c9 c13d b851 683d
00000010: 6305 813d 58be b03d 8ed8 1c3d 9072 483d
00000020: 5c98 aa3d 2aa7 aa3d 1897 7c3d 6ab5 953d
00000030: 4b1d 2a3d 17ef be3d 176e af3d 8df7 9a3d
00000040: 3b76 933d f33a c53d 3b33 b33d 1623 573d
00000050: 10ee 413d c2c7 6b3d 1af2 473d 1436 4e3d
00000060: f28b 823d 7b4c a83d d758 b93d 4f28 ba3d
00000070: e1a2 ab3d d4c3 303d f839 2d3d 6470 6b3d
00000080: 460e 663d e00f 823d e551 803d 0a00 443d
00000090: 7f89 953d 484b 4b3d 567e 633d 6337 883d
000000a0: eaba 733d 3ec6 563d e7ef 7f3d 1383 b43d
000000b0: 5f37 ad3d 05eb b63d 4fea b93d 20a7 223d
000000c0: 0ca4 303d f8c9 213d 1560 823d 0b88 ad3d
000000d0: dd95 983d 6ed2 513d 0a8c 4e3d 110a 9d3d
000000e0: 1959 923d bd45 c53d 03ea bf3d 60ab 7c3d
000000f0: 7682 3d3d c932 bc3d be28 443d 9f3c a63d
00000100: 29fa 903d 2b1b bc3d 4012 783d 07c6 933d
00000110: 7780 8a3d d9d4 9f3d f7e4 8b3d 7b76 ae3d
00000120: 9379 913d dbef 903d 2385 653d 0122 b83d
00000130: 6baf a43d 1f0a a73d fdef c03d 314a 633d
00000140: a3d4 323d 274f 1c3d 6726 7c3d 85fe a83d
00000150: a517 613d b162 273d d510 a23d 5d9d 293d
00000160: 11ca 8d3d 3326 763d 25a2 573d 2f6e 533d
00000170: 2909 973d cb2b 233d 12b4 933d 2659 b43d
00000180: 0703 573d 657a 213d 5158 583d 7b6d ad3d
00000190: 7fd5 4d3d fba6 8f3d b3e9 843d 9146 453d
000001a0: 0b4b 363d 132b 623d dbfb 9c3d 4b4a b53d
000001b0: 3c99 7b3d 930c ad3d 071b 813d 2d56 bf3d
000001c0: ad63 a33d d4b4 1f3d 67a9 993d c909 b63d
000001d0: 1e07 663d ff82 9b3d cc3d 523d fce8 433d
000001e0: f8f3 3d3d 7fd7 bf3d 22bd 6e3d cdcd a63d
000001f0: 39a4 153d 4bf5 843d 0964 8f3d 6f50 193d
00000200: 05f7 303d 99da b83d f5d3 863d 59c9 963d
00000210: 5503 6a3d e147 ac3d 0d97 823d 3903 493d
00000220: 8780 6e3d b30d 8e3d 91a7 1e3d 273b 8e3d
00000230: 3dc9 3a3d a5fa 7f3d 31af ac3d 8580 923d
00000240: 9931 a43d 5504 b73d 5fe8 453d 653f bd3d
00000250: d9b7 373d 0b53 883d a737 4b3d 79f1 b93d
00000260: 3ff9 ae3d 21d3 223d 078e 993d 3f05 143d
00000270: 63cf 4b3d eb62 993d 817a 8a3d 8323 6e3d
00000280: 5b47 543d 5da9 833d c92a 853d 63d5 363d
00000290: 53b9 843d 8552 b83d 7f10 b93d b30f 8d3d
000002a0: eddc a13d af9b c23d d1a9 253d 81f7 3d3d
000002b0: 9b57 7d3d d886 bb3d 488c 9a3d 7099 b03d
000002c0: e4e7 813d 8eb3 a63d c6d0 c53d 97fa 643d
000002d0: 7594 483d 4dbc 793d 0ead bd3d 2e39 b83d
000002e0: b18e 683d 1d6b 4c3d d9f8 2c3d cf9b 5e3d
000002f0: f9b7 293d 9eeb aa3d 7b88 743d 2083 b93d
00000300: eac5 233d 52fb 593d 2eea 183d 0a25 213d
00000310: 6e77 983d 5eae 7b3d 1378 7f3d c0ee 203d
00000320: e4b5 af3d a458 a13d 10cc 5d3d b633 b03d
00000330: 0c2c c03d 139b 733d 9938 3b3d 2715 6c3d
00000340: e0dd 8c3d 63f8 1e3d 0404 933d 0bfc 213d
00000350: 8d11 713d 3b69 663d 8f46 6f3d 1b9f 713d
00000360: 6125 2b3d 39fd 183d 70ed 8c3d 2632 9b3d
00000370: c6ec ae3d 2642 a23d e404 a13d 450f 363d
00000380: 15e9 723d 08fe 903d 837e 7d3d e8a4 6d3d
00000390: 56ac 213d 6c4f 9e3d fc36 8e3d bedb c43d
000003a0: 123d ad3d e028 a73d 72e5 8b3d 340b 433d
000003b0: 0eb3 7b3d 182c b13d 32b6 2d3d 74dc be3d
000003c0: 0485 3f3d ce25 a43d 7870 863d a250 723d
000003d0: 44d5 823d 204b 503d 76ec 6d3d 3ef4 6e3d
000003e0: 7c5f c63d 5afc 813d 086f 303d 08a8 723d
000003f0: 9a34 593d 8c7d 9a3d aeee 833d 04c1 703d

fc1.bias f4 [10]
-0.16437681 -0.062098753 0.07930537 0.0043183197 -0.034462813 -0.13513571 0.026295286 -0.0758463
0.087319195 -0.01818424
00000000: 6552 28be 435b 7ebd db6a a23d b180 8d3b
00000010: e128 0dbd 0461 0abe 3669 d73c 4e55 9bbd
00000020: 68d4 b23d 1ef7 94bc

fc2.weight f4 [3, 10]
-0.45755678 0.15000965 0.33219507 0.025083149 -0.16073859 -0.48878112 0.15054204 -0.24958847
0.47861654 0.21490446 -0.57582015 -0.36499324 0.32351336 0.12543777 0.14250024 -0.11257575
0.12697169 -0.23850898 0.5121387 0.05379154 -0.42397872 -0.23630676 0.48302597 -0.020206634
-0.10683609 -0.46999666 0.17010385 -0.28423837 0.080468856 -0.01764573
00000000: e244 eabe 219c 193e 7915 aa3e 2d7b cd3c
00000010: a898 24be 8541 fabe b127 1a3e 1f94 7fbe
00000020: 3a0d f53e ea0f 5c3e f368 13bf 65e0 babe
00000030: 8ba3 a53e c272 003e 95eb 113e 1d8e e6bd
00000040: de04 023e b33b 74be 861b 033f 8554 5c3d
00000050: bd13 d9be 66fa 71be 2e4f f73e 6288 a5bc
00000060: e1cc dabd 67a3 f0be b42f 2e3e b187 91be
00000070: dbcc a43d c78d 90bc

fc2.bias f4 [3]
-0.22667612 -0.17706364 0.018743727
00000000: c91d 68be 2c50 35be 728c 993c
