Bachelor/Fit tasks/lightning_logs/version_29/checkpoints/epoch=49-step=3050.ckpt (torch, 221147 bytes, 4 tensors)

fc1.weight f4 [40, 1350]
0	0x3bc5f8f4	0.0060416404
1	0x3c4400f6	0.01196312
2	0xbce2a864	-0.027668186
3	0x3c50c418	0.012742065
4	0x3baf851d	0.0053564445
5	0xbba0f7d8	-0.004912358
6	0x3cb35601	0.021891596
7	0x3c6cc41a	0.014451051
8	0xbcb2330a	-0.021752853
9	0x3a6b8616	0.0008984519
10	0xbcd28815	-0.025699655
11	0x3b076820	0.0020661429
12	0x3c2cc29d	0.010544446
13	0xbc3efb04	-0.0116565265
14	0xb9b92fa8	-0.00035321456
15	0x3cc2e3fc	0.023790352
16	0x3c957cca	0.01824798
17	0x3c8da0b9	0.017288553
18	0xbc4d437c	-0.012528297
19	0xbc926e6c	-0.017874919
20	0x3c96d747	0.0184132
21	0x3c1007a3	0.008790883
22	0x3cd15cf0	0.025557011
23	0x3c2751ac	0.010212343
24	0x3c353f21	0.011062414
25	0x3c76e865	0.015070056
26	0xbb226e72	-0.0024785069
27	0xbc5703aa	-0.013123432
28	0xbb432dda	-0.0029781968
29	0x3c1631e1	0.0091671655
30	0xbc58097a	-0.013185853
31	0x3cb189a5	0.02167208
32	0xbcd6b400	-0.026208878
33	0xbc3ec8e3	-0.011644575
34	0x3a46d3a5	0.0007584638
35	0xbc8c400b	-0.017120382
36	0xbce44132	-0.027863119
37	0x3ad1731c	0.001597974
38	0xbc99d9f4	-0.018780686
39	0x3b18ad5f	0.0023296697
40	0x3c4b0030	0.012390181
41	0xbc9df299	-0.019280719
42	0x3c6b7a38	0.014372401
43	0xbbdc8f2c	-0.0067309346
44	0xbcccd4ad	-0.025003755
45	0x3a0cec51	0.000537579
46	0xbae76959	-0.0017655297
47	0x3c98673d	0.018603915
48	0xbbe5c6ff	-0.0070122476
49	0xbc43d10a	-0.011951694
50	0xbc37ccd4	-0.011218268
51	0x3ba849b6	0.00513574
52	0x3c866197	0.016403956
53	0x3c96cb82	0.018407587
54	0x3ccdec73	0.025137162
55	0xbc0fb551	-0.008771257
56	0xbcd2271a	-0.02565341
57	0x3cab6593	0.020922458
58	0x3c2d9759	0.010595166
59	0xbc3536b4	-0.0110604055
60	0x3c619686	0.013768798
61	0xbaa27099	-0.0012393176
62	0xbc1b0b6c	-0.009463172
63	0xbc88f212	-0.01671699
64	0x3b9e0492	0.004822322
65	0x3b7128c4	0.003679798
66	0x3c982fff	0.018577574
67	0x3c99cbd4	0.01877395
68	0x3c308fef	0.010776504
69	0xbcbec9fc	-0.023289673
70	0x3ca216e6	0.01978631
71	0xbb2417bb	-0.0025038559
72	0xbc9b65b2	-0.01896939
73	0xbbe58289	-0.0070040864
74	0xbcc0ae38	-0.023520574
75	0x3ba45945	0.0050155246
76	0x3bc3f09a	0.0059796097
77	0x3ccd4705	0.025058279
78	0x3cc0174e	0.023448613
79	0x3be66425	0.007030981
80	0x3cc2a8fe	0.023762222
81	0xbcb121b5	-0.021622518
82	0xbbb2f21d	-0.005460991
83	0x3cada450	0.021196514
84	0xbc19443a	-0.009354645
85	0x3c386564	0.011254642
86	0xba433051	-0.00074458594
87	0xbbcb9ff2	-0.0062141353
88	0x3a488e3e	0.000765059
89	0x3b2c6d63	0.0026310317
90	0xbcb8bed5	-0.022551933
91	0x3ccc2286	0.024918806
92	0x3b967d72	0.004592591
93	0x3c9be5de	0.019030508
94	0xbc31beb4	-0.01084869
95	0xbcb6a807	-0.022296919
96	0xbc8e2762	-0.017352764
97	0x3bb4a337	0.005512621
98	0xbc9a797d	-0.018856758
99	0x3c83333a	0.016015638
100	0x3bbc296e	0.0057422435
101	0xbc9b9040	-0.018989682
102	0xbc4407f8	-0.0119647905
103	0xbcab9543	-0.020945197
104	0x3c8f8cbc	0.017523162
105	0x3c883c02	0.016630176
106	0xbcbfebff	-0.023427961
107	0xbcdf6a87	-0.027272476
108	0x3caea8c6	0.021320712
109	0x3c8cdd2e	0.01719531
110	0x3b9adeb5	0.004726256
111	0xbbc9fb88	-0.006164018
112	0xbc4ab161	-0.012371392
113	0x3c24c35e	0.010056345
114	0x3c960fd6	0.018318098
115	0xbcb7655b	-0.022387197
116	0xbc46f031	-0.012142227
117	0x3c83d862	0.01609439
118	0xbac9fff4	-0.0015411363
119	0x3cc97a90	0.024594575
120	0xbca1b441	-0.019739272
121	0x3ca94aee	0.020665612
122	0x3c5fe1af	0.013664647
123	0xbc4b2e84	-0.012401227
124	0xba992adc	-0.0011685747
125	0x3b28352d	0.002566646
126	0xbcb8f46d	-0.022577489
127	0x3aa3594d	0.0012462527
128	0x3b80809a	0.0039215805
129	0x3c54ec78	0.012995832
130	0xbcb3f12e	-0.02196559
131	0x3c7d1180	0.015446067
132	0x3a4cdbf2	0.0007814757
133	0x3c738a3a	0.014864499
134	0x3cbc5d7b	0.022993794
135	0x3c28c939	0.0103018815
136	0xbcdc4192	-0.026886735
137	0xbc9688fd	-0.018375868
138	0xbbdbc6d1	-0.0067070504
139	0xbcbd41b4	-0.023102619
140	0x3c873e64	0.016509242
141	0xbcc150cb	-0.023598095
142	0xbc20b735	-0.009809305
143	0xbb0e41f0	-0.0021706782
144	0xbc654713	-0.013993996
145	0xbcd2daeb	-0.025739154
146	0x3b1cf399	0.0023948906
147	0x3c92d175	0.017922143
148	0xbcb441ee	-0.022004094
149	0x3c8a36fa	0.016871918
150	0xbbcb070b	-0.006195908
151	0x3a8f78f4	0.0010946081
152	0xbcdd6758	-0.027026817
153	0x3c491f18	0.01227548
154	0xbbb63993	-0.0055610626
155	0xbc5b3729	-0.01337985
156	0x3cdcbd2b	0.026945671
157	0x3b6a3908	0.003573956
158	0x3b2916ef	0.0025801023
159	0x3c943b2f	0.018094627
160	0xbcd1e20f	-0.025620488
161	0x3b9c005f	0.0047607864
162	0xbcb4eb68	-0.022084907
163	0x3c9513ae	0.01819786
164	0xbc4fd020	-0.012683898
165	0x3c970732	0.018436048
166	0xbc8bfd84	-0.01708866
167	0x3bf6836d	0.0075229914
168	0x3c826a13	0.01591972
169	0x3b11f55f	0.0022271497
170	0x3cd55500	0.026041508
171	0xbc9164b7	-0.01774822
172	0x3c675309	0.014118918
173	0xbc95f234	-0.018303968
174	0x3cca1c2b	0.024671635
175	0x3bf3cec9	0.007440422
176	0x3cb081f4	0.021546341
177	0x3c460f75	0.012088646
178	0xbb888055	-0.004165689
179	0xbca54074	-0.020172335
180	0x3c25598b	0.0100921495
181	0x3c9c08a0	0.019047081
182	0x3c007188	0.007839568
183	0x3ca4f16d	0.020134652
184	0x3b29770d	0.0025858313
185	0x3bf9814a	0.0076142894
186	0xbba7afd0	-0.005117394
187	0xbc8ace7c	-0.016944163
188	0x3ce026a0	0.027362168
189	0xbc8622db	-0.016374042
190	0xbc8983c7	-0.01678647
191	0xbbdb32ba	-0.0066893967
192	0xbba4a2bb	-0.005024282
193	0x3bf798c7	0.0075560543
194	0xbc9130ee	-0.017723527
195	0x3c70a742	0.014688315
196	0xbb90ba8c	-0.0044167694
197	0xbccdfa6d	-0.025143826
198	0xbb40d77d	-0.0029425316
199	0xbb4279b8	-0.00296746
200	0xbbdb9cb6	-0.006702031
201	0x3baacb33	0.0052122115
202	0xbbbcead0	-0.0057652965
203	0xbcd77ff4	-0.02630613
204	0x3c126502	0.008935215
205	0x3b5b0caa	0.0033424296
206	0x3c9002d6	0.017579477
207	0xbc81c27a	-0.015839804
208	0x3cd427c7	0.025897874
209	0x3c2071a8	0.009792723
210	0x3cb6d0fa	0.022316445
211	0x3caa3c44	0.02078069
212	0xbaffe78f	-0.0019523966
213	0x3c1a7fcc	0.009429883
214	0xbb7407c6	-0.0037236079
215	0x3b215622	0.002461799
216	0x3bb003d6	0.005371551
217	0x3cc874e9	0.02446981
218	0xbb854134	-0.0040666107
219	0x3cacb250	0.02108112
220	0x3caa1208	0.020760551
221	0x3cb8f43a	0.022577394
222	0x3b6a6f53	0.003577192
223	0xbcb2c8c2	-0.021824244
224	0x3cc4f9c8	0.024044886
225	0xbb5b96a2	-0.0033506532
226	0xbc35b76f	-0.011091097
227	0x3ca83685	0.02053381
228	0x3c3b7d5d	0.011443463
229	0xbb5788a5	-0.0032887843
230	0x3ae75b74	0.0017651157
231	0x3a604428	0.0008555078
232	0x3c14ef2a	0.009090224
233	0xbbf3885c	-0.007432027
234	0xbb188649	-0.00232734
235	0xbc6bd3c4	-0.014393751
236	0xbc876932	-0.016529653
237	0xb9b59267	-0.00034632089
238	0x3bc2f6ef	0.005949847
239	0x3b95ee69	0.00457554
240	0xbbe41f46	-0.006961736
241	0x3aef3944	0.0018251319
242	0x3c6bf515	0.014401694
243	0xbba926b7	-0.005162086
244	0xbcc1dd49	-0.023665087
245	0xb96d8e6a	-0.00022655135
246	0x3cdcb7d5	0.026943127
247	0x3ccfb662	0.025355522
248	0x3c34dfc3	0.011039677
249	0x39d8868d	0.0004129898
250	0xbb5726fa	-0.0032829628
251	0x3c581310	0.013188139
252	0xbc5a6dae	-0.013331814
253	0xbcc57da8	-0.02410777
254	0xbcc2d7f7	-0.02378462
255	0xbc9f25a8	-0.019427136

fc1.bias f4 [40]
0	0xbd476293	-0.048677992
1	0x3bab04fe	0.005219101
2	0xbcda5337	-0.026651008
3	0x3bc6af0c	0.0060633477
4	0xbe0d2656	-0.13784155
5	0xbca2b2dc	-0.019860677
6	0xbd2a7217	-0.04161271
7	0x3ddc0901	0.10743905
8	0xbd73bdb3	-0.059507083
9	0xbd24161a	-0.04006014
10	0xbdba18f0	-0.09086788
11	0x3daf65a0	0.08564305
12	0x3e17b54d	0.14815255
13	0xbccc5429	-0.024942474
14	0xbe4716f8	-0.19442356
15	0xbd3f42d9	-0.04669461
16	0xbc939496	-0.018015187
17	0xbd70cb29	-0.0587875
18	0x3b9f1e71	0.004855924
19	0x3e13e047	0.14441024
20	0xbb8e6744	-0.0043458063
21	0xbd460b5c	-0.048350677
22	0xbc545827	-0.01296047
23	0xbd057054	-0.032577828
24	0x3d7bd30d	0.06148057
25	0xbd67019e	-0.056398027
26	0xbe29f557	-0.16597496
27	0xbd134aff	-0.035960194
28	0xbd0cb6a9	-0.034353886
29	0xbca44fea	-0.020057637
30	0xbd9b75aa	-0.07590802
31	0xbd1dc38b	-0.038516562
32	0xbd38a945	-0.045083303
33	0xbd320d15	-0.043469507
34	0xbd153c68	-0.03643456
35	0xbe686153	-0.22693376
36	0xbca804f2	-0.02051017
37	0xbdab6da0	-0.08370519
38	0xbd7e835b	-0.06213699
39	0xbd9cb127	-0.07650977

fc2.weight f4 [3, 40]
0	0x3e39e922	0.1815534
1	0x3e28a8c9	0.16470636
2	0x3de69ebd	0.11260746
3	0x3e9909f6	0.29890412
4	0xbe3fd32f	-0.18732904
5	0xbd83ee52	-0.0644194
6	0x3e45d44f	0.1931927
7	0x3dbda265	0.0925949
8	0x3d38a760	0.045081496
9	0xbe13a3fb	-0.14418022
10	0xbe247d2e	-0.16063377
11	0x3e12f573	0.14351444
12	0x3e80d2fd	0.2516097
13	0xbe28649c	-0.1644463
14	0xbeb3b0f6	-0.35095948
15	0x3d934e04	0.07192615
16	0x3e814b93	0.2525297
17	0xbe3e1395	-0.18562157
18	0x3e89fcac	0.26950586
19	0x3e300567	0.17189561
20	0x3dba4757	0.09095638
21	0x3e855150	0.260386
22	0xbdf92cce	-0.12166749
23	0x3dbebc38	0.09313244
24	0x3df0326d	0.11728368
25	0xbcd301b1	-0.025757642
26	0xbe4662b2	-0.19373587
27	0x3dbab177	0.0911588
28	0x3e2cde23	0.16881613
29	0xbcf997f9	-0.030467974
30	0xbe219c77	-0.15782343
31	0x3e5985de	0.21242473
32	0xbdca033f	-0.098639004
33	0xbb49a1fe	-0.003076672
34	0xbd73c5b1	-0.059514705
35	0xbed38608	-0.41313195
36	0x3e828a21	0.2549601
37	0xbdebe59c	-0.11518404
38	0xbe8c4217	-0.27394173
39	0xbdc40c40	-0.09572649
40	0x3d179ead	0.03701656
41	0x3e593000	0.21209717
42	0x3e6fcc0d	0.23417683
43	0x3d82d56b	0.063883625
44	0xbde1efcf	-0.11032068
45	0x3bf602c3	0.0075076534
46	0x3e5ad4df	0.21370266
47	0x3e4db850	0.20089841
48	0xbe387ffe	-0.18017575
49	0xbd91826c	-0.07104954
50	0x3c33daec	0.010977488
51	0x3e301ea5	0.1719919
52	0x3e20655b	0.15663664
53	0xbdacec4d	-0.08443508
54	0xbe84f3c2	-0.25967222
55	0x3e9aac31	0.30209497
56	0xbcad8bf0	-0.021184891
57	0xbd7f965e	-0.06239926
58	0x3e7f44fa	0.24928656
59	0x3e1a14d7	0.15047012
60	0x3e2d42ce	0.16920015
61	0x3dd21389	0.10257632
62	0xbdb15b0b	-0.08659943
63	0xbe30f1fd	-0.17279811
64	0x3e1d3dd1	0.15355612
65	0xbdfa7c95	-0.122307934
66	0xbe9baf07	-0.30406973
67	0x3e4cd8bf	0.20004557
68	0x3e2edaae	0.17075607
69	0x3e555dba	0.20836535
70	0xbe1a0548	-0.15041077
71	0x3e9b773d	0.3036441
72	0x3d0ddb94	0.034633234
73	0xbdc5eacb	-0.09663924
74	0xbe1b7b31	-0.15183713
75	0xbef3746e	-0.47549766
76	0x3e3e856c	0.18605584
77	0xbe63fce4	-0.22264439
78	0xbdd7300e	-0.105072126
79	0xbd9d13f3	-0.07669821
80	0x3e7b87a9	0.24563469
81	0x3da575d6	0.08079116
82	0x3e744672	0.23854998
83	0x3e7ad10c	0.24493808
84	0xbe606218	-0.2191242
85	0xbe065b21	-0.131207
86	0x3de623b1	0.11237276
87	0x3e5761ed	0.2103345
88	0xbd02b66d	-0.031912256
89	0xbe008a43	-0.12552743
90	0xbe3c8313	-0.18409376
91	0x3e056557	0.1302694
92	0x3e3a16f3	0.18172817
93	0x3d4c1e86	0.049833797
94	0xbea815fa	-0.32829267
95	0x3daa54fc	0.08316991
96	0x3e72e14a	0.23718753
97	0xbd92d1b2	-0.071689025
98	0x3dba59d3	0.09099164
99	0x3e782b56	0.24235281
100	0x3e33f4e6	0.1757389
101	0x3dfc0b8c	0.1230689
102	0xbc1284ae	-0.008942766
103	0xbdfd9204	-0.12381366
104	0x3e0af244	0.1356898
105	0xbe6b7937	-0.22995459
106	0xbe3f40be	-0.18677041
107	0x3e234734	0.1594513
108	0x3db957bf	0.09049939
109	0x3e6486a0	0.2231698
110	0xbbf916ca	-0.0076015936
111	0x3e741d7c	0.23839372
112	0xbdd3a92f	-0.103350036
113	0xbde08dca	-0.10964544
114	0x3cc167b3	0.023609018
115	0xbed683c6	-0.4189741
116	0x3e9da9de	0.3079366
117	0xbc75e736	-0.015008738
118	0xbe28cf06	-0.16485223
119	0xbe0e5fbf	-0.13903712

fc2.bias f4 [3]
0	0x3d1749be	0.03693556
1	0xbc073bfb	-0.008254047
2	0xbe1f046f	-0.15529035
