Bachelor/Fit tasks/lightning_logs/version_33/checkpoints/epoch=49-step=3050.ckpt (torch, 221147 bytes, 4 tensors)

fc1.weight f4 [40, 1350]
000000 2c 0f 8e 3b b4 aa 3e bc 28 4d a5 bc fe 4c 59 3c
       0.0043353047 -0.0116373785 -0.020178393 0.013262985
000010 bb 95 a6 3c 0c ea 01 3c 40 e1 a7 3c dc f4 3e bc
       0.020335069 0.007929336 0.02049315 -0.011655059
000020 55 66 0c bc 62 da b7 3c ee 72 3f 3c 56 36 4e 3c
       -0.00856932 0.022443 0.011685116 0.012586197
000030 49 ae 9a 3c eb de 90 3b d9 ad 8f bc b3 3b 25 3b
       0.018881934 0.004421105 -0.017538952 0.0025212585
000040 c1 05 ae 3c 89 47 4e 3c 48 bd 29 3c 3f b7 16 3c
       0.021242978 0.0125902975 0.01036007 0.009198963
000050 7c d4 95 3c 11 30 d5 3b 7e 38 84 bc f8 07 e3 3a
       0.018289797 0.006505974 -0.016140219 0.00173211
000060 9d c2 88 3c 72 d9 d2 3b 35 0b 98 bb 35 4b ab 3b
       0.016694361 0.006434613 -0.004640008 0.0052274712
000070 77 03 4d 3c 6f a4 94 bc 33 ec 35 bb 9d eb 2e bc
       0.012513033 -0.018144814 -0.0027759194 -0.010676292
000080 c1 52 ac bb 2c 66 cf 3c 66 1c 23 bc 8a c4 1e bc
       -0.0052588885 0.025317274 -0.009955501 -0.009690413
000090 2b f0 8e bb ad 39 a4 bc b8 0c b4 bc 19 0a 9b 3c
       -0.0043621263 -0.020047033 -0.021978721 0.018925713
0000a0 27 4a c4 3c 7e bf 88 bb 64 1a 12 3c e0 04 e2 ba
       0.02396114 -0.0041732183 0.008917425 -0.0017243885
0000b0 e5 0f 5c bc 7e bf 09 3c 02 2d ad bb 99 c5 33 3c
       -0.013431524 0.008407472 -0.0052849064 0.010972404
0000c0 7d c8 0a bc 63 30 8d 3c 87 ad e7 bc e4 91 c3 3c
       -0.008470652 0.017234987 -0.028280986 0.023873277
0000d0 93 b0 3e 3b 48 95 a2 3c 6a 04 c8 3c 26 a4 c6 bc
       0.0029096946 0.019846573 0.024416167 -0.024248194
0000e0 33 64 3d 3b d1 d7 bb bc 87 90 2e 3c 82 ff 50 bc
       0.0028898835 -0.022930058 0.010654575 -0.01275623
0000f0 13 a2 15 bc 59 b2 b9 b9 06 a9 a0 3c a8 8f cd bc
       -0.00913288 -0.0003541883 0.019611847 -0.025092915
000100 14 b1 1c 3c ed 7b 1f bc fb cc 92 bc fa fd 90 3c
       0.009563703 -0.009734136 -0.017920008 0.01769923
000110 7e 27 1c bc 25 b4 6d 3c 6c 90 20 bc c8 be 36 bc
       -0.0095309 0.014508282 -0.009800058 -0.011153884
000120 ce b1 af bc bc 34 e2 bc b4 cb e7 bc 78 0c e7 bc
       -0.021447089 -0.027613036 -0.028295375 -0.028204188
000130 5a e5 39 3c 58 16 ca 3c 9f 08 96 3c f8 da 63 bc
       0.011346186 0.024668857 0.018314658 -0.013907187
000140 43 75 f1 bb 70 6b 77 3c 81 82 75 3c 1b 18 c2 ba
       -0.007368715 0.015101299 0.014984728 -0.0014808209
000150 df 58 1e 3c 25 26 82 bc 4a 89 86 bc b2 7c f9 ba
       0.009664743 -0.01588733 -0.016422886 -0.0019034354
000160 f1 8e 1d 3c 5c c1 66 3c 7d a3 93 bc 3e d6 e9 39
       0.009616599 0.014084186 -0.018022293 0.00044600846
000170 5f ee 2b 3c 1f 97 c6 3c 01 af 76 3b a4 26 f5 3a
       0.010493844 0.024241982 0.0037640932 0.0018703532
000180 3f 25 3d 3c ba df df 3b c6 f8 92 bc 4c 4b 35 3c
       0.011544525 0.00683209 -0.01794089 0.011065315
000190 47 da 59 3c 20 3f d2 bc 28 d9 c6 bb 03 e3 39 3b
       0.01329667 -0.025664866 -0.0060683675 0.002836407
0001a0 46 99 98 bc 71 13 61 3c 66 38 8b bc 1e fc a4 bc
       -0.018627774 0.013737545 -0.016994666 -0.02013975
0001b0 8c 62 45 3b ef 2d 52 3c 7a 7e a8 3c 3f 17 92 bc
       0.0030118553 0.012828334 0.020568121 -0.01783335
0001c0 8e 2c 94 3c ff 8a 90 3c 36 72 e4 bc 56 6d 89 3c
       0.018087652 0.017644404 -0.027886491 0.016775768
0001d0 bb e5 a0 bc 22 8e b0 3c 12 08 22 bb da 50 fa bb
       -0.019640794 0.02155215 -0.0024724049 -0.007639033
0001e0 76 7b 24 bc 15 c0 8d bc ba d0 cd 3c c2 b1 80 bb
       -0.010039201 -0.017303506 0.025123943 -0.0039274404
0001f0 1d f5 53 bc 80 8f b8 bc 70 fe 18 3c 57 8c 09 3c
       -0.0129368575 -0.022529364 0.009338006 0.008395276
000200 b5 ce f3 3b e6 c2 0a bc 25 0d f6 ba aa 4a 53 bc
       0.007440413 -0.008469319 -0.0018772228 -0.012896219
000210 f7 2c 9b 3c 0d 45 57 bc c0 8c 71 bb c8 98 2c bc
       0.01894234 -0.013139022 -0.0036857575 -0.010534473
000220 1b db 91 3b 7f 40 71 3c 57 17 26 3c c1 42 59 bc
       0.0044511682 0.01472485 0.010137401 -0.013260544
000230 8e 20 bc bb 5f b2 fa bb 7c ea 44 3c 95 f6 81 bc
       -0.0057411855 -0.007650658 0.012018796 -0.01586465
000240 49 31 04 3c f8 db af bc cf de ba ba 5f 17 ca bb
       0.008068391 -0.021467194 -0.0014257076 -0.006167337
000250 e9 26 be bc 16 86 c1 bc 1b f4 21 bc af 40 55 bc
       -0.023211913 -0.023623507 -0.009884859 -0.01301591
000260 10 94 69 3c 51 f9 b8 bc 6d c1 c3 bc 43 9c b0 3c
       0.014256492 -0.02257982 -0.023895944 0.021558886
000270 da e7 7a 3c ce a7 bb bc b8 89 61 3c 14 e9 2f bb
       0.015314067 -0.022907164 0.013765745 -0.0026841806
000280 6f fa 28 bb 92 4d 16 3c 45 17 5d bc 92 75 22 bb
       -0.0025784036 0.009173768 -0.013494317 -0.0024789316
000290 76 3e 6d 3c ab cc f1 bb 57 c7 80 bc c6 8c 4d 3c
       0.014480224 -0.0073791347 -0.015720053 0.01254577
0002a0 60 e8 87 bc b7 30 02 3c f1 4e fc bb b2 10 e5 3b
       -0.016590297 0.007946185 -0.0076998402 0.0069905156
0002b0 b9 54 9b 3c a9 2d 5c 3c 0e c5 05 3c 36 b4 79 bc
       0.018961297 0.013438621 0.008164657 -0.01524072
0002c0 29 b7 21 ba 7e 00 04 3a 4e 3f 87 bc 96 29 b2 bb
       -0.00061689556 0.0005035474 -0.016509678 -0.0054370863
0002d0 7c c6 3f bb a6 9b cf bc c9 b5 59 bc fb b8 61 3a
       -0.0029262593 -0.025342774 -0.01328797 0.0008610633
0002e0 2c 99 46 3b 01 a4 58 3b d3 14 d5 3c 62 ee 8d bc
       0.00303037 0.0033056738 0.026010906 -0.017325584
0002f0 74 5e 9f 3c 9f 3b 9f bc fe a8 a0 3c 9c ff 38 3c
       0.019454218 -0.01943761 0.019611832 0.011291411
000300 a8 ba 7c bc 04 a4 b1 3c 07 68 a7 3c 93 b0 af bb
       -0.015425362 0.021684654 0.020435346 -0.0053616255
000310 4f 7e 98 ba be a1 0d bc fb cb 30 bc 7d 8b b2 3c
       -0.0011634323 -0.008644519 -0.01079082 0.021795029
000320 90 0c c3 3c 45 71 0c bb 7f 50 bf bc 4f a0 3f 3c
       0.023809701 -0.0021429819 -0.023353813 0.011695935
000330 83 cf d5 bc c3 bf 19 bc f3 d0 bf 3b 57 59 8b 3c
       -0.026099926 -0.009384098 0.005853766 0.017010374
000340 fb 54 b6 bb 85 3f 31 3c 45 b4 9d 3c 36 37 69 bc
       -0.0055643297 0.010818367 0.019250998 -0.014234355
000350 c1 15 b3 b9 4e eb 78 3c d3 9c c1 bc 7b 76 17 3c
       -0.00034157748 0.01519282 -0.02363435 0.009244557
000360 66 d8 a8 bc ca 31 e3 bb 78 08 ca bc 38 01 d6 3c
       -0.020611 -0.0069334256 -0.024662241 0.026123628
000370 d1 4d ba bb ff db 11 3b f8 97 bc bc 9d 3e 38 bc
       -0.005685546 0.0022256372 -0.023021683 -0.011245397
000380 a2 55 dc bc 5d 02 96 bb 26 a9 76 bc 10 3a a2 3c
       -0.026896302 -0.0045779184 -0.015054977 0.019803077
000390 39 8d 8e b8 1e 42 0c 3c f5 d5 6a 3c 1b 0e 24 3b
       -6.7973924e-05 0.008560685 0.014333238 0.0025032822
0003a0 a3 e1 9c bc 83 94 80 3b c5 41 bd bc cb 8b 2c bc
       -0.01915056 0.003923954 -0.02310265 -0.010531376
0003b0 18 68 0b bc 89 e7 8a bb 94 ed 8c 3c b4 2b 0a bc
       -0.008508705 -0.004239027 0.01720313 -0.008433271
0003c0 9d be 35 bc 1d 53 b3 3c 83 11 a3 3c 1e 02 a1 3c
       -0.011092809 0.021890217 0.019905811 0.01965433
0003d0 28 9a 1c bc 8e 8c 85 3c 98 c1 a4 3c 1c fd 26 bb
       -0.009558238 0.016302373 0.020111844 -0.0025480455
0003e0 31 34 8f bb 32 84 1b bc 86 da 61 bb f0 ee 23 3b
       -0.0043702354 -0.009491967 -0.0034462526 0.0025014244
0003f0 c4 91 79 3c 4b ee ae 3c 1b 12 5f 3b e7 7d 69 3c
       0.015232507 0.021353861 0.0034037891 0.014251209

fc1.bias f4 [40]
000000 61 f2 51 3c 40 18 d3 bb 07 3a e1 3d 6b f7 a5 bd
       0.012814135 -0.0064421 0.10997396 -0.08103832
000010 e3 77 88 bd 54 16 5c 3d fe a9 68 3c 91 aa 3f 3c
       -0.066634916 0.05373223 0.014200686 0.011698381
000020 1d f7 66 bc be 5f 06 bd d7 6a 9c 3b a2 d3 08 3d
       -0.014097002 -0.03280615 0.0047734785 0.033404954
000030 fd 90 80 bc 00 65 50 bc 0d 03 e6 3b a8 a9 64 3c
       -0.015694136 -0.012719393 0.0070194067 0.013956465
000040 1e 90 e9 3c ba a6 c7 3d dd ec 63 3d 3b 0a ab bb
       0.028511103 0.097485974 0.055645812 -0.0052197254
000050 20 29 16 bd 61 4e 00 3d e4 5e f0 bb 85 6e 3e 3b
       -0.036660314 0.031324748 -0.0073355306 0.0029057574
000060 9d 96 3b 3d 8f b3 8e ba 99 a2 6c bc 2c 78 02 bd
       0.045797933 -0.0010887253 -0.014443063 -0.031852886
000070 4a d0 96 bc 58 21 94 3c d8 18 80 3c 4b 22 66 3b
       -0.018409867 0.018082306 0.015636846 0.0035115655
000080 bd 0a 0e 3b f3 f9 5c bc 4d 51 12 bb f0 dd 8c bc
       0.002167388 -0.013487327 -0.002232629 -0.017195672
000090 3f b6 8c bd d7 20 ea 3d fd de 70 3c 66 47 c1 3c
       -0.06870698 0.11432045 0.014701602 0.023593616

fc2.weight f4 [3, 40]
000000 c6 48 4e 3e 04 28 8a bd 54 2c e0 3e 37 f2 b8 be
       0.20144948 -0.067459136 0.4378382 -0.36122295
000010 2d 66 ae be 95 6b 2d 3e 42 5b c8 3d dd 95 e9 bc
       -0.3406233 0.1693557 0.09783031 -0.028513843
000020 a4 07 80 bc 07 8a 69 be c3 53 b9 bb 85 98 71 be
       -0.015628643 -0.2280656 -0.005655737 -0.23593338
000030 dd d6 29 3e e8 b6 21 be a4 5a 78 3d 30 32 41 3e
       0.1658587 -0.1579243 0.060633317 0.18866801
000040 47 db cb 3d c0 9b 96 3e 8a 16 51 3e 09 33 67 3e
       0.09953933 0.29415703 0.20418754 0.22578062
000050 57 94 8b be 77 cd 32 be 6f 88 70 be 90 50 14 bd
       -0.27261612 -0.17461191 -0.23489545 -0.036209643
000060 85 e5 95 3e d5 29 40 bd c9 9d 58 3e 3f 06 be 3d
       0.29276672 -0.046914894 0.2115394 0.09278535
000070 85 5a e3 bd 96 0a c0 bd d0 50 4f bd 40 dc 0d 3e
       -0.111012496 -0.09377019 -0.05061418 0.1385355
000080 dd 54 16 3e 65 6c af bc d7 ea db bd 53 1c 92 bc
       0.1468081 -0.021413991 -0.107381515 -0.017835772
000090 e9 42 91 be 6f b0 b6 3e 0d 34 1c be 06 91 08 3e
       -0.2837136 0.35681483 -0.15254231 0.13336572
0000a0 f9 dd bc 3d fc df ff bd dd 1d f1 3e a3 a1 c4 be
       0.092220254 -0.124938935 0.47093096 -0.3840457
0000b0 69 83 92 be e8 7c 76 3e 2e ed 6d 3e eb df 39 be
       -0.28615883 0.24071085 0.23235008 -0.18151824
0000c0 9d 4f 86 be 3a 1b 5f be c1 a8 81 3e e0 82 04 be
       -0.26232615 -0.2178773 0.25324062 -0.1294055
0000d0 9d 0e 08 3e f8 d5 92 3d 71 25 c6 3d 3d 63 e1 3d
       0.13286825 0.071697176 0.0967511 0.11005256
0000e0 28 54 93 3e 65 85 90 3e a8 1a 82 3e 07 5e a6 b9
       0.28775144 0.28226772 0.25410962 -0.00031732043
0000f0 4f da 8e bd 47 a1 c2 bd 94 75 b8 bd 44 c4 3e be
       -0.06975233 -0.095034175 -0.09006801 -0.18629557
000100 46 bb 04 3e df 49 66 be 03 c2 d1 bb 20 b1 a0 3c
       0.12962064 -0.22489117 -0.006401302 0.01961571
000110 9e 77 2a be 88 ae 3f be 33 1d 04 be db 6b 17 bd
       -0.16647193 -0.18718922 -0.12901764 -0.036968093
000120 e3 be 42 3e 0d 75 2d 3e fb 5d ac bd 5d 86 2d be
       0.1901813 0.16939183 -0.08416363 -0.16945787
000130 be d2 f4 bd 99 22 ba 3e 77 cb 67 be 51 91 8e 3d
       -0.119542584 0.3635452 -0.2263621 0.06961311
000140 8d 40 f8 3d 3c e8 56 be 96 8a db 3e d3 53 b9 be
       0.12121687 -0.20987028 0.4287917 -0.36196765
000150 06 4f 8f be d6 56 51 3e d5 fd 1d bd 06 1b 76 be
       -0.27989978 0.20443282 -0.03857215 -0.24033746
000160 17 82 79 be 50 6d 93 bd f6 8a 27 bd cc 28 cd 3c
       -0.24366032 -0.07198584 -0.040904008 0.025043868
000170 8d ac bc 3d 6a 46 57 be 59 f9 c3 3d 5c 4f 31 3e
       0.09212599 -0.21022955 0.09569044 0.1731543
000180 50 07 41 3c 2a 8f bc 3e 3b 1f 75 3e 08 74 e3 3d
       0.011781529 0.36827976 0.23937695 0.111061156
000190 35 21 37 be e4 2d ee bd 3b 66 b6 bd c7 0f 0d be
       -0.17883761 -0.11629847 -0.08906218 -0.1377555
0001a0 82 63 5c 3e 3d a6 b1 bd 1b 95 b5 3d 1f fb 75 3e
       0.21522334 -0.086742856 0.0886633 0.24021576
0001b0 4f ee f3 bd 6b 50 04 bd 69 fa 93 be 86 bb 61 3e
       -0.11910688 -0.032303255 -0.28901985 0.22044191
0001c0 5b 16 10 bd 5d b9 51 3e 3f 30 83 be 29 52 53 be
       -0.03517757 0.20480867 -0.25622746 -0.2063681
0001d0 29 7e 86 be b8 e8 80 3e c1 ea 64 3d 48 b8 78 3e
       -0.26268128 0.2517755 0.05588794 0.24289048

fc2.bias f4 [3]
000000 31 55 1a be 47 eb d8 3c 2d d1 1d 3e
       -0.1507156 0.026479376 0.15411825
