Bachelor/Fit tasks/lightning_logs/version_36/checkpoints/epoch=49-step=3050.ckpt (torch, 60491 bytes, 8 tensors)

fc1.weight f4 [10, 1350]
000000 48 cc ce 3c 7d 3a b3 3c 66 fc b9 3c a6 7e 80 3c
       0.025243893 0.021878475 0.02270336 0.01568539
000010 ef 75 a2 ba dd 7d c3 3c 92 91 17 bc f6 2d ad 3c
       -0.0012394766 0.023863727 -0.009251015 0.02114008
000020 bf 4a 92 bc 26 02 75 bc 06 f5 89 3c 23 74 83 3c
       -0.017857907 -0.0149541255 0.01684047 0.01604659
000030 79 49 36 39 20 a1 e1 3c 69 66 e2 bb 52 6a af bc
       0.00017384243 0.02754265 -0.006909181 -0.021413002
000040 7c 6e 8b 3c 64 fc ae bc 4d f6 96 3c 8a e4 e3 3c
       0.017020456 -0.021360584 0.018427992 0.027818937
000050 72 70 84 3c 24 1b 5c 3c c5 77 aa bc ab 5f 79 bc
       0.0161669 0.013434205 -0.020809064 -0.015220563
000060 c5 54 3d 3c 8c f0 a9 bc c7 de 8f 3a a3 a9 25 bc
       0.011555855 -0.020744585 0.0010976427 -0.010111245
000070 f9 65 d2 bb 36 b9 d6 3c 0a be c8 b9 e1 ec 73 3c
       -0.0064208475 0.026211362 -0.00038288563 0.014888019
000080 cf 3b 30 bc 71 19 63 3c 76 c0 3b bc 63 63 02 3c
       -0.010756447 0.013861046 -0.0114594605 0.007958266
000090 c7 c4 c1 bb b0 9a e8 3c 47 7b 43 3c d9 4f 9f bc
       -0.0059133503 0.028394073 0.011931247 -0.019447254
0000a0 55 1b c1 bc f1 10 a4 bc 64 6a 71 3c 46 a8 db 3c
       -0.023572603 -0.02002761 0.014734838 0.026813637
0000b0 39 f0 38 bc 90 cd a3 3b d3 b9 12 3c 22 a1 b9 bc
       -0.011287742 0.00499887 0.008955437 -0.022659842
0000c0 28 60 af bc fa 08 cf 3c 79 45 1a bc ce 27 9f 3c
       -0.021408156 0.025272835 -0.009415978 0.01942816
0000d0 14 ab fa 3b 8e c4 07 3c e2 28 15 3c 21 43 90 3b
       0.0076497886 0.008286608 0.0091039855 0.0044025336
0000e0 8f e8 bd 3b c6 5d bb ba 45 4c 6c 3b 8f ca dc bb
       0.0057955454 -0.0014294914 0.0036056202 -0.006738014
0000f0 89 26 ae bc 16 75 6e ba 5e 29 c8 3c 62 ee 3e 3c
       -0.02125861 -0.00090964267 0.024433788 0.011653515
000100 22 ce ae 3c b2 80 1a 3c 41 2f f9 3b 17 f1 a7 bc
       0.021338526 0.009430097 0.00760451 -0.020500703
000110 44 93 b3 bb f4 c1 55 3c 4c a6 3a bc 2e 02 c7 3c
       -0.005480202 0.01304673 -0.011392187 0.024293032
000120 f6 61 87 3b 90 8c 8f 3c 88 56 70 3c 62 0c 35 3c
       0.004131551 0.01752308 0.014669068 0.011050316
000130 68 4a 05 3c b0 74 39 3c 8b b0 b0 3c 67 c0 49 bc
       0.008135416 0.011319324 0.021568557 -0.012313939
000140 15 da ad 3c 0b b4 06 3b 26 cd c3 3c b5 4a 73 bc
       0.021222154 0.0020554091 0.023901533 -0.0148493545
000150 44 9d ea 3b f5 8c b6 3c 85 5d c3 3c b7 f3 93 bb
       0.007159861 0.02228401 0.023848305 -0.004515137
000160 70 d8 85 3c d6 b6 8d 3a e2 bb bd 3c 35 3e 8c 3c
       0.016338557 0.0010811936 0.023160879 0.017119506
000170 db 4f 52 3c ae c4 2a 3c 0f 2e aa 3c 1e 0d 50 3c
       0.012836422 0.010422869 0.020773916 0.01269844
000180 01 23 75 bc ee 91 95 3c c7 7a 2e bc 17 3c a4 3c
       -0.014961959 0.018258061 -0.01064939 0.020048184
000190 f5 4e c7 3c f2 a4 b9 3c b8 4d bb 3b 7f 61 e0 3b
       0.024329642 0.02266166 0.005716052 0.00684756
0001a0 2c 22 82 3b 60 3f 9b bc b5 79 1b 3c eb 3a 38 3a
       0.0039713588 -0.018951118 0.009489466 0.00070278224
0001b0 f7 f7 f8 3c 98 82 9e 3c 89 94 b2 3a 5b 4a 7b bc
       0.030391676 0.019349381 0.0013624589 -0.015337552
0001c0 af f9 1b 3c 30 b6 83 3b 67 ba 26 bc 8e ed ab 39
       0.009519978 0.004019521 -0.010176278 0.00032792654
0001d0 cf fb 22 3c 89 3b 6a 3c 3a ce e2 3c 84 ea 5a bc
       0.009947731 0.014296421 0.027686227 -0.013361577
0001e0 1b 41 4a 3c 23 ff 60 bc 36 fb eb 3c ed 15 97 bc
       0.012344624 -0.013732704 0.02880631 -0.018443072
0001f0 aa e1 57 bc 2c fa a5 3c f1 de 01 bc cd e1 14 bc
       -0.013176361 0.020260893 -0.0079266885 -0.009087038
000200 7f 9e 94 bc cf 15 2c bc 3e 47 09 3d 48 b0 eb 3c
       -0.018141983 -0.010503246 0.033515207 0.02877058
000210 11 c5 b7 3c 5e 25 5f bc 3d df f7 3c cb a1 96 3b
       0.022432836 -0.013619749 0.030257815 0.004596924
000220 1b 88 0d 3d 6f ed 94 bc 0c 89 fc 3c ee c0 3f bc
       0.03455363 -0.018179623 0.030827068 -0.011703713
000230 03 b0 53 ba 3d 08 71 bc b7 f2 71 3c 26 6e 93 3c
       -0.0008075239 -0.014711437 0.01476734 0.017996859
000240 51 9c 98 bc b4 64 6e b9 b3 8c 83 bb d7 55 ed bb
       -0.018629225 -0.00022734964 -0.0040145754 -0.007242899
000250 30 2b ca 3c 58 1a b7 3c 0f f5 e0 3c 5c 5c 8f 3c
       0.024678797 0.022351429 0.027460603 0.017500095
000260 43 5b 80 3c f7 8a b2 bb e0 70 cc ba 44 a5 92 3b
       0.015668517 -0.005448695 -0.0015597604 0.0044752676
000270 e1 e0 81 bc 64 0e fd 3c f3 08 ab 3b 75 35 d7 39
       -0.0158543 0.030890651 0.0052195727 0.00041047824
000280 64 f3 32 ba eb 7c 0a 3d 38 a5 19 bb a1 f2 0e bc
       -0.0006826429 0.033810537 -0.0023444425 -0.008724839
000290 d9 ab 12 ba 90 92 a9 3c 96 28 07 bc b2 1f 3e bc
       -0.00055950653 0.02069977 -0.008249423 -0.011604236
0002a0 98 17 fe 3c 3a c2 0e 3d eb f9 1f bc 23 e9 0d 3c
       0.03101711 0.034853198 -0.009764175 0.008661541
0002b0 27 e9 65 bc 71 c0 81 3c b7 25 6d 3c 4c 31 05 3d
       -0.014032639 0.015838834 0.014474324 0.032517716
0002c0 9d 6b 9d 3c e3 97 0a 3d 8c e3 e8 3a f5 57 c1 3c
       0.019216353 0.033836257 0.001776801 0.023601511
0002d0 0e 06 70 3c bb 42 e2 3c d4 89 3e bc 70 3c c9 ba
       0.014649881 0.02761971 -0.0116295405 -0.0015353095
0002e0 25 1c 2e 3c 17 e1 97 3c a2 c6 0e 3d f4 5e 10 3d
       0.010626827 0.018539948 0.0348574 0.035246804
0002f0 37 ba b8 3c f5 0f 28 bc 57 49 07 3b 33 4a 82 bb
       0.022549732 -0.010257711 0.002064308 -0.0039761304
000300 ab 7b 2d bc 8c 27 06 3d 5f 46 d1 3c 4d ec 82 ba
       -0.010588567 0.03275256 0.02554625 -0.0009988636
000310 6a 58 85 3c 5f fb 39 bc a7 5d d0 3a 07 cf f3 3c
       0.01627751 -0.011351435 0.0015897051 0.029761804
000320 4b c6 50 bb e7 b0 97 3c 96 cc 57 bc 54 c2 88 3c
       -0.0031856473 0.01851697 -0.013171336 0.016694225
000330 e2 90 25 bc 7b 26 a7 3c 5a 20 33 bb ad 17 c2 bb
       -0.010105344 0.020404091 -0.0027332515 -0.0059232325
000340 11 79 9a bc bd aa 10 3a 9e 4e 08 3d d8 88 70 bc
       -0.018856557 0.0005518606 0.0332781 -0.014681064
000350 79 a9 2a 3c 61 5b 03 3d 6a 1a eb 3c 12 be 6c 3c
       0.010416382 0.032069568 0.028699119 0.014449613
000360 4f 9a 55 3c 95 a6 21 bb 00 50 e5 3c bc 55 b8 3c
       0.013037278 -0.002466594 0.027992249 0.022501819
000370 f2 ca 91 bc 92 ce 0b 3c 47 ab 0e bc 28 55 12 bc
       -0.017796967 0.008533137 -0.008707828 -0.008931436
000380 82 72 f9 3c e2 2f 92 bb 64 15 ed bb a8 75 54 bc
       0.03045011 -0.0044612745 -0.007235216 -0.012967505
000390 4f ec 87 bb ea 50 0c 3d 14 0f ae 3c 7c d0 81 bb
       -0.004148043 0.034256853 0.021247424 -0.003961621
0003a0 7c 6d 97 3c 92 00 8a bb ef ff 48 3c 46 f6 0a 3d
       0.018484823 -0.004211494 0.012268051 0.03392627
0003b0 dd ce 8e bb 75 ae 86 bc 71 ff df 3c 4d f1 a7 3b
       -0.004358156 -0.01644061 0.027343484 0.005125201
0003c0 be c6 eb bb c4 61 0b 3c 11 5e 01 3d 0c cf e6 3b
       -0.007195323 0.008507196 0.03158385 0.007043725
0003d0 89 ea e0 3a df 0c ca 3c 34 56 f6 3c 52 e5 5f 3b
       0.0017159741 0.02466434 0.030070402 0.0034163785
0003e0 f7 65 0a 3d 2a e1 95 3c ff 0f e4 3c b0 a4 11 3b
       0.033788648 0.018295843 0.027839659 0.0022223406
0003f0 da a6 05 3d 99 09 77 3b 93 6a 41 bc 7c 0e c2 3c
       0.032629825 0.003769493 -0.011805194 0.023688547

fc1.bias f4 [10]
000000 e9 ce 8f bc b8 6b 46 be 28 a6 3b bc 7c 81 84 bd
       -0.017554717 -0.19377029 -0.011453189 -0.0647001
000010 73 cc 7c bd 13 95 8b bd d7 70 d7 3d 71 19 dc bd
       -0.061718415 -0.06815543 0.10519569 -0.1074704
000020 c5 87 0c bf 48 1e 73 be
       -0.5489467 -0.2374202

fc2.weight f4 [10, 10]
000000 24 e9 98 be 9e 1e 18 3e 8d bd 9a be 8c ff 9f be
       -0.29865372 0.1485543 -0.3022274 -0.31249654
000010 f6 7e 8a bd 4c 19 9a be 05 11 07 be 96 df 0c bf
       -0.06762497 -0.30097425 -0.13190086 -0.55028665
000020 0c 91 91 3e 17 32 86 bd 40 f5 07 be f4 2d b1 bd
       0.28430974 -0.06552523 -0.13277149 -0.08651343
000030 18 eb cd be 24 8e af be a7 b8 90 be e7 52 80 be
       -0.40218425 -0.34288132 -0.2826588 -0.2506325
000040 76 56 c6 be bc aa dc be 62 1c 0b bf 20 e1 3b 3d
       -0.3873784 -0.4309901 -0.54340184 0.045868993
000050 b9 57 a3 be c9 30 0c be 6c 3f 62 be 41 0d 37 3d
       -0.31902865 -0.13690485 -0.22094506 0.044690374
000060 7c bb 17 be 99 67 27 bf 0d f2 4f 3e 35 80 7e be
       -0.14817613 -0.6539245 0.20307179 -0.24853595
000070 db fe 1a be 8a 52 61 be 94 89 ce be 95 ac c1 bb
       -0.15136282 -0.22004142 -0.4033934 -0.005910466
000080 d8 18 e5 be cb b7 8f be 66 f1 01 bf 42 b2 30 be
       -0.44745517 -0.2806991 -0.5075897 -0.172555
000090 67 a9 50 be 2c 61 67 bf a4 59 b9 be a0 29 69 bd
       -0.20377122 -0.9038265 -0.36201203 -0.056924462
0000a0 92 82 1e be 00 ae 32 3a 1c 09 f4 bd 58 f1 f2 bd
       -0.15479496 0.0006816089 -0.119158 -0.11862439
0000b0 2a 78 d6 be f9 a0 ae bc fb 74 60 be c9 21 50 bf
       -0.41888553 -0.021316992 -0.21919625 -0.8130155
0000c0 46 c1 55 be 76 52 6e be 7e 29 71 bd 8a 13 de bd
       -0.20874509 -0.23273644 -0.05887746 -0.108435705
0000d0 1d de 22 be 9e 47 93 be 73 1d e3 3d cf b8 90 be
       -0.15905042 -0.28765577 0.11089601 -0.28265998
0000e0 46 fa 63 be 14 8c 16 be 50 73 bd bd d8 c2 5e be
       -0.2226344 -0.14701873 -0.0925051 -0.21754014
0000f0 51 24 2e be 4b ee 66 bd 01 63 95 be 6c bc 4b bd
       -0.17006041 -0.056379598 -0.29177096 -0.04974024
000100 c3 93 28 3d 75 63 df 3d 01 4f c8 3e b6 55 af be
       0.04115654 0.10907642 0.39122775 -0.3424508
000110 67 ec 83 be 25 d6 74 be 92 63 60 3b 02 ba c1 bc
       -0.25766298 -0.23909815 0.0034239036 -0.023648266
000120 3e 61 cf be 67 c9 fa 3d 63 89 90 be de 15 20 be
       -0.40503877 0.12245446 -0.28229818 -0.15633342
000130 46 23 ff bd 9e b1 d3 bd e5 1f fc 3c 7a 95 21 3e
       -0.124579 -0.10336612 0.030776927 0.15779677
000140 51 71 95 3d 6b e0 a3 3b 27 c8 e3 3d 8d d9 ab be
       0.07297004 0.005001118 0.111221604 -0.33564416
000150 8f 6e c7 bd 2d aa cc 3e 85 44 f1 be f8 dc 30 3c
       -0.09737884 0.39973584 -0.4712259 0.010794871
000160 45 4b 18 be b1 2c 9d 3d bf 16 b0 3d ae bb 6f 3e
       -0.14872463 0.0767454 0.085980885 0.23411438
000170 6c 61 bf bd ee 32 ba be 84 ab 36 bd 81 49 55 3c
       -0.093447536 -0.3636698 -0.044597164 0.013018013
000180 95 39 60 be e0 eb 31 be bf 49 28 be d5 7a 6a be
       -0.21896966 -0.17375135 -0.16434382 -0.22898419

fc2.bias f4 [10]
000000 b9 fd d7 be 8c 55 2f be 8e 3e 7f be 1d f3 5b 39
       -0.42185763 -0.17122477 -0.24926206 0.00020976034
000010 6a 73 49 be 0b cf c9 3e 55 bf 92 3f 2d 5e 25 3e
       -0.19672933 0.39415774 1.146464 0.16149206
000020 3f 0c 36 3e b0 db a8 be
       0.17778109 -0.32980108

fc3.weight f4 [10, 10]
000000 5e 44 93 3d 62 10 0b bd e6 29 83 be 9f 07 6a be
       0.071907744 -0.03395117 -0.25617903 -0.2285447
000010 0a 0e 34 be 93 69 35 bc d5 e1 d2 bd ea 0a 8d 3d
       -0.1758348 -0.011072534 -0.1029698 0.06886847
000020 8d de 5d be ea b3 35 3e cb 9c 4c 3e e3 9e 33 bd
       -0.21666928 0.17744413 0.19981687 -0.043852698
000030 76 34 b1 3c 4d 36 65 3e 8a 05 0b be de a1 1d bd
       0.02163146 0.22383995 -0.13576332 -0.038484447
000040 c0 b8 2d ba 52 6e f5 bd 30 7f 5a bc 49 fc a6 bd
       -0.0006626956 -0.119839326 -0.013335988 -0.08153588
000050 85 dd 2d 3e 48 bd 03 bf f2 1e 26 bd ae 61 69 be
       0.16979034 -0.51460695 -0.040556855 -0.22791168
000060 d2 62 43 be d0 83 8f 3d e3 57 a0 be f1 21 aa bd
       -0.19080666 0.07007563 -0.31317052 -0.08307255
000070 c2 b5 dc bc 5d 2d 6f bd de ec 81 3d f8 35 22 be
       -0.026942138 -0.05839287 0.06344007 -0.158409
000080 29 e5 31 3d 54 13 2d 3d f6 02 72 be cc a5 00 3d
       0.043431435 0.04225476 -0.23633942 0.031408116
000090 7a 5f 29 be 6d c8 62 be 7b d0 27 bb a7 05 98 be
       -0.16540328 -0.22146769 -0.0025606442 -0.29691812
0000a0 b2 36 58 3e ce b1 cd bf b5 bd 1d be 3a d4 d6 bd
       0.21114615 -1.6069887 -0.15404399 -0.10489698
0000b0 00 51 80 bb ab 01 c1 be 2f c9 cb be 9f f6 96 be
       -0.003915906 -0.37696585 -0.39801928 -0.29485032
0000c0 0f a2 b2 be 1b 7e 7b 3d b5 57 30 be 51 32 19 3f
       -0.34889266 0.06139956 -0.17220958 0.598424
0000d0 da 21 86 3d b4 eb 61 be 22 dc 88 be 26 da 15 be
       0.065494254 -0.2206257 -0.26730448 -0.14633998
0000e0 2a 82 a0 be b9 89 aa 3d 8c ff 81 bd 1e fa cb 3d
       -0.31349307 0.0832705 -0.0634757 0.099598154
0000f0 ea f2 b8 3d 83 a8 58 bf db ea 1c bd 9c 8d 26 bd
       0.09030707 -0.8463213 -0.038309913 -0.040662393
000100 0c f4 2e 3e 75 d4 36 3e 95 86 ec be ca 8b 92 be
       0.17085284 0.17854483 -0.46196428 -0.28622276
000110 77 43 cf be ac a4 18 3a e5 39 ea 3d 91 2c 96 be
       -0.4048116 0.0005822878 0.11436824 -0.29330876
000120 fc 4f b1 3e 4f 02 11 be e1 c8 61 be a8 0a b5 be
       0.34631336 -0.14161037 -0.22049285 -0.35359693
000130 7b b5 b1 3e 5c 04 01 bf 9b 8e 98 3e 77 79 04 3e
       0.3470877 -0.50397277 0.297963 0.1293696
000140 aa a0 d3 3d 5b 73 43 be ad 1a 38 be d2 d2 eb 3d
       0.103333786 -0.19086973 -0.17978926 0.1151482
000150 68 2e 00 3d 99 42 3d 3e 6a 04 a7 be 22 ce 78 be
       0.031294256 0.18482436 -0.32620555 -0.24297383
000160 d9 b9 2c be 0e 86 b0 be ab 98 a1 3e f8 d1 a0 be
       -0.1686777 -0.34477276 0.3156179 -0.31410193
000170 04 46 78 3e e8 c9 9a 3c 4d b8 97 be 8a 00 18 bc
       0.24245459 0.018895105 -0.29632798 -0.009277472
000180 08 84 15 bf e0 69 70 3d a3 9a 4b be 20 82 24 be
       -0.5840459 0.05869472 -0.19883208 -0.16065264

fc3.bias f4 [10]
000000 be 30 83 3e e6 1b a4 be 2f 70 02 be 30 85 68 bd
       0.25623125 -0.32052535 -0.12738107 -0.056767642
000010 aa 29 3a be 29 49 1e be 2e 18 93 bc 19 2e a4 be
       -0.18179956 -0.15457596 -0.017955866 -0.3206642
000020 c3 ca 09 bc db 40 ef 3f
       -0.008410159 1.8691667

fc4.weight f4 [3, 10]
000000 05 e2 48 be d4 5f 59 be 9a ac 49 3e 80 a1 59 3e
       -0.1961747 -0.21227962 0.19694749 0.21253014
000010 34 bb 28 3f b4 a2 37 be 63 d5 75 3d 1c 0e 71 3e
       0.6591065 -0.1793316 0.060017955 0.23540539
000020 81 48 44 3e 13 78 34 bf 38 01 92 bd 10 20 4f bd
       0.19168283 -0.7049572 -0.07129139 -0.050567687
000030 1d f5 5d bd db 99 cf 3d 5d 1f 33 3f 2c a7 8e 3e
       -0.054188836 0.101367675 0.6996973 0.27861917
000040 4d 15 ad 3e 5c 4f 6f 3e 9a 86 47 3e 24 6b 3a bf
       0.33805314 0.23370117 0.1948494 -0.72819734
000050 f0 dc 74 be 6e e3 dc 3d 85 e4 ca 3d 54 12 cf bd
       -0.23912406 0.10785566 0.09906868 -0.10110918
000060 91 87 26 3f 38 87 91 3e af c7 b1 3e a0 3b 71 3e
       0.6505061 0.28423476 0.3472266 0.23557901
000070 ff 71 14 be a6 67 32 bf
       -0.14496611 -0.69689405

fc4.bias f4 [3]
000000 d7 77 37 3f 3b c6 39 3f d8 a5 36 3f
       0.71667236 0.725681 0.7134681
