Bachelor/Fit tasks/lightning_logs/version_32/checkpoints/epoch=49-step=3050.ckpt (torch, 221147 bytes, 4 tensors)

fc1.weight f4 [40, 1350]
00000000: 3fb8 a43b 2abf 773c 08a5 c7bc 3da0 c93c
00000010: 8a3d 20bc 2a60 e8bb e738 ad3c 8c39 83bc
00000020: 2fdb 8dbb a93b 883c e4cd 0f3c 3396 ae3c
00000030: 9110 ec3c 15be babb d551 a3bc b8ff c13c
00000040: 8fb6 0d3b 6711 36bc 6f62 003c af22 c33c
00000050: 4e95 a63c 1a87 413b 546d 073c fc58 8f3c
00000060: 0d75 283c ab96 713c d54a 053c 3516 a2ba
00000070: 2144 d03c 72bc 9bbc ce85 c33c 8435 a13b
00000080: 8eab b93c f9e0 d73b 142b 0bbc 9ad6 d33c
00000090: 4717 e43c 9fbf 9f3c fb0b 68bb 9a1a 1b3b
000000a0: 0749 49bc a640 7d3b fda6 db3c 5a99 13bc
000000b0: dd96 953c 7ee4 8e3c 98a7 8cbc b2a3 a3bc
000000c0: 214f 90bc 03f5 8f3b 085f 2e3c 8eed 9b3b
000000d0: d6a4 23bc b735 a2bc 9952 6bb9 2fb5 3ebc
000000e0: a50d 1d3c 75a0 b53c 4fb5 d93c 766c f33c
000000f0: d108 a4bc 0797 c43c dfe9 863a 66be b7bc
00000100: 8127 643c 4874 b8bb 5bdc 9e3c 5a19 213c
00000110: ab99 80bc 3a5e 8e3a f668 f5bb 22f3 90bb
00000120: 7b6b 4abc 3420 b03c 79a2 5e3c 61d0 f63b
00000130: bead a0bb de3f 97bc 7997 b0bc 28b4 903c
00000140: f713 5e3c 106d 6e3c 61d8 92bc 2d22 e03c
00000150: d692 43bc 0155 a13c 3e6c 0bbc a36c 703c
00000160: 46b2 1ebb 4de7 f3bb 4cb1 ab3c 2116 92bc
00000170: 4067 adbc 7782 3b3c 03e6 843c 992e 003c
00000180: 7a3a f13b 7bb6 7dbc 78ca 90bc ee74 b33c
00000190: 108b 063c 1151 38bc 2868 e83c 3e7f 55bc
000001a0: 8f59 94bc 2f56 ed3c 8a99 2d3c 7fa6 c0bb
000001b0: ddda 273c 65cd 663c 5f97 933c df70 ce3c
000001c0: 0bb8 8bbc 4ff7 a93c 21f5 a23c 7e33 6bbb
000001d0: 33a8 8abc 1dfd 73bc 5f36 8339 6032 bbbc
000001e0: 8d0e e13c 70ea 493c 1538 2bbc 5aaa 8c3b
000001f0: 2e39 383c c17c 80bc 58e9 dabb 1732 a43c
00000200: 0d34 e13c c2b7 82bc a511 febb 2eda b0bc
00000210: 10a9 0b3b a8cb 9a3c aceb 153c 3ef7 033c
00000220: c2cb 20bc 858d 3abc 5505 c1bc 3901 353c
00000230: 381f 55bc 75a4 943c 69ef 7e3c 2373 d63b
00000240: 72f6 3a3c 1a0b 453c f486 2b3c cca7 903c
00000250: ccfb 993b 80ba 9e3c 47cb fe3b 851c a5bc
00000260: 7b85 4dbc 734a a63c cc7e cabb 59e0 e73b
00000270: dcce bfbc e450 a33c 45a2 9ebb 9342 c5bc
00000280: 22ad 9ebb 0ae7 843c 86cf babb 43ce 833c
00000290: f125 de3c 50ed 15bb 3c29 bbbc 962f 7e3c
000002a0: efe4 643c a3f8 a73b 57e8 8dbc 2734 cabb
000002b0: 53b6 a2bc 963e 9abc 5122 be3c ccfd 7b3c
000002c0: 2124 ea3c a17e 6abb 5d42 d8bb f7cf 983b
000002d0: 67af 083c 30b7 8ebc f56f 3f3c 3ea6 9c3c
000002e0: 5b51 f13c 1e75 a23c 33d7 c6bc 05c5 e33c
000002f0: dfe0 a8ba 5aed 2f3c 62f7 763a 5cb8 4bbc
00000300: 300f 78bc 18c9 babb b655 edba 756c a4bc
00000310: 3d05 b53c ac77 7dbc 43e4 963b b384 12bc
00000320: e957 2bbb 1aa1 ecbb 9bf6 50bc dfdf 92bc
00000330: 9f7f bdbc b9ee d5bb 328d 8cbb f55a d93c
00000340: 50d9 5dbc 5fdf d9bb 15b4 833c 006d 26bc
00000350: 4b97 b33c 9950 c8bc a6d6 30bc c41f 20bc
00000360: 894c e43c 8b9c a2bc dbcd a3bc b32e 86bb
00000370: 03f0 be3c ba9a 2fbc 1639 a83c 596e 6ebb
00000380: ff3d 05bc 4c9d c5bb d5ee fbbb ff45 aabc
00000390: 1615 9f3c f678 1d3c 2551 3bbb 8776 06bc
000003a0: 54ad 893c 535c 50bb ae19 a33b 064f 93bb
000003b0: 92fb 59bc f14f 823c a1ec 893c 1fa0 a33a
000003c0: 31e6 a03c 5b38 91bc 1f36 77bc 0445 163c
000003d0: 03da 593c 33e4 6fbc 2637 5abc 989c 523c
000003e0: 8d05 9fbc 59a5 28bc 42e6 523c df14 a83c
000003f0: 1c28 983c ae80 62bb dc26 52bb 0fbf 80bb
0.0050268467 0.015121261 -0.024370685 0.02461254 -0.009780297 -0.007091542 0.021145297 -0.016018651
-0.0043291072 0.01663001 0.0087771155 0.021311855 0.028816493 -0.005698929 -0.019936481 0.023681507
0.0021623706 -0.0111125475 0.007835968 0.02382025 0.020334866 0.002952999 0.008265812 0.017498486
0.010281813 0.014745395 0.008135517 -0.0012366237 0.025423111 -0.019010756 0.023867514 0.0049197096
0.022664811 0.006588098 -0.008494157 0.025859166 0.02784313 0.019500552 -0.0035407532 0.0023666979
-0.0122854775 0.003864327 0.026813025 -0.00900873 0.018260414 0.017442938 -0.017169759 -0.019975517
-0.017615857 0.0043932213 0.010642774 0.0047585433 -0.00998803 -0.019801004 -0.00022442116 -0.011639877
0.009585773 0.022171238 0.026575712 0.029714804 -0.020023735 0.023997797 0.0010293088 -0.022429656
0.013925434 -0.005629096 0.019392183 0.009832704 -0.015698275 0.0010861822 -0.007489319 -0.004423515
-0.012354727 0.02149973 0.013588541 0.007532165 -0.004903524 -0.018463071 -0.021556603 0.01766403
0.013554565 0.01455237 -0.017925443 0.027360046 -0.011936864 0.019693853 -0.008509694 0.0146743385
-0.0024215146 -0.0074433447 0.020958565 -0.017832818 -0.021167397 0.011444679 0.01622296 0.00782361
0.0073617073 -0.015485401 -0.01767467 0.021906342 0.008211866 -0.0112497965 0.028369978 -0.013030825
-0.018109111 0.02897176 0.010595689 -0.005879223 0.010245052 0.014087056 0.018016515 0.025200306
-0.017055532 0.020747809 0.019892277 -0.0035888846 -0.016925907 -0.01489189 0.00025026777 -0.02285117
0.027472759 0.012323961 -0.010450383 0.0042927684 0.011244101 -0.015684487 -0.006680649 0.020043416
0.02749064 -0.015956763 -0.0077535682 -0.021588411 0.0021310486 0.018895939 0.009150427 0.008054553
-0.009814205 -0.01138628 -0.023562113 0.011047655 -0.013007931 0.018144825 0.0155600095 0.006544487
0.011411296 0.012026573 0.010469187 0.017658137 0.004699206 0.01937604 0.0077756974 -0.0201552
-0.012544031 0.020299172 -0.006179666 0.007076305 -0.023414068 0.019936033 -0.0048411214 -0.024079597
-0.0048424164 0.01622345 -0.0057010083 0.016089564 0.027117701 -0.0022877045 -0.02284681 0.015514275
0.013970598 0.0051260754 -0.017322702 -0.006170768 -0.01986233 -0.018828671 0.023209723 0.015380334
0.02858168 -0.0035781043 -0.006599708 0.004663463 0.0083426 -0.017421335 0.0116844075 0.01912224
0.029457739 0.019831236 -0.024272537 0.027803907 -0.00128844 0.010737741 0.0009421018 -0.012434091
-0.01514034 -0.005700242 -0.0018107209 -0.020071248 0.022097224 -0.0154704265 0.0046048476 -0.008942771
-0.0026144928 -0.0072213532 -0.012754108 -0.017929016 -0.023132144 -0.006528702 -0.0042892927 0.02653263
-0.013540581 -0.0066489424 0.01607708 -0.010157824 0.021922728 -0.024452494 -0.010793364 -0.0097731985
0.027868526 -0.019850036 -0.01999562 -0.0040949224 0.023307806 -0.010718042 0.020535033 -0.003638169
-0.008132457 -0.006030714 -0.007688383 -0.02078533 0.019419234 0.009611359 -0.0028582301 -0.00820697
0.016806282 -0.003179331 0.0049774265 -0.0044955043 -0.013304608 0.01590726 0.016836466 0.0012483633
0.019641014 -0.017727068 -0.015088587 0.009171728 0.013296607 -0.014641809 -0.0133188125 0.012854718
-0.019411827 -0.010293328 0.012872281 0.020517765 0.018573813 -0.0034561562 -0.003206662 -0.003929026

fc1.bias f4 [40]
00000000: b585 7d3c f579 b5bb f656 c03c 6229 d3bd
00000010: f1f4 a93a a7d8 90bd 8122 35bc 3bef df3c
00000020: ad20 f1bc c26b a1bd 4d64 fdbd 8aa4 73bc
00000030: f973 953c 6470 063d d593 a3ba 7809 84bc
00000040: 9a09 033c a1ff a0bd b3bf 4bbc 318b 94bd
00000050: fd14 29bd c5f5 493c 83ec 3bbc 9c4e 86bb
00000060: f966 ec3c efea 8f3b 79f0 593c 0268 063c
00000070: 1b8c 1e3c 2a87 313d fd84 9b3b 85fa 82bd
00000080: 7bef 7cbc f94b 52bd 1f32 fb3b a719 48bb
00000090: ff74 cabb 28bb 28bc bc73 563c 1771 e63c
0.015473773 -0.00553822 0.023478966 -0.103106275 0.0012966675 -0.07072573 -0.01105559 0.027335754
-0.029434526 -0.07881881 -0.123726465 -0.014870772 0.018243777 0.032822028 -0.001247997 -0.016117796
0.007997895 -0.07861257 -0.012435841 -0.07253111 -0.04127978 0.012326662 -0.011469963 -0.0040987264
0.028857695 0.00439202 0.013301962 0.008203508 0.009676958 0.043341793 0.004746078 -0.06395439
-0.015437956 -0.051341984 0.007665887 -0.0030532868 -0.006178498 -0.010298528 0.013089117 0.028130097

fc2.weight f4 [3, 40]
00000000: 268c abbd e5c6 0e3d 19b5 3abd 9375 35be
00000010: 2a63 153e 9c8e 3dbe 7bfa 0e3d 89d2 b73d
00000020: a47f dbbc 57ee 4abd db64 69be c666 c73d
00000030: 1e36 eb3d 7c5d a53d 8c50 113e 7263 4ebd
00000040: 43f1 aabd e288 42be dfb3 0e3d c226 a1bd
00000050: addd 22be 8fe8 d7bb 903b dbbd 3607 df3d
00000060: d769 bd3d 770b f73c ee86 c03c 0ac1 203e
00000070: 5e75 4ebe a319 4d3e a4f2 eabd 9117 a2bc
00000080: 1491 d23d 51de 323d 4201 6abd e5c4 0ebe
00000090: f9cd e53d 6099 f63d b9ef 2c3e c3b1 6b3d
000000a0: 8ba0 f83d 7de0 cfbd 5a9a 113e 17d0 58be
000000b0: e6f8 99bd 9e92 30be d334 58bc cb4b 323e
000000c0: 8126 59bd c367 54be 9f6f 3ebe bfd1 993d
000000d0: fb65 ce3d d21a c63c 7e1f b0bd c8c9 e33d
000000e0: 3f5e ff3d a4ee 8ebd 4dbb 15bd e983 d1bd
000000f0: 6e93 52bd e943 8abd 0e14 633a c719 1b3e
00000100: 105a 8a3c cea7 eb3b 934a 96bd 51b1 80bd
00000110: 6727 cabd 792c 3f3e a573 b13c e0c2 f4bd
00000120: c5f0 c9bd 3996 39be 3ff5 d0bd 3738 583d
00000130: f963 0b3e 6cab aa3d b89c e63d cafb cd3d
00000140: e5a7 3cbe adba 243e c2a7 96bd 5248 55be
00000150: 46f6 09be 9f2a 823d dc36 ca3d 3236 b03c
00000160: 7bef 273c 608d 43be 23a6 3b3d d7eb 053d
00000170: 5ec2 00bd 7a93 163e 4e6c 31bd ce2d 53bd
00000180: 9c03 ce3d efef 1fbe b0d4 f23d 9c8e b5bd
00000190: 0a23 ac3c 51d1 323e e77c fbbd 4e3b 7a3d
000001a0: 70ba ea3d 94be b9bd 7086 20be 6cf2 b5bd
000001b0: 3b34 2abd 1470 8b3e 3ef6 87bd 65ea 03be
000001c0: 2176 17be 58cc 3dbe 9ad1 153e 89d8 40be
000001d0: fd82 203e 07cd bd3b 6f3a 013d eca6 2bbd
-0.083763406 0.03485765 -0.045582864 -0.17720632 0.1458861 -0.18511432 0.034906846 0.08975703
-0.026794262 -0.049543705 -0.2279238 0.09736399 0.114849314 0.08074471 0.14190882 -0.050387807
-0.08346798 -0.18997529 0.034839507 -0.078687206 -0.15904875 -0.0065890024 -0.1070472 0.10890047
0.09248703 0.030156834 0.02350184 0.15698639 -0.2016196 0.20029311 -0.11472061 -0.019786628
0.10281578 0.04366905 -0.057130106 -0.13942297 0.11220927 0.12040973 0.16888322 0.057542574
0.12139996 -0.101502396 0.14219037 -0.2117313 -0.07518177 -0.1724343 -0.013196188 0.17411725
-0.053015236 -0.20742707 -0.18597268 0.07510709 0.10078045 0.02418271 -0.08599757 0.11122471
0.12469148 -0.06979111 -0.036555577 -0.10230238 -0.05141013 -0.06751234 0.0008662351 0.15146552
0.016888648 0.0071916347 -0.07338443 -0.062838204 -0.09870797 0.18669309 0.021661589 -0.11951232
-0.09860376 -0.18123712 -0.10203027 0.052787986 0.13612355 0.083334774 0.112603605 0.100577906
-0.18423422 0.16086836 -0.07356216 -0.2082837 -0.13472852 0.063557856 0.09873745 0.021510217
0.010249968 -0.19096899 0.045812737 0.032695618 -0.031435363 0.14704695 -0.043316178 -0.051557355
0.10059282 -0.15618871 0.11856973 -0.08865091 0.021012802 0.1746266 -0.122796826 0.061091714
0.114613414 -0.09069553 -0.15676284 -0.08884129 -0.041553717 0.27233946 -0.06638764 -0.12882383
-0.14791156 -0.18534982 0.14630738 -0.18832602 0.15674968 0.0057922634 0.031549867 -0.041907236

fc2.bias f4 [3]
00000000: d7c5 4b3e c811 c6bb 69ff 833d
0.19899689 -0.0060446 0.064452
