Bachelor/Fit tasks/lightning_logs/version_47/checkpoints/epoch=49-step=3050.ckpt (torch, 114963 bytes, 6 tensors)

fc1.weight f4 [20, 1350]
000000 8d 83 17 3a 57 84 3f bc 21 48 58 bb a7 23 8e bc
       0.00057797955 -0.011689267 -0.0033001977 -0.017350985
000010 80 f6 53 3c 2b 05 9b 3c 8c b8 1d bc a7 ef b8 38
       0.012937188 0.018923363 -0.009626519 8.8184424e-05
000020 a8 62 4b bb 84 ce 04 3c 59 17 85 bc b4 49 b8 3b
       -0.0031034146 0.008105878 -0.016246485 0.0056240205
000030 cc cc 97 3c 0c a3 93 bc a8 9d cb 3c 01 32 23 3c
       0.018530272 -0.018022083 0.02485545 0.009960652
000040 cb f3 9a 3a 46 9b a6 3c 50 05 84 3c 90 30 a4 3c
       0.0011821924 0.020337712 0.016115814 0.020042688
000050 7d ff 36 ba 9e dd ab 3c 38 b7 56 bc 13 b7 09 3c
       -0.000698082 0.020979699 -0.013105206 0.008405465
000060 3e 6b 58 3c da 00 3a 39 21 03 49 3b f9 0c bd bc
       0.013209162 0.0001773866 0.003067203 -0.023077475
000070 79 f9 04 3c 17 aa 67 bc 9c 9c e4 3b 2f 28 bd 3b
       0.00811612 -0.014139674 0.006976677 0.0057726125
000080 56 07 89 bc 0c 4c 47 3c 1b f0 84 3c e5 e7 ca 3c
       -0.01672713 0.012164127 0.016227772 0.024768779
000090 2b 8f 92 bb ec 7b 8c bc 00 52 a0 bc ac 8d 9a bc
       -0.0044726334 -0.017148934 -0.01957035 -0.018866383
0000a0 d3 32 c1 3c f2 fe b7 3c 80 0b d5 bc ac e5 a0 3c
       0.023583805 0.022460435 -0.02600646 0.019640766
0000b0 b0 34 af 3c d6 f5 c4 bc 68 51 c9 3c 19 d5 e2 bb
       0.021387428 -0.024043005 0.02457495 -0.006922376
0000c0 f6 65 9f bb 00 bd 9c bc f0 43 d4 3b ff 79 17 bb
       -0.0048644496 -0.019133091 0.0064778253 -0.0023113487
0000d0 c7 7c b2 bc 1e 34 95 bc 02 64 61 bc 4a e0 bc bc
       -0.021788014 -0.018213328 -0.013756754 -0.023056168
0000e0 c8 21 7e 3c 9e 65 93 3c 72 30 8f 3c 3f 2b af 3c
       0.015510984 0.01799279 0.017479155 0.021382926
0000f0 00 bd 12 3c cc e0 ce bc 92 5b c3 bc f1 ee 03 3b
       0.008956194 -0.025253676 -0.023847375 0.0020131434
000100 84 69 26 bc 25 8d c4 3b b1 2c 90 bc 9b 6c 08 bc
       -0.010156993 0.005998271 -0.017599436 -0.008326675
000110 56 7a b6 3c f9 78 d0 3c 21 0d 73 3b 1b bd d4 3c
       0.022275131 0.02544831 0.0037086683 0.025969079
000120 54 23 a7 bc 03 32 a9 bc 03 bb 7b bc ae 88 81 bc
       -0.020402588 -0.02065373 -0.015364411 -0.015812244
000130 9a 9a c3 b7 2b e1 66 bc ed 8e cd 3b be 7f 4a 3c
       -2.3317803e-05 -0.01409177 0.0062731416 0.012359558
000140 50 1d 22 bc 7d 60 50 3b 29 24 4e bc 04 65 55 bb
       -0.009894684 0.0031795793 -0.012581863 -0.003256143
000150 67 26 21 3c 77 fd 22 3c 18 82 0b 3c 9e c4 63 3c
       0.009835816 0.009948126 0.0085149035 0.013901858
000160 ea e3 9a ba 78 4c e6 39 3f 44 f2 bb c1 32 d9 3b
       -0.0011817191 0.00043925992 -0.0073933895 0.006628365
000170 86 3f 6c ba db 7c 74 bc 3c 16 58 bc 1c 5d ae bc
       -0.0009012151 -0.014922346 -0.013188895 -0.021284632
000180 d9 1e 1f 3c 85 a3 3d bc 96 c6 fc 3b 3c 0c 93 3c
       0.0097119445 -0.011574631 0.007714103 0.01795017
000190 15 45 e4 bc ce 83 94 3c 42 91 0a 3a f7 3f c0 bc
       -0.027864972 0.018129256 0.00052859273 -0.023468
0001a0 10 bc c7 bc bc f5 13 3c 3c a3 c0 3c ae c9 9e bc
       -0.024381667 0.009030756 0.023515336 -0.019383278
0001b0 60 b9 f9 bb 61 4f 9a 3c 50 e1 b3 bc 3f a6 46 3c
       -0.0076209754 0.018836679 -0.021958023 0.012124597
0001c0 e1 03 36 3c 56 f0 45 bc 34 f8 0a bb 21 d3 90 3c
       0.011109323 -0.012081226 -0.002120507 0.0176788
0001d0 f9 21 1f bc b4 19 8c 3b f6 0c 9a 3c 0b 75 9e bb
       -0.00971269 0.004275525 0.018805008 -0.00483573
0001e0 5c 47 96 3c 75 27 4d 3c b6 84 b3 b9 61 11 0f bb
       0.018344574 0.012521614 -0.00034240418 -0.0021830427
0001f0 4b 9e d7 bc c0 1a a5 3c d9 07 80 3c c8 df 88 3c
       -0.026320597 0.020154357 0.015628742 0.01670827
000200 18 2a 24 3b ec 61 73 3c ae 90 25 ba a0 ae b3 bc
       0.0025049504 0.014854889 -0.00063158094 -0.021933854
000210 4b 81 e0 bc 02 1e a3 3c 56 42 98 bc 1b f3 24 3b
       -0.027405402 0.01991177 -0.018586319 0.0025169316
000220 54 61 ad bc 8a b7 78 3b 37 f0 e8 bb 41 cb da bb
       -0.021164574 0.0037951195 -0.007108714 -0.006677062
000230 6a f7 97 3c 64 5a a4 3b 8a ab 98 bc 37 ac b9 bc
       0.018550593 0.005015658 -0.018636484 -0.022665126
000240 96 54 68 3b f6 a1 1b 3c 50 a9 35 3b b0 2c 60 bc
       0.0035450808 0.009499064 0.0027719326 -0.013682529
000250 69 1f a2 bc b6 35 e3 bc bd 81 d8 3b f0 e2 7c bc
       -0.019790368 -0.027735572 0.006607263 -0.0154349655
000260 9f 0e 55 bc 5a 58 5a 3c 33 cb b8 3c e3 c0 d9 bc
       -0.013003974 0.013326729 0.02255783 -0.026581233
000270 6b a5 c2 bb 25 0b 78 3c bf a7 b4 bb fe 7c da 3b
       -0.0059401295 0.015139376 -0.005513161 0.0066677323
000280 bd 61 3e bc 40 d9 c7 3c 55 8f d8 3c 6f c5 a6 3c
       -0.011619982 0.024395585 0.026435534 0.020357816
000290 d2 d7 5b 3b cd e0 78 ba 17 00 29 bb 22 ee 8f 3c
       0.0033545387 -0.0009493947 -0.0025787407 0.017569605
0002a0 67 c7 7b 3c f6 43 a7 3c fd 1a 75 bc 0c b5 34 bc
       0.015367365 0.020418148 -0.014960048 -0.011029493
0002b0 7e 97 0f bc 78 78 45 3c be b7 00 3c 54 f7 d3 bc
       -0.008764146 0.012052648 0.007856308 -0.025874771
0002c0 97 38 e9 bb 3f 4b a3 bc 7e f8 ae 3c 8e 14 69 bc
       -0.0071173417 -0.019933341 0.021358725 -0.014226092
0002d0 ca 3c cf 3c 6d 15 2c bc d5 d1 33 3c ac f9 81 bc
       0.025297541 -0.010503155 0.010975321 -0.015866123
0002e0 16 db 4e ba b8 1a d0 bc c2 71 d1 3b 09 96 aa 3c
       -0.0007890923 -0.025403365 0.006391735 0.020823495
0002f0 cd 32 54 bb 81 2b ba bc e9 3b 02 bc 88 ba 9e 3b
       -0.0032378912 -0.022725822 -0.007948854 0.0048440136
000300 c1 21 cd bc 94 e4 97 3b 4f 93 25 bc 99 ce 04 3c
       -0.02504051 0.004635403 -0.010105922 0.008105897
000310 b6 3b ad 3c d9 8a 66 bc 2e bb 93 bc f9 35 1f bc
       0.021146636 -0.01407119 -0.01803359 -0.009717458
000320 28 9f a8 3c 8f 92 d0 3c ef 68 e5 3b 94 2f b1 3c
       0.020583704 0.02546051 0.0070010344 0.021629132
000330 f9 ef 3a 3c be 83 41 bc 17 25 a5 3c 72 7a bd bc
       0.011409753 -0.011811195 0.020159287 -0.023129676
000340 0c 93 ca 39 91 07 d6 bc e4 cc ab 3c 87 60 1c ba
       0.00038638 -0.026126655 0.020971723 -0.00059653114
000350 ca 73 b6 3c 1f 41 8e 3c e2 11 9a 3c ec d7 92 bb
       0.02227201 0.017365037 0.018807355 -0.0044813063
000360 3f 9a 98 3c 8f d7 e7 3b 52 ee b7 3c 51 02 60 3c
       0.018628238 0.007075257 0.022452507 0.013672427
000370 13 c3 69 bc 9e 49 8c bc e1 8a 83 bb 15 97 c5 3c
       -0.014267701 -0.017124947 -0.0040143584 0.024119893
000380 91 43 5e bb a2 ae 6d 3c d0 ac 4c bc a1 3d d8 bb
       -0.0033914784 0.014506968 -0.012492374 -0.0065991436
000390 1a 6d e0 bc 78 8b be 3c f8 56 5a bc 60 dd a6 3c
       -0.027395774 0.023259863 -0.013326399 0.020369232
0003a0 9c 7c 30 3c 18 11 d4 bc a5 8a b0 3c 12 14 cd ba
       0.010771897 -0.025887057 0.021550486 -0.001564624
0003b0 b5 9b 84 3c 7a bc 38 3c 0f 6f aa 3b 51 94 2d bc
       0.016187528 0.011275405 0.0052012275 -0.010594443
0003c0 da ae 95 bc f4 43 94 3c d8 f5 94 3c f6 d9 89 bc
       -0.018271852 0.018098809 0.018183634 -0.016827565
0003d0 17 f9 db bc ba e9 52 bc f6 59 b6 3b ef bf be 3c
       -0.026852174 -0.012873108 0.0055649234 0.02328488
0003e0 c0 56 c9 bc d7 ff 4c 3c 2f bd 00 3c 57 18 39 bb
       -0.024577498 0.012512169 0.007857605 -0.0028243267
0003f0 78 1c 74 bc a5 07 a4 3b 88 a1 c2 3c c7 c9 b4 bc
       -0.014899366 0.005005794 0.023758665 -0.022068871

fc1.bias f4 [20]
000000 54 ca d5 bc 99 a3 e1 3b 1d 46 08 3d d1 07 d9 3c
       -0.026097454 0.0068859574 0.03326999 0.026492985
000010 f0 78 ca 3c 5e c5 71 bd 75 7d f9 3d 94 ae 19 bc
       0.02471587 -0.059026115 0.12182132 -0.009380002
000020 68 a1 a7 bb ef 4e 91 bd 02 55 e6 3b 3a 09 d5 ba
       -0.0051156767 -0.070951335 0.0070291767 -0.001625336
000030 55 f5 32 bc 16 8f 9f 3d 92 39 7d bd 07 0b 82 bc
       -0.0109227495 0.07790963 -0.06182248 -0.015874399
000040 7b 86 0d 3d 12 c7 5a bd 51 b0 51 3c 81 03 1f bd
       0.03455208 -0.053412504 0.012798385 -0.0388217

fc2.weight f4 [20, 20]
000000 4e b3 0b be e4 42 81 3d 64 e1 48 3e 74 3e 31 bd
       -0.13642618 0.063115865 0.1961723 -0.04327245
000010 aa ed f6 3d 40 8c 43 3e 02 cd a6 be a8 89 69 be
       0.120570496 0.1909647 -0.32578284 -0.22806418
000020 d5 8e 81 3e 22 20 27 3d 73 ce ec 3d 6f 2d 83 bc
       0.25304285 0.04080213 0.115628146 -0.016012875
000030 8f e3 92 be 0c 46 66 3d 59 b1 77 3e 21 70 6b be
       -0.28689238 0.056219146 0.24188747 -0.22991993
000040 10 97 1a 3c f2 41 6d 3e c5 cb de 3d a1 60 48 3e
       0.00943543 0.23169687 0.1087871 0.19568111
000050 36 37 85 be 68 1d 4c 3d 74 29 30 3e c6 19 3b 3e
       -0.26018685 0.04983273 0.17203313 0.1827155
000060 74 88 e1 3d 58 f1 fa bd 17 be 32 be 29 a7 29 be
       0.110123545 -0.12253064 -0.17455326 -0.16567673
000070 6d 58 b7 3d 88 c8 ad 3c 00 79 ae 3d 2b 2d 20 be
       0.08952413 0.021213785 0.08519173 -0.1564223
000080 36 f5 7c be c7 1a 34 3d 6e 37 c0 bd 63 c4 61 be
       -0.24702916 0.04397085 -0.093855724 -0.22047572
000090 f3 19 88 be fd 7e 18 3c c9 b9 83 3e 68 50 11 bc
       -0.26582298 0.00930762 0.2572768 -0.008869268
0000a0 ee 87 aa be 53 54 37 3c 47 7e 81 3e 4d 4d 52 3d
       -0.3330683 0.011189538 0.25291654 0.05134325
0000b0 34 41 d9 3d 05 39 cb 3e de 58 ca be 62 7f bb be
       0.1060814 0.3969194 -0.39520925 -0.36620623
0000c0 00 4f 29 3d 2b 26 28 3e 9f 94 dc bd 77 c4 37 3e
       0.041335106 0.1642081 -0.10770535 0.17946039
0000d0 17 df 85 be 6f 11 c2 be 22 2d cc 3e 6f 1c d1 bd
       -0.26146767 -0.37903926 0.39878184 -0.102105014
0000e0 c6 15 b2 be a8 d2 8b 3c 05 25 a0 3e e1 3b 30 3e
       -0.34782237 0.017068222 0.31278244 0.17210342
0000f0 9c 93 7e 3d f2 73 14 bc cd 4c 51 be fe 0e 83 bd
       0.06215249 -0.009060847 -0.20439453 -0.06399344
000100 35 7d 23 be 9c d0 8b bd 62 ee 99 3e 71 db bf 3e
       -0.15965731 -0.068268985 0.30064684 0.37472108
000110 6e c4 f9 bd 05 51 af be 26 be 80 3e fc 71 8c be
       -0.12195669 -0.342415 0.25145072 -0.27430713
000120 3e 04 5a 3e f8 6a f8 3c ad c1 dd bd bc 5b 4a 3d
       0.21290681 0.030324444 -0.10827956 0.04940389
000130 cc 8c f4 3d 8f f7 8a be c8 f0 4e bd e7 2e 47 be
       0.119409174 -0.27141997 -0.050522596 -0.19451486
000140 d7 c6 e3 bc a8 7b 45 3e e6 86 e0 bd 7f 4e 94 bd
       -0.027804775 0.19285452 -0.1096323 -0.072415344
000150 6f f1 ec bd ff f8 25 3e 5b 09 6a be a5 21 84 bc
       -0.11569487 0.16208266 -0.22855131 -0.016129324
000160 34 24 60 bc 95 c4 a6 3e b4 e5 42 be 89 57 03 3d
       -0.0136805065 0.32571855 -0.19032937 0.032065902
000170 a6 ca e7 bd e6 2a 90 be 71 ce 86 3e 81 3b aa be
       -0.11317949 -0.2815773 0.26329377 -0.33248523
000180 df 8d 78 be 27 f8 a8 3e ae 81 1b 3e ab e0 9b 3e
       -0.2427287 0.33001825 0.15186188 0.30444846
000190 d3 68 b6 3d d9 81 a3 be 7a 3e 1c be 68 b3 08 be
       0.089067124 -0.31935003 -0.15258208 -0.13349688
0001a0 81 ae 92 be a1 0e ca bd b1 88 00 3f 83 e2 6b 3d
       -0.2864876 -0.098660715 0.50208575 0.057589065
0001b0 12 a2 58 be 58 d5 54 be c8 74 ce 3e b2 31 b8 be
       -0.21155575 -0.20784509 0.40323472 -0.35975415
0001c0 f8 9a 33 3e 42 d4 83 3e b6 a1 07 be 59 60 b7 3e
       0.17539585 0.25747877 -0.13245282 0.35815695
0001d0 be 60 63 3e e4 26 a0 be e4 cd 36 be 8d 9b a1 be
       0.22204873 -0.3127967 -0.17851979 -0.31563988
0001e0 e6 63 45 3e 73 06 24 be 50 68 70 be 00 00 8e be
       0.1927639 -0.16018085 -0.23477292 -0.27734375
0001f0 e8 e9 99 bd 22 23 11 3e 92 15 dc bc 91 e9 84 3d
       -0.07515317 0.14173558 -0.026865754 0.06489862
000200 40 8b 7e bd 03 1f de 3d 0c 2a b2 3d c5 95 f3 bd
       -0.062144518 0.10845759 0.08699426 -0.11893801
000210 30 42 57 3e be 23 95 bc 38 52 a1 bc 2c 06 31 3e
       0.21021342 -0.01820552 -0.019692525 0.1728751
000220 f6 db 05 3d 1e c7 65 be 77 3b f8 3d 18 ee 32 be
       0.032680474 -0.22439238 0.12120717 -0.17473638
000230 a2 bc 71 3e 50 e2 fd bb f2 c6 8e bc 63 78 18 be
       0.23607114 -0.007747926 -0.017428849 -0.14889674
000240 d3 54 b7 bd 1f d6 57 be 38 04 f3 3e f8 94 95 3e
       -0.08951726 -0.21077774 0.47464156 0.29215217
000250 ff f7 76 be 8a 4f bb be fd 7e 6c 3e 0b e6 bc be
       -0.2411804 -0.3658412 0.23095317 -0.3689426
000260 29 1c 18 3e e1 f3 bc 3e c4 84 c9 be cb 27 3e 3e
       0.14854492 0.36904815 -0.39359105 0.18569867
000270 74 08 0b 3e 2e f2 91 be bb ca 6e bd 0f 3e d3 3c
       0.13577443 -0.2850508 -0.058298808 0.025786428
000280 ba 97 2d be 85 8d 11 be 89 12 e0 bc 85 98 88 bd
       -0.1695241 -0.14214142 -0.027352588 -0.06669716
000290 d9 08 25 3c 3a 6f 58 bd 3c a0 11 be 7c 6a 1e be
       0.01007291 -0.05284045 -0.14221281 -0.15470308
0002a0 ce 74 01 3e e7 7c 27 be 1b c7 06 be 6c 9a 5b 3d
       0.12642214 -0.1635624 -0.1316189 0.053614065
0002b0 16 4b 42 3e 32 78 fd bc f5 c5 09 3e db 2e a3 3c
       0.18973956 -0.030941103 0.13454421 0.019919803
0002c0 0a 22 51 3e ce 55 0d be a5 72 f5 bb 19 1f d5 3d
       0.20423141 -0.13802263 -0.0074904733 0.10406322
0002d0 95 78 02 3e cc 9b 5e be cd b8 6b 3d 3d 38 61 be
       0.12741311 -0.2173912 0.057549287 -0.2199411
0002e0 2f be b1 be 41 45 86 be d8 6c 66 3e db 2c 95 3e
       -0.3471541 -0.26224712 0.22502458 0.29135785
0002f0 bb bd e1 bd bf e3 03 3c 3c f2 bc 3e c2 3d ad bc
       -0.11022516 0.008049904 0.3690356 -0.021147612
000300 0b 79 7c 3e 53 e2 40 3e 05 c5 9c be 3b 5a ad 3e
       0.24655549 0.18836336 -0.30619064 0.33857903
000310 06 43 fc 3d 9b 62 b4 be fe 24 3f be 5e f3 b6 be
       0.12317471 -0.3523148 -0.18666455 -0.3573255
000320 e2 ba 9c 3d 37 e1 b4 bd c0 89 7a 3d 38 19 e2 3c
       0.076528326 -0.08832019 0.061166525 0.027599916
000330 e9 da 25 3e 3c 45 9e 3e b7 c4 66 be a2 df 0d be
       0.16196789 0.30912197 -0.22535978 -0.1385484
000340 34 c7 37 3d 66 85 7b 3e 7e 26 a6 3d 80 9d 83 3e
       0.04486771 0.24562606 0.081128106 0.257061
000350 c4 85 98 bd 77 03 85 be 0a 4b 4e 3e 39 08 e9 bd
       -0.07447389 -0.25979206 0.20145813 -0.113785215
000360 6e bb 7e be 4d 19 8b bc 9c 95 6b 3e 99 5b 3a 3e
       -0.24876186 -0.016979838 0.2300629 0.18199004
000370 d2 65 2a be 4f 50 40 3e 55 b3 db 3d ef bd 9e 3d
       -0.16640404 0.18780635 0.10727564 0.07751071
000380 22 34 84 3e b9 92 96 3d 1f ed 1e 3b 8b 21 26 bc
       0.25821024 0.07352204 0.0024250222 -0.010139833
000390 53 a6 d0 bd 66 15 0a bd b4 ef 52 be ce dd 42 bc
       -0.10187974 -0.033711813 -0.20599252 -0.011893703
0003a0 5c 56 bd bc 51 da 05 bd b7 74 df 3d 1e 0a 98 bd
       -0.023112468 -0.032678906 0.109109335 -0.07423805
0003b0 42 ad 45 be d0 64 91 3d 9a 79 a0 3d 38 f5 38 3e
       -0.19304374 0.070993066 0.07835694 0.18062294
0003c0 a0 87 27 3b 76 80 32 3e 68 2c 95 3b ad 4b 5f 3d
       0.0025563017 0.17431816 0.004552413 0.05451553
0003d0 fc 4d de bc 62 10 c7 3e 6a bd c1 be 83 c8 ac bd
       -0.027136795 0.38879687 -0.37839824 -0.08436682
0003e0 a4 c3 ac 3e 48 ff 4b 3e 01 01 b9 be 8a c1 93 3c
       0.33743012 0.19921601 -0.36133578 0.018036623
0003f0 86 7e e3 bd 26 5f ae be 41 56 aa 3e 8e 89 e0 bd
       -0.11108117 -0.34056967 0.33268932 -0.109637365

fc2.bias f4 [20]
000000 87 d7 e2 3d 11 7f 6b 3e 2b 44 26 3e e6 56 db bd
       0.11076265 0.2299769 0.16236942 -0.10709934
000010 ac d6 50 bc f8 93 bb 3d 1b 31 c0 bc 48 55 b1 bc
       -0.012746494 0.09159082 -0.023460915 -0.02164711
000020 91 30 3f 3e c7 8b 6d 3d fa e1 3c 3c db 52 2e 3e
       0.1867087 0.05799463 0.011528486 0.17023794
000030 9c af 5d bd 83 c4 6b be 4f 2d cd bc b0 03 d4 3d
       -0.054122552 -0.23024182 -0.025046019 0.10352266
000040 c9 2f 00 be 79 c9 32 3e 23 47 67 3e 3e d5 55 be
       -0.12518229 0.17459668 0.2258573 -0.20882127

fc3.weight f4 [3, 20]
000000 6b 31 82 be b5 f5 84 be 9e 4f 1b bf 84 c8 1b 3f
       -0.25428328 -0.2596871 -0.6066836 0.6085284
000010 9a 16 be be b4 18 5f 3f 79 76 ba 3d 9e 93 4a 3f
       -0.3712662 0.8714707 0.09104628 0.79131496
000020 3d 24 e6 3c ed 40 15 3f 65 9c d0 be 60 2d bc be
       0.028093452 0.58302194 -0.4074432 -0.36753368
000030 f1 e3 02 bf cd 06 61 3e d8 0a 9d be f2 b6 7a 3e
       -0.5112906 0.2197525 -0.30672336 0.2448385
000040 67 c7 18 bd 65 b0 90 3e 9a 70 1c 3f 60 a1 d4 3c
       -0.03729954 0.28259578 0.61109316 0.025955856
000050 a1 04 82 be 03 56 89 be 67 72 4f bf ca b7 4a 3e
       -0.25394157 -0.26823434 -0.8103394 0.19796672
000060 9d 15 71 be 78 24 1d 3f 1f 95 44 3e f7 30 19 3f
       -0.23543401 0.6138377 0.1919751 0.5984034
000070 79 5e cc 3d 03 2c 2e 3f 16 b0 0a bf 97 3a 85 be
       0.09978957 0.68035907 -0.54174936 -0.26021263
000080 10 5d 32 bf 06 3b ec 3e 37 20 ad be 61 a0 13 3e
       -0.6967325 0.4613878 -0.3381364 0.14416648
000090 70 50 12 3d c4 ef ee 3e 96 07 3d 3f 61 b4 0d 3e
       0.035721242 0.46667302 0.738397 0.1383834
0000a0 5e 12 0c bf 5d 56 13 be f6 66 38 bf a0 56 13 3f
       -0.54715526 -0.14388414 -0.72032106 0.57554054
0000b0 d5 27 20 bf 8b 7d 5c 3f 26 9e 96 3e 6e 29 12 3f
       -0.6256078 0.86129063 0.29417533 0.57094467
0000c0 fb c2 2f be a9 c7 1a 3f bc e5 37 be ba 13 e6 bd
       -0.17164223 0.6046091 -0.1795873 -0.11234231
0000d0 8d 1b 00 bf 38 2e e1 3d 66 33 1a bd 96 9d fb 3e
       -0.5004204 0.10995144 -0.037646674 0.49143666
0000e0 97 5a 0d be cc 55 b6 3e 73 15 16 3f c2 06 fc bd
       -0.13804089 0.35612333 0.5862648 -0.123059765

fc3.bias f4 [3]
000000 cc bd 0c be 9f 57 43 bc 29 21 b9 bd
       -0.13744277 -0.011922746 -0.09039528
