Bachelor/lightning_logs/version_11/checkpoints/epoch=49-step=2650.ckpt (torch, 58651 bytes, 4 tensors)

fc1.weight f4 [10, 1350]
0	0x3d97d914	0.07414451
1	0x3d9abc24	0.07555416
2	0x3d9a869e	0.075452074
3	0x3da55c0c	0.08074197
4	0x3dac97ec	0.08427414
5	0x3dd85f1c	0.10565016
6	0x3dbcca8a	0.09218319
7	0x3dd39a23	0.103321336
8	0x3dc90b46	0.09816603
9	0x3d70f1d1	0.058824364
10	0x3da43787	0.080184035
11	0x3d577541	0.052602056
12	0x3dc050a6	0.093903825
13	0x3d6171c9	0.055040155
14	0x3dd4a881	0.10383702
15	0x3d9aaa3d	0.075520016
16	0x3d7564e1	0.05991066
17	0x3dae2738	0.08503574
18	0x3d700d7f	0.05860662
19	0x3dbc45b7	0.091929846
20	0x3d9c5df9	0.07635111
21	0x3dc2e7df	0.09516882
22	0x3d70074c	0.05860071
23	0x3d508510	0.05090815
24	0x3d8d2e0d	0.06893549
25	0x3dbbb363	0.09165075
26	0x3dcf58d7	0.10124367
27	0x3d601c9e	0.05471479
28	0x3d724059	0.059143398
29	0x3d98338c	0.07431707
30	0x3dc3dd3e	0.09563683
31	0x3dce1a00	0.10063553
32	0x3d83dce2	0.064386144
33	0x3d8a827f	0.067631714
34	0x3da590fe	0.08084296
35	0x3d629404	0.05531694
36	0x3d594619	0.053045366
37	0x3d439c3f	0.04775643
38	0x3db188d3	0.08668675
39	0x3d7600c3	0.06005932
40	0x3d84b762	0.0648029
41	0x3d45c341	0.04828191
42	0x3d8fb5d4	0.07017103
43	0x3d430a8b	0.047617476
44	0x3d751120	0.059830785
45	0x3d46cce9	0.04853526
46	0x3da55658	0.080731094
47	0x3db2221f	0.08697914
48	0x3dbf1f8e	0.093321905
49	0x3d843705	0.06455807
50	0x3d75f03c	0.06004356
51	0x3d9e10b5	0.0771803
52	0x3d8e0185	0.069338836
53	0x3dc1c023	0.09460475
54	0x3d9c5f15	0.07635323
55	0x3da2ecb7	0.07955306
56	0x3d484576	0.048894368
57	0x3d8cb6b0	0.068707824
58	0x3da859cf	0.08220255
59	0x3d68459d	0.056707013
60	0x3db4f002	0.0883484
61	0x3d9717e8	0.07377607
62	0x3d76a951	0.060220066
63	0x3db7d5ab	0.08976301
64	0x3d52802f	0.051391777
65	0x3d9b2b4a	0.07576616
66	0x3d9a7643	0.07542088
67	0x3d8386da	0.06422205
68	0x3db05daa	0.08611615
69	0x3d85ea17	0.0653879
70	0x3d6bd4c2	0.05757595
71	0x3d789af5	0.060694654
72	0x3db3c299	0.08777351
73	0x3dbb6f5b	0.09152099
74	0x3dad6259	0.08466024
75	0x3dad68f9	0.084672876
76	0x3d7bc472	0.06146664
77	0x3da524d1	0.08063663
78	0x3d72fe56	0.059324585
79	0x3dac4635	0.084118284
80	0x3d46531b	0.0484191
81	0x3daa622f	0.08319508
82	0x3d6e515e	0.058183067
83	0x3d77be27	0.060484078
84	0x3d5edfa2	0.05441249
85	0x3d7d3934	0.06182213
86	0x3d943f06	0.07238583
87	0x3d60bd4e	0.054868035
88	0x3db8c3d0	0.09021723
89	0x3db29141	0.08719111
90	0x3da5dac9	0.080983706
91	0x3d75ee83	0.060041916
92	0x3d391c80	0.045193195
93	0x3d89043e	0.06690262
94	0x3d9523a4	0.072821885
95	0x3d71a497	0.058994856
96	0x3d3c3da5	0.045957226
97	0x3d7a7dee	0.061155252
98	0x3da236ab	0.07920583
99	0x3d8b50c0	0.06802511
100	0x3d8d98c2	0.06913902
101	0x3d989df4	0.07452002
102	0x3d6b1b14	0.05739887
103	0x3d34cf73	0.04414315
104	0x3d64a186	0.055818103
105	0x3d1f686b	0.03891794
106	0x3d395dfb	0.045255642
107	0x3d764f8c	0.060134456
108	0x3d6abead	0.05731075
109	0x3da5c1fc	0.0809364
110	0x3d5afe26	0.05346503
111	0x3d81dd6c	0.06341061
112	0x3d8c897b	0.0686216
113	0x3d8e4024	0.069458276
114	0x3d9180a1	0.07104612
115	0x3d3eedba	0.046613432
116	0x3d413881	0.047173027
117	0x3d6ab7c5	0.057304163
118	0x3d889150	0.06668341
119	0x3d805747	0.06266647
120	0x3d83d806	0.064376876
121	0x3d62f740	0.055411577
122	0x3da450e1	0.08023239
123	0x3d215a6a	0.039392866
124	0x3d7ce92d	0.06174581
125	0x3d9e2c64	0.077233106
126	0x3d85d397	0.06534498
127	0x3dac5efe	0.08416556
128	0x3d0cc1a2	0.03436435
129	0x3d83e5b5	0.064402975
130	0x3d14a2f3	0.036288213
131	0x3da0f3cd	0.07859001
132	0x3dab4252	0.08362259
133	0x3d2cc7c9	0.042182717
134	0x3d856033	0.06512489
135	0x3d32e8a4	0.043678895
136	0x3d828bd5	0.06374327
137	0x3d59d83b	0.05318473
138	0x3dafcbfd	0.085838296
139	0x3d9644b0	0.0733732
140	0x3dab5fc4	0.08367875
141	0x3d7f8eb8	0.062391967
142	0x3d94e548	0.072702944
143	0x3d7abf37	0.061217513
144	0x3d8fc9c3	0.07020905
145	0x3d8fe172	0.07025422
146	0x3d34ba48	0.044122964
147	0x3db01a39	0.085987516
148	0x3d93a6bd	0.07209537
149	0x3d93f092	0.072236195
150	0x3da2a6dc	0.07941982
151	0x3d8114d2	0.06302799
152	0x3d738914	0.0594569
153	0x3d834648	0.064098895
154	0x3d8d42e5	0.06897525
155	0x3d18db86	0.03731873
156	0x3d7df4c2	0.062000997
157	0x3d32c4f5	0.043644864
158	0x3d8cbe15	0.06872193
159	0x3d3b3884	0.045708194
160	0x3d791da2	0.060819276
161	0x3d9d7ade	0.07689451
162	0x3dac9913	0.08427634
163	0x3da480e0	0.080323935
164	0x3d130dbb	0.035901766
165	0x3d96efd3	0.073699616
166	0x3d98d88b	0.07463177
167	0x3d0cece0	0.03440559
168	0x3d6547ce	0.05597668
169	0x3d67754b	0.056508344
170	0x3db361e3	0.08758905
171	0x3da13c93	0.07872882
172	0x3d8b10cb	0.067903124
173	0x3da55bf0	0.08074176
174	0x3dae29eb	0.08504089
175	0x3d26d729	0.040732536
176	0x3d975cac	0.07390723
177	0x3d12db07	0.035853412
178	0x3db330fe	0.08749579
179	0x3d2b294e	0.041787438
180	0x3d602e5b	0.054731708
181	0x3d2aed29	0.04173008
182	0x3d5fbe22	0.054624684
183	0x3d56bf79	0.052428696
184	0x3d81b523	0.06333377
185	0x3d8053c5	0.06265978
186	0x3da93c4c	0.08263454
187	0x3d15ab48	0.0365403
188	0x3d2d6e22	0.04234136
189	0x3d185f98	0.03720054
190	0x3db27783	0.08714201
191	0x3d289ece	0.041167073
192	0x3d9fde90	0.07806122
193	0x3d66c755	0.05634244
194	0x3d7f6102	0.062348373
195	0x3d36e6db	0.044653755
196	0x3d31fb76	0.043452702
197	0x3d68bfab	0.056823414
198	0x3d1e56da	0.038657047
199	0x3d831766	0.06400947
200	0x3d5506a7	0.052008297
201	0x3d66ebc4	0.056377187
202	0x3da24d97	0.07924955
203	0x3d9f2f26	0.07772665
204	0x3d207aa2	0.03917945
205	0x3d9eb8da	0.077501014
206	0x3da6a956	0.08137767
207	0x3d887e44	0.06664708
208	0x3d9d76ba	0.07688661
209	0x3d9adca8	0.07561618
210	0x3d8ce8bf	0.0688033
211	0x3d2b2aca	0.041788854
212	0x3d1baf3d	0.038008917
213	0x3d8ad5b8	0.06779045
214	0x3d706a6b	0.058695238
215	0x3db6f72e	0.089338645
216	0x3d3cd57b	0.04610203
217	0x3d95fac0	0.073232174
218	0x3d9d981e	0.0769503
219	0x3d9e5950	0.07731879
220	0x3d866015	0.06561295
221	0x3d58bf54	0.05291684
222	0x3d3c1a31	0.045923416
223	0x3d28b636	0.041189395
224	0x3d85e57d	0.06537912
225	0x3d759763	0.059958827
226	0x3d86669d	0.06562541
227	0x3d2dc6e0	0.04242599
228	0x3da8680f	0.082229726
229	0x3d971876	0.073777124
230	0x3d241841	0.040062193
231	0x3db28b16	0.08717935
232	0x3dab30ea	0.08358939
233	0x3dbca568	0.09211236
234	0x3d9fb295	0.07797734
235	0x3d870534	0.06592789
236	0x3d8281eb	0.06372436
237	0x3da66743	0.08125164
238	0x3d4dba80	0.05022669
239	0x3d475d30	0.048672855
240	0x3dba6181	0.09100629
241	0x3d9c7ff0	0.0764159
242	0x3d665ec0	0.056242704
243	0x3d227346	0.039660715
244	0x3d47570f	0.04866701
245	0x3d5a9c90	0.053371966
246	0x3d9dcb7c	0.07704827
247	0x3d835817	0.06413286
248	0x3d8f7dfa	0.0700645
249	0x3d5ff6b1	0.054678623
250	0x3d55e13e	0.05221676
251	0x3d9674d0	0.07346499
252	0x3d2bd15d	0.04194771
253	0x3d2601ca	0.04052905
254	0x3d8a4d71	0.06753052
255	0x3d43fe75	0.04785009

fc1.bias f4 [10]
0	0xbe80cccd	-0.2515625
1	0xbd35885f	-0.044319507
2	0x3e56a07a	0.20959654
3	0x3e6cc714	0.23122817
4	0xbe4492d8	-0.19196641
5	0xbd447ac6	-0.04796865
6	0xbe426026	-0.1898199
7	0xbd84dd9b	-0.064875804
8	0x3e0d3f49	0.13793673
9	0x3dc95ddc	0.098323554

fc2.weight f4 [3, 10]
0	0xbf1dbca9	-0.61616
1	0x3edc9b9b	0.43087468
2	0xbf107c83	-0.5643999
3	0x3f0487b5	0.5176957
4	0x3f1a0405	0.60162383
5	0x3eda1d64	0.42600548
6	0x3ea44a90	0.32088137
7	0x3e30be48	0.17260087
8	0x3ef97f04	0.48729718
9	0xbeda46c9	-0.4263213
10	0xbf252cd5	-0.64521533
11	0x3eee18f9	0.46503428
12	0xbe9d2c98	-0.30698085
13	0x3f059b99	0.5219055
14	0x3f0ffcf0	0.56245327
15	0x3e93b153	0.28846225
16	0x3f08f12c	0.53493
17	0x3ea6ad23	0.32553968
18	0x3ee4feca	0.4472564
19	0xbf0059c4	-0.5013697
20	0xbf265a9e	-0.6498202
21	0x3edc2028	0.42993283
22	0xbeeb6f94	-0.45983565
23	0x3f036ee1	0.5134106
24	0x3f16d5a1	0.5891972
25	0x3e730846	0.23733625
26	0x3ed236e2	0.41057497
27	0x3ebfc621	0.37455848
28	0x3eeec5f7	0.4663541
29	0xbef5a277	-0.47975513

fc2.bias f4 [3]
0	0x3d58e4a3	0.05295242
1	0xbdf0ebef	-0.11763751
2	0x3c55ab6c	0.013041358
