Bachelor/Fit tasks/lightning_logs/version_13/checkpoints/epoch=49-step=3050.ckpt (torch, 221147 bytes, 4 tensors)

fc1.weight f4 [40, 1350]
00000000: 0cf4 b23b 92a3 483b 2683 98bb 5d5b a93c
00000010: 7441 c2bc b5d4 313c fb53 803a 5bfd c9bc
00000020: 35c0 723a c0a9 70bc 16b7 c63c 4ede 1b3b
00000030: f1ad d7bc ae6d a1bc e484 f63a 4e17 293c
00000040: 3c8d bfbc a6d4 09bc 6971 9dbc 4884 a03c
00000050: fc63 af3b 8518 42bc 9bfd 99bb 63fb 6ebb
00000060: 6445 2dbb eeea 99bc 9e72 933b d7b7 143c
00000070: 5e24 d53c da12 97bc ad74 803c 5c66 b93c
00000080: 86d8 f93b d500 bcbc 2475 623b 178d 213c
00000090: e287 483c dde2 873b 7349 b53b 6f5d 8bba
000000a0: 8414 9aba 2bae 5a3b a2c8 2a3c 2ca0 dfbc
000000b0: 1376 223c 762b 293c b975 aebc d541 7d3b
000000c0: 579e e23a 51c7 d53c 948a e8bb 3c09 e4bc
000000d0: 1032 9c3b f56e d73c b448 10bc f351 9c3c
000000e0: e15b 4d3c 8f65 adbc 03e7 9ebc 1b7c e3bc
000000f0: a409 8dbc 0b29 223c 5350 94bc 1118 e1bb
00000100: fb9d 993c 5a72 24bc 31bb a5bc c1fa 973c
00000110: 95e1 3b3b 61bb 70bb bbd8 02ba 0895 d23c
00000120: 9605 82bb 6b80 9a3a f255 5e3c 171f 6bbc
00000130: 7d84 a23c a692 5abc 5c9e 8e3b 5a56 aabc
00000140: ecef 11bc 9b69 673c 18f1 bd3c 1246 3c3c
00000150: 40cb 6abc 48a2 a63a 85eb b43c ae73 cebc
00000160: 3df2 66bc 1ca1 5fbc 9334 443c 9e3f 2e3c
00000170: 97b1 53bc 944f acbb 5b1e b93c 0e99 d03c
00000180: 575d 46bc a217 833b 5d38 983c 91c9 afbc
00000190: 2ee1 8c3b 0d5f 88bc 9624 cb3c 2cfb a93c
000001a0: 349c 82bc faa2 bcbb 87c9 83bc d20a e3bc
000001b0: 44e8 9c3c 8b80 3ebc 7622 cabc be3d f6bb
000001c0: 146b da3b 01db 8dbc 924d d13c 1bf9 b0bc
000001d0: 914d 5bbc 16a5 083c 9872 b93c 95f4 2a3b
000001e0: 144a 97bb f7ca 4d3c 30c2 193c 0bda d43b
000001f0: 528a 84bc 3bdb f23b 7262 eabb 5624 76bc
00000200: f813 593c f4ae b8bc 818d cf3c 97c2 d63c
00000210: 1851 a13c 523e 83bc 6d72 cc3c 380e d93c
00000220: 2ca2 05bc c6a8 eebb 1104 77bc 4ced e5bb
00000230: 6d0b 5d3c 3b0c 6c3c e869 613b 6193 ad3b
00000240: 239d 363c ecbc 2a3c 2dbe 3c3c 0d5c 60bc
00000250: ba47 b7bc c04a c53c d258 773b 5e6d dbbc
00000260: 3938 b83c 4ead 9f3c 0e9b 8abc 8a91 dfbc
00000270: 3ca9 d7bc 2529 22bc 7b1b 46bc 4737 ad3c
00000280: 0101 ba39 7dbd 493c ce76 ae3b 8b4c 9d3c
00000290: 3217 96bc 26a9 053b 5033 bf3b ca11 c23c
000002a0: 8c16 69bc 65a7 a03b 672e 823c 590e bbbb
000002b0: 4557 a9bc 3391 80bc 9d5a d8bc 799e b33c
000002c0: e86f d03b 36aa c13a 41b8 48bc d9f1 803c
000002d0: fff7 db3c 4d95 b63c d56c adbc 75f2 a13c
000002e0: 010d 4dbb 40ed ddbc 0ac2 08bc 8a1a 7dbb
000002f0: 267c a73c f31c d33a c956 aebc 8b95 be3c
00000300: 4851 aa3b 4006 77bc 8a94 d03c a363 763c
00000310: 366c 993c 173b 2a3c 76ea 6c3a 1992 cc3c
00000320: bb1b ddbc fb9b dc3b aa3b c43c 4086 443b
00000330: 3f8b 22bc 69ed 623c d238 59ba 6fcd cf3c
00000340: 54a5 a23c 40f6 0c3c 8bb4 2dbc d931 013c
00000350: 2fe6 c1bc e47c 003c d5a0 933c 730b 863c
00000360: 63fa aaba 2b57 873c fdb6 c13c ec42 cc3c
00000370: 211a bf3c 7a79 743c e55d b73c 1316 743c
00000380: 8777 42bc 3a53 a7bc 6352 cebc c3a3 b0ba
00000390: 3e02 c9bb fa9d cebc 71ff 7dbc 7089 b93a
000003a0: 7950 e4bb 31d9 46bc 653d 163c f84a 9f3c
000003b0: 4242 7e38 f69a 8d3c 544a 81bc 2f3b 833b
000003c0: 84ee 61bc d14d ccb9 a723 87bc 2026 8b3c
000003d0: 635e dcbc cce5 883a ed52 983b 2230 6a3c
000003e0: 3921 8fbc c7be 183c 61e8 1fbc a5f4 be3c
000003f0: cc33 dc3c edde 663b 4784 cebc 324e b0bc
0.0054612216 0.0030615074 -0.004654306 0.020673448 -0.023712851 0.010853936 0.0009790653 -0.024656942
0.00092602085 -0.014688909 0.024257224 0.0023783627 -0.026328059 -0.01970562 0.0018807915 0.010320498
-0.023382775 -0.008412516 -0.019219117 0.019594327 0.0053524952 -0.011846666 -0.0046994216 -0.0036465756
-0.0026439065 -0.018788781 0.0044997474 0.009077034 0.026018318 -0.018441606 0.015680635 0.022631817
0.0076246886 -0.022949615 0.0034554685 0.009860299 0.012239428 0.0041469173 0.0055324375 -0.0010632704
-0.0011755382 0.0033367972 0.010423811 -0.027298056 0.009915846 0.010325303 -0.021296369 0.0038643975
0.0017289621 0.026096018 -0.007096598 -0.027836435 0.00476671 0.026298026 -0.008806396 0.019082045
0.012534113 -0.021166591 -0.019397264 -0.027769139 -0.017216511 0.009897481 -0.018104708 -0.006869324
0.018752089 -0.010037029 -0.020230861 0.018552186 0.0028668393 -0.003673278 -0.0004991402 0.02570583
-0.003967951 0.0011787539 0.013570296 -0.014350674 0.019838566 -0.013340628 0.004352374 -0.020793129
-0.0089072995 0.014124299 0.023186252 0.011491315 -0.014330685 0.0012713159 0.02208496 -0.025201645
-0.01409584 -0.013649251 0.011975425 0.010635285 -0.012920759 -0.00525851 0.022597482 0.025463607
-0.012107215 0.00400062 0.018581564 -0.021458419 0.0042993044 -0.016646886 0.024797719 0.02074965
-0.015943624 -0.005756733 -0.016087307 -0.02771512 0.019153722 -0.011627327 -0.024674635 -0.0075146845
0.0066655967 -0.017316343 0.025549684 -0.021603158 -0.0133851925 0.008340141 0.02263765 0.0026085724
-0.004616985 0.012560598 0.009384677 0.0064957193 -0.016179238 0.007411388 -0.007152849 -0.015023312
0.01324939 -0.022544362 0.025336029 0.026215835 0.019691989 -0.016020928 0.024956906 0.026496038
-0.008156341 -0.007283303 -0.015076653 -0.0070168134 0.013491494 0.014407213 0.00343954 0.00529711
0.011145863 0.010421019 0.011519951 -0.013693822 -0.02237307 0.024083495 0.003774215 -0.026785549
0.022487747 0.019491818 -0.016919639 -0.027291078 -0.026325814 -0.009897505 -0.012091513 0.021144522
0.00035477433 0.012313244 0.005324221 0.019201538 -0.018321607 0.002039501 0.0058349743 0.023690123
-0.014226567 0.0049027675 0.015891267 -0.0057084975 -0.020671496 -0.015694236 -0.026410395 0.021926152
0.0063609965 0.0014775458 -0.012250961 0.015740322 0.026851652 0.022287989 -0.02117006 0.019768933
-0.0031288269 -0.027090669 -0.008347044 -0.0038620555 0.02044494 0.001610665 -0.021281617 0.023264667
0.0051976778 -0.015077174 0.025461454 0.015038404 0.018728357 0.010390065 0.0009037623 0.024972009
-0.026990762 0.0067324615 0.023954231 0.0029987246 -0.009920894 0.013850548 -0.000828636 0.025366513
0.019854225 0.008603632 -0.010602127 0.00788542 -0.02366933 0.007842276 0.018021027 0.016362881
-0.0013044592 0.016521057 0.023646826 0.024934255 0.023327889 0.01492154 0.02238364 0.014897841
-0.011869318 -0.020425428 -0.02518577 -0.0013476539 -0.0061343005 -0.025221813 -0.0155027965 0.001415534
-0.006967601 -0.012136743 0.009169911 0.019444928 6.0620026e-05 0.017285805 -0.015782513 0.004004858
-0.013789777 -0.0003896789 -0.016496493 0.016985953 -0.026900476 0.0010444461 0.0046485574 0.014293702
-0.017471896 0.009322829 -0.009759993 0.023310015 0.026880167 0.003522809 -0.02520956 -0.021521661

fc1.bias f4 [40]
00000000: f9ca 56bd d2ec b0bc 4aed 32bd 0e46 3abd
00000010: 5f30 01bd a1d8 1e3c da5e 80bd a8f1 e43c
00000020: dc26 fe3d d740 b8bd f8a1 96bc 948c 69bc
00000030: 0e93 2abe 55e8 c9bc 3dd5 03bd 873c 13bc
00000040: f1a6 a33d 3d9e 3ebe 0221 c7bc caad a03d
00000050: 6f49 b0bc cadd 5cbb 0c4b d4bd 9ca4 34bd
00000060: 300c 83bc 96ab 27bd 6fef bbbd 4770 debb
00000070: e4ce e9bc d5e7 5abd 722e 5bbd 5447 aabc
00000080: 8984 0cbe bb20 2ebe 7f69 3b3e 7ac3 54bd
00000090: ebb2 1fbd 62c6 93bc 43dc 13bd 07d6 50bc
-0.052439664 -0.0215973 -0.043683328 -0.045476966 -0.03154027 0.009695203 -0.062680915 0.027947262
0.124097556 -0.08996742 -0.01838778 -0.014254708 -0.1665766 -0.024646917 -0.03218578 -0.008986599
0.07990826 -0.1861505 -0.024307732 0.07845648 -0.02151939 -0.0033701533 -0.103658766 -0.044102296
-0.015997022 -0.04093512 -0.09176528 -0.006788287 -0.028541036 -0.05344375 -0.05351109 -0.020785965
-0.13722433 -0.17004673 0.18301962 -0.051944233 -0.03898899 -0.018038932 -0.03609873 -0.012746341

fc2.weight f4 [3, 40]
00000000: 265e 2fbb f6ca 213e 461e 3b3e 61cf d3bd
00000010: 43e8 6a3d 9264 7f3e 6e9b a2bd 7092 163e
00000020: f9f2 553e 99e3 c2bd c3bc ee3d 2e5c 7a3e
00000030: 8396 b3be e44a 40be a821 1a3e b904 f1bd
00000040: 9544 2c3d 5378 bbbe 57ed 233d bf39 513e
00000050: 555f 9cbe 2929 823e 3642 2bbe 9fec 1b3e
00000060: 37de a83e 5d3d a43d 64e3 f33b 2e79 643e
00000070: 1115 5c3e d3c0 47bc 1328 a23d 9df1 cb3d
00000080: 9cb8 60be 8bb6 99be 7729 853e db50 51be
00000090: 5487 c1bd 8a6e 49be 4cb5 bf3d c364 fc3c
000000a0: 4707 113e 9afd e6bc 9041 893d 72d2 bc3d
000000b0: 83a5 213e 7fd6 223e a5ee 16be 05e3 3e3e
000000c0: a91b 443e 4e9f 49bd b2be 77bc e205 dd3c
000000d0: 24c1 a8be 111a cfbd e417 963e 7338 67bd
000000e0: 0ec8 f33d 85cf adbe 44ed 5cbe 44be 573c
000000f0: 57f4 47be 9a0f 253e e4cd 2cbe 044a 353e
00000100: e170 a63d ac98 dcbd 924e 2fbe 3f73 7b3e
00000110: 12ea 9b3e be79 00be 25e3 353e 1dbe 553e
00000120: 2ca6 57be de73 abbe 266b 943e 2a8f eebc
00000130: 007c aebd d554 11be 7ba5 963e 925e 353e
00000140: 85e7 2f3e 956c 613e 96fd 953e c84e 34be
00000150: 6451 3e3e 6f9b 043d 60bd b7bd df2a f83d
00000160: 312e a63d 7f01 85be 8bb1 873e 6006 693e
00000170: 0602 bebe 955a 043d d17f 753e 66d3 03bd
00000180: cf37 4c3e dd72 97be a307 67be 4f83 143e
00000190: df41 66bd 0f3a 243e e410 f0bd 96f7 523e
000001a0: e36f 1f3e 312b f9bd 72e7 42be a055 8fbc
000001b0: 4df6 663d 6042 95bd 625a f63d 2a3e cd3c
000001c0: c62b 0bbe 09f6 b9be 73da 953e 694a 64be
000001d0: 5107 923b 3889 a13d 5fed 833e 9498 f63d
-0.0026758998 0.1580008 0.18273267 -0.10342289 0.05735041 0.24940708 -0.07939802 0.14704299
0.20893468 -0.09516067 0.11657097 0.24449226 -0.3507577 -0.18778569 0.15051901 -0.11768479
0.042057592 -0.36615238 0.040021267 0.20432185 -0.30541483 0.25422028 -0.16724476 0.15226983
0.32982036 0.080195166 0.0074428786 0.22311851 0.21492411 -0.012191969 0.079178 0.099581935
-0.21945423 -0.30022082 0.26008198 -0.20441 -0.0944964 -0.19671074 0.093607515 0.030809766
0.14162932 -0.028197099 0.06701958 0.09219827 0.15785794 0.15902136 -0.14739473 0.18641289
0.19151177 -0.04922419 -0.015121149 0.026980344 -0.32959855 -0.10112394 0.29315102 -0.05645032
0.11903392 -0.33947387 -0.21574885 0.013167921 -0.19526802 0.16119233 -0.16875416 0.17704016
0.08126999 -0.10771307 -0.17119816 0.24555682 0.3045202 -0.12546441 0.1776243 0.20873304
-0.21059483 -0.33486837 0.28987998 -0.029121 -0.08519745 -0.14192517 0.29423127 0.17711857
0.17178161 0.22014077 0.29295033 -0.17608178 0.18585736 0.032374796 -0.08971667 0.12117552
0.08114279 -0.25977704 0.26502642 0.22756338 -0.3711092 0.03231295 0.2397454 -0.032184027
0.19943164 -0.2957982 -0.22561507 0.14503215 -0.056215163 0.16037773 -0.11721972 0.20602259
0.15570025 -0.12166441 -0.19033602 -0.017496884 0.056387234 -0.07288051 0.12028958 0.025054056
-0.13590917 -0.36320522 0.29268226 -0.2229401 0.0044564386 0.078875005 0.25767037 0.12040821

fc2.bias f4 [3]
00000000: b44e 87bc de94 343d 9f3a bdbd
-0.01651702 0.044087283 -0.09239697
