Bachelor/Data/model.pt (torch, 111959 bytes, 6 tensors)

fc1.weight f4 [20, 1350]
00000000: 6289 2dbc 3631 723c 1bea babc d02d cdbb
00000010: b42c 99bc 5a93 ac3c 2a26 fdbb 00eb b8bb
00000020: abb8 bdbc 3997 afbb 99e3 2abc e313 683b
00000030: d36f 01bc 51a9 333c e198 90ba fbc4 b43c
00000040: b7ab bb3c 43a0 bcbc 03ea d0bc 09d9 d83c
00000050: 8ceb 363c 5fd5 1b3c a60b 943b 8708 4cbb
00000060: 1741 a33c 9d7f 3ebc be3f 64bc 0cb8 b3bc
00000070: 1d29 233c fe8b 7f3c bbe8 6f3c 2851 923c
00000080: 369c 35bc 4a80 1a3b 3ca4 cabc 8004 84bc
00000090: a61e ccba 9ab6 c3bc 9a48 b8bc cbf2 b93c
000000a0: f0d4 9fbc 3d7e cfbc 5313 56bb 0f6c f3bb
000000b0: 19db c8bc e2f6 253c ce6a 92bc 9574 d0bc
000000c0: 9df8 bd3b 428f cb3c ce73 9e3b 78cb b03c
000000d0: dab6 183c 222d 933b 09f0 dd3c e713 d63c
000000e0: 35b1 c13c 381b 10bb 6778 a5bc fc71 973c
000000f0: 863c 0b3b b248 a73c 2c8a 95bc a22c 9a3c
00000100: 0607 5d3c 877f cb3b 3164 9abc 5344 1cbc
00000110: ac84 babc e325 c9bc da50 c5bc fe53 073a
00000120: dae2 ae3b 98f5 463c 582c c9bb c3a0 42bc
00000130: 2c0b d2bc 2bb2 adbc 1d52 353c b801 9fbc
00000140: a28a 88bc 830d c63c cf44 233c 8d10 5c3c
00000150: 6986 d2bc b973 643c d95d 0d3c 8119 a33c
00000160: e46f babc 4aff a5bc dba3 8d3c 73e0 d73c
00000170: e94c 00bb f82e dd3c 7d2d a3bc f936 7cbc
00000180: d3dd b03c 20d7 e1bb 73cb 7f3b d9e2 97bc
00000190: c3bb a03c 7fdb bb3b 4740 ddbc 00bb 813c
000001a0: 337f 283c a48d c73c 1488 c03c 87c6 d93c
000001b0: 440b 183c 3efb 24bc 8699 913c 6103 08bc
000001c0: 61d3 df3c ea8d d6bc ab49 db3c d47c c13b
000001d0: 67a0 c9bb e89f 4f3c ac9e bebc 93d4 d93c
000001e0: e3b6 27bc b820 8bbb be26 d1bc 3cf4 dbbc
000001f0: 1340 80bb 7968 d43b 0666 c4bc 38ac dcbc
00000200: 49d5 e6bb 95c9 9bbc 2a9d 643c f716 503c
00000210: ba7d c7bb 4f3a 45bc 12c1 823c 36ce a0bc
00000220: 0b96 6e3c 6958 dd3c c288 59bb 1f13 b6bb
00000230: 6029 313c f6d4 043c fcab 89bc e8c2 ad3c
00000240: 533b c93c 7a09 cb3b d335 df3c 7aa9 69bc
00000250: 4902 8cbc da9d 68bb cd48 a53c 669c 133c
00000260: fbdc 73bb 043d cc3c 2b70 9dbb 14f0 59bc
00000270: ed3a 99bc f9c8 923b a2f7 8ebc 5cbd 87bc
00000280: 7938 adbc 2146 4f3c ed69 153a 93a9 5f3b
00000290: 59eb ac3c 5f9a 9bbc 73a1 243c 5cea e9bb
000002a0: 8631 113c 4c80 863c 241d d13b 9683 aebc
000002b0: 0db4 71bb 7dc7 cc3b 3156 babc 82b2 0e3c
000002c0: 0ee5 9fbc e935 de3c f803 cd3c 71cc c0bc
000002d0: dd61 933c bef7 5dbc 0432 18bc 2722 83bc
000002e0: a07f 073b 4862 763c 8344 e6bb 05ff b63c
000002f0: c867 d2bc f981 b13c 1ae3 5c3c 8729 803c
00000300: e611 cdbc 20f8 973c c3c0 313c 8aaa aa3c
00000310: d323 683c 2145 063b ee41 6cbc cc5f 85bc
00000320: c6ab b2bc 99c5 ae3c 564c a63c 8f62 dd3b
00000330: ef0b d1ba 31fe 2f3c d54d d3bc 1144 113c
00000340: cbfe 2e3c 4ef1 e73a b3af 92bc 56aa 0dbc
00000350: 7a84 e1bb 70dd 91bc 30f4 1e3b 61ef 1c3c
00000360: a0de c0bb d9db 47bc 7a6f 433b 0712 29bc
00000370: 2f6d e13c 7aeb ad3c 53be bfbc b6ae 2fbb
00000380: 63e4 c33c 6ef4 92bc 6ae0 bd3c 9154 f3bb
00000390: af86 1bbc 453e 883c 1546 963c 26f3 86bb
000003a0: 1a6e b0bc 5fa5 4b3c fb55 473c 55b8 45bb
000003b0: 2a1e 923c 53a8 5bbc 9e00 bdbc 04a2 67bb
000003c0: 52c4 6f3c e135 29bc 4925 6abc f9e1 8a3c
000003d0: 9621 bfbb 0e29 e23c 3364 3b3b eefa 91bb
000003e0: 9c49 9f3b fab4 f3b9 2838 0b3b 33f1 aebc
000003f0: 686a da3b ec44 a13c ebf5 5b3c c820 95bc
-0.010591837 0.014782241 -0.022816708 -0.006261565 -0.018698074 0.021066356 -0.007725497 -0.0056432486
-0.023159346 -0.0053586033 -0.01043024 0.0035412244 -0.007900196 0.010965661 -0.001103189 0.022066584
0.022909028 -0.023025637 -0.02550221 0.026470678 0.011164557 0.009511321 0.00451799 -0.0031133012
0.019928498 -0.011627105 -0.013931213 -0.021938346 0.009958533 0.015597342 0.01464289 0.017860964
-0.011084607 0.0023575001 -0.024736516 -0.016115427 -0.0015573099 -0.023890782 -0.022495557 0.02269878
-0.019510716 -0.02532875 -0.0032665327 -0.007428653 -0.024518536 0.010129662 -0.017873194 -0.025446216
0.0057974593 0.024848584 0.0048355823 0.021581396 0.009320939 0.0044914642 0.027091997 0.026132537
0.02364407 -0.002198888 -0.020199014 0.01848697 0.0021245792 0.020420406 -0.018254362 0.01882011
0.013490444 0.006210271 -0.018846603 -0.009537774 -0.022768341 -0.024554199 -0.024086405 0.0005162357
0.0053371014 0.012143515 -0.0061393194 -0.011879149 -0.025640093 -0.021203121 0.011066941 -0.01941
-0.016667668 0.024176365 0.009965136 0.01343168 -0.025698857 0.013943606 0.008628332 0.019909622
-0.022758432 -0.020263333 0.017290046 0.026352143 -0.0019577092 0.026999936 -0.019919151 -0.015393966
0.021590149 -0.0068921 0.0039031177 -0.018540787 0.019620782 0.005732953 -0.027008189 0.015836239
0.010284233 0.024359532 0.023502387 0.026583923 0.00928003 -0.010069666 0.017773401 -0.008301587
0.027322473 -0.026190717 0.026768526 0.0059047733 -0.0061531547 0.012672402 -0.02326902 0.026590621
-0.010236475 -0.0042458437 -0.025531169 -0.026849858 -0.0039138882 0.0064821807 -0.02397443 -0.026937589
-0.0070444685 -0.01901702 0.013953486 0.012700788 -0.006087986 -0.012037828 0.015961204 -0.019629579
0.01456214 0.027019696 -0.0033193086 -0.0055564786 0.010813087 0.0081074145 -0.016805641 0.021211103
0.02456442 0.006196198 0.027247345 -0.014261598 -0.017090933 -0.0035494477 0.020176316 0.009009456
-0.0037210572 0.024931438 -0.004804631 -0.013301868 -0.018704856 0.004479524 -0.017452065 -0.016569786
-0.021145092 0.012650997 0.0005699683 0.0034128174 0.021108316 -0.018994508 0.010048258 -0.0071385335
0.008861905 0.016418599 0.0063816477 -0.02130298 -0.0036881 0.006249367 -0.022746177 0.008709552
-0.019518401 0.027125316 0.025026307 -0.023534985 0.017991 -0.013547836 -0.009289268 -0.016007496
0.0020675436 0.0150380805 -0.00702721 0.0223384 -0.025684252 0.021668421 0.01348188 0.015644802
-0.025032949 0.018550932 0.010849181 0.020833272 0.014168697 0.0020487981 -0.014420016 -0.016281031
-0.021810424 0.021334456 0.020300072 0.006756134 -0.0015948991 0.010741756 -0.02579395 0.008866326
0.010680865 0.0017695816 -0.017906046 -0.008646568 -0.0068822475 -0.017805785 0.0024254434 0.009578557
-0.005885914 -0.012198412 0.0029821084 -0.010319239 0.027517883 0.021230448 -0.023406183 -0.0026807017
0.023912614 -0.017938819 0.023178298 -0.0074258526 -0.00949256 0.016631255 0.018343965 -0.004118341
-0.021536876 0.012429564 0.012166495 -0.0030169685 0.017836649 -0.013406831 -0.023071583 -0.0035344372
0.014634209 -0.010327787 -0.014291116 0.016953455 -0.005832861 0.027607467 0.002859366 -0.004454962
0.00486107 -0.0004648341 0.0021243189 -0.021355247 0.0066655166 0.019686185 0.013425331 -0.018204108

fc1.bias f4 [20]
00000000: 2122 583c d45e 3bbc 51eb 78bc 5c5e acbb
00000010: 407b e6bb 0c9b 8ebc 055c 86bc eef1 aebc
00000020: 0493 3bbc ee9c a53b 801a cebc 487d 8bba
00000030: 0363 87bc d174 38bc 12c6 883c ff05 453c
00000040: 2b5d 9bba 2005 883b 16a7 8fbb ea7e 473a
0.013191731 -0.011436183 -0.015192823 -0.005260272 -0.0070337355 -0.017407916 -0.0164013 -0.021355595
-0.0114486255 0.005054108 -0.02515912 -0.0010642195 -0.016526705 -0.01125832 0.01669601 0.012025355
-0.0011853328 0.0041510016 -0.004383932 0.0007610159

fc2.weight f4 [20, 20]
00000000: 2728 0cbe 466a a1bd 273f 0c3e fc83 193d
00000010: 0647 66be 1e0b 063e f608 0ebe 9d95 afbc
00000020: fa6c 173e 6e4b 503e d3d1 e1bd 3294 393e
00000030: 28ac c4bc ef9c c23d d896 fb3d c390 2cbc
00000040: 76a2 233e 9699 30be 2365 493e 238e 5cbe
00000050: 6ebf 0cbd 7f77 423e b998 353e f12e 853d
00000060: cc22 a4bd 630a 4b3e 4164 4a3e 52eb d3bd
00000070: b958 813d ee3e e53d 4e29 243e 4f98 cc3d
00000080: 05fe c2bd f5eb 83bc 4fba e5bd 8851 01be
00000090: bc33 50be 5d6b 963d 73f9 ff3d 2511 2e3e
000000a0: 8df0 1cbe 3e0d 11be 58da c6bd b890 9fbd
000000b0: 5bc2 73bc 4f99 463d 8063 02be 90e5 4abd
000000c0: 6ce5 b33d eaa7 263e eb68 443d 9b53 ba3d
000000d0: bf3d 8f3d dc0b 413e 67ca a8bd 000a f0bd
000000e0: e47b c3bd 0221 273e c124 ce3d d35e b8bd
000000f0: 9559 b1bd 5fa3 593e cab2 32be 517a 8cbd
00000100: c7df 803c f9e9 e43d 3662 1dbe 004e 3cbe
00000110: 19a6 73bd cd62 e53d 255b 64be d984 e33d
00000120: 3e5b 7f3d 769b 1ebe 57e1 5dbe 2a42 19bd
00000130: 73ea 68be d2d6 203e c803 c53d 0507 15be
00000140: 7fa0 043c 666f 9e3c 77af 91bd 930a cd3d
00000150: 90ea 183e fbb7 ff3d 2a56 3a3e 06c5 f03d
00000160: a6dd b9bd 5de0 37be d92a d0bd cf55 52be
00000170: dbee 4c3e 626e f8bd dd4d 233e 0a59 6e3c
00000180: ed50 873d 064e b33c 9a71 58bc d5be 393e
00000190: 7671 0c3e 0ffc 83bc f947 46be 03d5 2ebd
000001a0: 7d28 ec3d e84e 85bd 7bff 4dbe 7b38 4dbd
000001b0: 803c 3d3e bec9 e13d 0389 bc3d 2792 e83c
000001c0: 1a10 4f3e b200 213d ab59 1b3d 925f 3bbd
000001d0: b569 293e ec3b a53d de2c 4b3e 5775 35be
000001e0: 34e1 203c 7a74 143e 2fa9 b83d fca8 2abe
000001f0: f030 c73d d9e9 933d 9ed1 333b c63d e23d
00000200: 46f9 36be 573b 1bbe c195 c2bc 061d 13be
00000210: aff6 803d 50f6 fdbd 5051 21be 97df 613e
00000220: 72f4 653e 1c32 303e 9959 d3bd cd44 9c3d
00000230: 1e21 8a3c 84a3 a43d e982 1f3e 4706 f2bd
00000240: 3fd2 4a3e 287c 3cbe c5ef 0ebd e7b6 24be
00000250: a9f7 fd3d 4906 c7bd 6d12 e2bd c889 1f3e
00000260: 0ae0 163e 691f ba3d 3747 433e 9b1c e5bc
00000270: 0ccd 46be 4c48 60bd 1b44 10be 9ea3 2dbe
00000280: 02a9 24be eec9 ac3d 943b 40be f4ce cb3d
00000290: f718 42be 08ca 98bd 15bf 063e f95d 9a3d
000002a0: 8868 9c3d d9cc b73b c31f 54be 1f43 febd
000002b0: 4677 ffbd 65e4 1cbe 24be 513e 3454 6dba
000002c0: 3db8 3ebe 9611 9b3d d323 483e 127c 4dbe
000002d0: 24c0 473d a2b5 5ebe 0372 f23d 521c 1f3d
000002e0: 06e8 cd3d b0b5 3b3e 526c 253e d685 663d
000002f0: 420a 8cbd 16b8 843b cce1 1a3d f84a 23bd
00000300: 0a10 953d 9d16 d7bd df73 5a3d 720f 373c
00000310: ee32 31be 2f07 c0bd 3a69 ecbd 01f4 debd
00000320: 60b7 813c 9ebe 2cbe 83b4 26be e087 1d3e
00000330: 6fe2 e13d ca52 673e 9979 de3d 4160 943d
00000340: 87c4 b83d c4ef 1dbe 9fc2 16be dc87 19bd
00000350: e11d b83d b5d4 babc b4db a2bd 5ac6 22be
00000360: 0b30 283e dcb6 be3d 5c3e 1cbe f40d dbb9
00000370: 1020 3ebe 379c 0abe 57d2 e5bc 7d70 3d3c
00000380: a70d dfbd b69c ebb9 89ff 53be 7112 b0bc
00000390: 96b7 3abe 67ff d0bd 0e75 4abd 64ba 163e
000003a0: ae18 9cbd a7ff 3b3e c333 24be 198f fb3d
000003b0: 38fa 46be aada a13d 8f8f 00bd db4c 7bbd
000003c0: de1e fdbc 0ea0 25bd f76d 47be c7bd 203e
000003d0: 288e 533e 8d2e 78bd 7d20 5d3e bef3 ff3d
000003e0: 14ec ce3c 93fb 343e 040f 093e db47 a93d
000003f0: 7389 f7bd 1458 123e 8b6c 573a 83c8 9abd
-0.13687192 -0.07881598 0.13695966 0.037479386 -0.22488031 0.13090178 -0.13870606 -0.021433646
0.14787665 0.20341274 -0.11026349 0.18122938 -0.024007872 0.09502589 0.122846305 -0.010532561
0.15979943 -0.17246088 0.19667487 -0.21538596 -0.03436225 0.18990897 0.1773404 0.06503094
-0.080144495 0.19828181 0.19764806 -0.10347618 0.06315751 0.111936435 0.16031381 0.09989988
-0.09521107 -0.016103724 -0.11217176 -0.12628758 -0.20332235 0.07344697 0.124987505 0.16998728
-0.15326138 -0.14165208 -0.097096145 -0.07791275 -0.014877881 0.04848605 -0.12733269 -0.049535334
0.08783993 0.16274992 0.04795162 0.09097978 0.06994199 0.1885218 -0.0824173 -0.11720657
-0.09545115 0.16321185 0.10065604 -0.09002461 -0.086596645 0.21253727 -0.17451015 -0.068592675
0.015731705 0.11177439 -0.15369496 -0.1838913 -0.059484575 0.112004854 -0.22300394 0.11109323
0.062342875 -0.15488991 -0.21667992 -0.037416615 -0.22745685 0.15706947 0.09619862 -0.14553459
0.008094906 0.019340228 -0.071135454 0.100117825 0.14933228 0.12486263 0.18196931 0.11756329
-0.09075479 -0.17956682 -0.101644225 -0.20540546 0.20012991 -0.12130429 0.15947671 0.014547596
0.06607232 0.02188779 -0.0132106785 0.18139203 0.13715157 -0.016111402 -0.19363393 -0.042683613
0.1153116 -0.06509191 -0.2011699 -0.050102692 0.1848011 0.110248074 0.092058204 0.028390003
0.20220986 0.039307304 0.03792731 -0.04574544 0.1654423 0.0806807 0.19841334 -0.17720543
0.009819318 0.14497557 0.09016644 -0.16666025 0.09726131 0.07222337 0.0027438174 0.110469386
-0.17868528 -0.15159355 -0.023753049 -0.1436654 0.06297051 -0.12400496 -0.15753675 0.22057949
0.2245653 0.17206615 -0.10319824 0.0763031 0.016861495 0.08039001 0.15577282 -0.118176036
0.19806765 -0.18406737 -0.03489663 -0.16085397 0.12400753 -0.09717996 -0.11038671 0.15579903
0.14733902 0.09088022 0.19070135 -0.027967742 -0.19414157 -0.054756448 -0.1408848 -0.16956946
-0.16080096 0.084369525 -0.18772727 0.099515826 -0.18954836 -0.074604094 0.1315883 0.07537455
0.07637125 0.0056091365 -0.20715241 -0.12415146 -0.124739215 -0.153215 0.20482689 -0.000905338
-0.18624969 0.075717136 0.19544916 -0.2006686 0.048767224 -0.21748975 0.11838152 0.038845368
0.100540206 0.18331027 0.16154602 0.05627998 -0.06837894 0.004050265 0.037812993 -0.039866418
0.0727845 -0.1050236 0.05333316 0.011173116 -0.17304584 -0.0937637 -0.11543508 -0.10886384
0.01583451 -0.1686959 -0.16279797 0.15383863 0.11029517 0.22590175 0.10863037 0.072449215
0.090218596 -0.15423495 -0.1472268 -0.03748308 0.08990074 -0.022806505 -0.07952061 -0.15895978
0.16424577 0.093122214 -0.15258163 -0.0004178133 -0.18566918 -0.13536154 -0.0280544 0.011562464
-0.10891276 -0.00044939452 -0.20702948 -0.021493169 -0.18234095 -0.10204964 -0.04942804 0.1471954
-0.07621895 0.18359242 -0.1603537 0.12283153 -0.19431388 0.07903035 -0.03138691 -0.061352592
-0.030898508 -0.040435843 -0.19475542 0.15697394 0.20659697 -0.06059127 0.21594425 0.12497662
0.025259055 0.17674093 0.13384634 0.082656585 -0.12086763 0.14291412 0.0008217773 -0.07557776

fc2.bias f4 [20]
00000000: a37b 16be 2e77 adbd 841d 2abe e817 45be
00000010: 8438 f03d 9591 0e3e fba0 2c3d f7db 21be
00000020: f4e6 663d b2bc a63d e898 a2bb d246 073e
00000030: 807c 80bd 0f29 733d 128c 1ebc 5e75 623e
00000040: 2272 5dbe 1af8 b83d b877 32be e027 273d
-0.14695601 -0.08469997 -0.16612822 -0.19247401 0.117295295 0.13922723 0.04214571 -0.15806566
0.056372598 0.081414595 -0.0049620755 0.1321061 -0.062737465 0.05936533 -0.00967695 0.22115085
-0.2162557 0.090316966 -0.17428482 0.040809512

fc3.weight f4 [3, 20]
00000000: 21f3 87bd c3a4 953e cefe c6bd c39c 4ebe
00000010: 15fd f2bd 4a6c 1abe e4e5 483e 7e83 96bd
00000020: 07d0 07be 802e 54bd 1d01 183e cd9d 1dbe
00000030: 93fa de3c 5f8f 58be a9c9 a13c 61b2 ed3d
00000040: 8f51 d33c d6a4 df3d 006f 153b 7cdd cd3d
00000050: 4f1e 233e 73ad ffbd 7cde 54be 859e e33c
00000060: 2054 c9bd 8c2b b3bd b406 2abb 1d1f e6bd
00000070: e0c0 243e fcbf 1c3e 557b 56be 2d21 b23d
00000080: 3855 e33d 7e65 49be 3ba8 68bd 2f5f aa3d
00000090: 8e73 983d b7dd a73b 9405 733e e9cd 34be
000000a0: 118f e63c 7ceb 223e 3659 97bd 1aa1 0b3e
000000b0: aed6 e3bc 6bb9 93bd d512 583d 9caa 823d
000000c0: 3b5f 05be 384f 1cbe fdb5 e6bc 1c5c 55bd
000000d0: 0c4c ef3c a0a1 4abe 8996 dbbc c08a 053e
000000e0: ea8e 81be 80f0 343e 5184 193e ee85 afbd
-0.0663817 0.29227266 -0.09716569 -0.20176987 -0.11864678 -0.15080371 0.19618946 -0.07349299
-0.1326295 -0.05180216 0.14844175 -0.15392227 0.027219092 -0.21148442 0.01974948 0.11606289
0.025795726 0.10920112 0.0022801757 0.100520104 0.1592953 -0.12484255 -0.20787996 0.027785549
-0.09830499 -0.0874854 -0.0025943937 -0.11236403 0.16089201 0.15307611 -0.20945485 0.08697734
0.111002386 -0.19667622 -0.056801062 0.08318936 0.07443915 0.005122866 0.23732597 -0.17656673
0.028144391 0.15910143 -0.073900625 0.13635674 -0.027812328 -0.072131 0.052752335 0.063801974
-0.13024609 -0.15264595 -0.02816295 -0.052089795 0.029211067 -0.19788218 -0.02680518 0.1304121
-0.25304347 0.17669868 0.14991881 -0.08570467

fc3.bias f4 [3]
00000000: 8aba 353d fa38 133e 585a 9b3d
0.04436735 0.14377204 0.07585591
