Bachelor/Data/model.pt (torch, 111943 bytes, 6 tensors)

fc1.weight f4 [20, 1350]
0.019092564 -0.020323522 -0.009398754 0.003008044 -0.0034858 0.026222281 -0.014007363 0.012855217
0.00017251025 0.016490953 0.011943655 0.0044283997 0.020870179 0.00466223 -0.0018735866 -0.002421023
0.0052484204 0.016438803 0.013087546 0.015060099 -0.0064099925 0.018926594 0.008018883 0.0019546994
0.010480706 0.0123125855 0.020669002 -0.009789951 0.007703391 -0.013710462 -0.024835821 0.002584438
-0.0131166605 0.027322188 0.0234472 0.022500688 0.013592637 -0.0039584255 0.016424477 0.02377746
0.01862277 0.0026282612 0.023698542 0.01743398 -0.024421962 0.0029309283 0.01198545 0.008829773
-0.012628611 -0.024716167 0.021822283 -0.0023587695 -0.0073378547 -0.0035417234 0.02226605 0.004886282
-0.020918533 0.007173242 0.014036175 0.009871597 -0.023876393 0.002777031 0.016812036 0.01397601
0.0019486196 0.021211198 0.015433034 0.022350071 -0.0027768756 0.003272511 0.023097178 -0.0057738526
0.022661706 -0.0028883903 -0.010743384 0.009403074 -0.026598873 0.0056787655 -0.016451044 0.015713876
-0.0050936886 -0.01838652 0.009464009 -0.009359102 0.0017908103 -0.02529905 0.010316142 0.006841354
-0.0005963307 -0.02535917 0.003417788 0.015451026 -0.005965549 0.015726512 0.010629218 -0.011605924
-0.009717328 -0.01583466 0.015178148 0.012593707 0.010683977 -0.011724779 0.011467487 -0.022937829
-0.0058834376 0.00854953 0.008416226 0.008280018 -0.005482214 -0.018121703 0.023978522 0.023181621
0.020313006 -0.021109615 0.017011795 0.019679794 -0.00045288022 -0.016385611 -0.015029808 0.01918479
-0.004358444 0.013279748 -0.0048670424 0.019525984 -0.013089014 -0.0026141575 0.004911601 0.02537305
0.009074823 0.022305846 0.027116226 0.023315959 0.02322084 -0.011211351 -0.024265645 -0.023135174
-0.010501444 -0.023455089 -0.017952306 0.010090918 0.014692929 0.027171966 -0.0118976515 0.024245845
-0.023372544 -0.019089088 0.025009852 -0.006857756 -0.010378467 -0.0071453936 0.014801216 -0.018463505
-0.015205939 -0.0048351567 0.016428102 0.002833761 -0.0151689155 0.01868035 -0.0022436248 -0.025128633
-0.014709833 0.015815433 0.0021715774 -0.0045011654 0.008835677 0.0029918784 0.0262738 -0.021702917
0.016516065 0.009748253 -0.013188086 0.015206653 0.011614023 0.013291711 0.009915193 0.0021649532
-0.022364302 -0.0116723785 0.019409573 0.016554803 -0.025113342 -0.018698 -0.004034202 -0.020144444
-0.015207084 0.0030581371 -0.0219432 -0.008370075 -0.025766095 -0.006132566 -0.008346475 -0.015664741
-0.019379359 0.019989923 0.0033428336 -0.02372429 -0.013764536 0.018511232 -0.0007238778 0.013778473
-0.020963438 -0.01119739 0.017363533 -0.013253419 0.016734019 0.0017515888 -0.0066373963 0.01387488
-0.0052801785 0.022141013 -0.009111932 -0.0057276483 0.0119027365 -0.0021158727 0.027360154 -0.011945393
-0.024908494 -0.02013265 -0.0033989293 -0.018931609 -0.009022477 -0.0036944342 0.022918124 0.0044446033
-0.0101689445 -0.019797783 0.020529233 0.006778294 0.005072729 0.017620979 -0.008046951 0.017781476
0.008783421 0.016139202 0.013367452 0.0032695115 0.010552163 0.018487668 -0.019723916 0.016562238
-0.012590545 0.0077622137 0.011565867 0.021304082 -0.008255462 0.01008993 -0.0115387505 0.019429518
-0.013464705 0.020471735 0.0068552485 -0.025397511 -0.00047578537 0.0033513987 0.008372363 -0.022376029
00000000: 0268 9c3c 847d a6bc 3bfd 19bc 9b22 453b
00000010: 0572 64bb 1cd0 d63c 237f 65bc b09e 523c
00000020: dee3 3439 0918 873c 52af 433c 1c1c 913b
00000030: f0f7 aa3c 9fc5 983b 2293 f5ba 07aa 1ebb
00000040: f1fa ab3b abaa 863c 266d 563c a2be 763c
00000050: ea0a d2bb f20b 9b3c a261 033c 6a1a 003b
00000060: 44b7 2b3c baba 493c 0a52 a93c 0866 20bc
00000070: ba6c fc3b d8a1 60bc 7e74 cbbc ad5f 293b
00000080: 43e7 56bc c8d2 df3c 5814 c03c 5d53 b83c
00000090: a7b3 5e3c aeb5 81bb a08c 863c f3c8 c23c
000000a0: c88e 983c e83e 2c3b 7223 c23c b5d1 8e3c
000000b0: 9110 c8bc d114 403b 9f5e 443c c1aa 103c
000000c0: 3ce8 4ebc 8f79 cabc a5c4 b23c 9695 1abb
000000d0: 6372 f0bb 421c 68bb 4b67 b63c 1b1d a03b
000000e0: 585d abbc 840d eb3b fcf7 653c 7bbc 213c
000000f0: 6d98 c3bc d9fe 353b 65b9 893c a2fb 643c
00000100: d368 ff3a 1bc3 ad3c d6da 7c3c 7f17 b73c
00000110: 3efc 35bb a077 563b 4b36 bd3c 9632 bdbb
00000120: 0ba5 b93c 264b 3dbb 0505 30bc 5a0f 1a3c
00000130: e1e5 d9bc f014 ba3b 57c4 86bc 63ba 803c
00000140: f5e8 a6bb 549f 96bc ee0e 1b3c eb56 19bc
00000150: 9fb9 ea3a f43f cfbc 0905 293c 702d e03b
00000160: 1353 1cba 09be cfbc f8fc 5f3b 4d26 7d3c
00000170: a77a c3bb e3d4 803c 2c26 2e3c c626 3ebc
00000180: 6d35 1fbc b0b7 81bc c4ad 783c d655 4e3c
00000190: d90b 2f3c 4a19 40bc 20e2 3b3c 1de8 bbbc
000001a0: dac9 c0bb 5413 0c3c 36e4 093c eaa8 073c
000001b0: 25a4 b3bb f773 94bc 9b6e c43c 62e7 bd3c
000001c0: 7667 a63c 12ee acbc 525c 8b3c 8537 a13c
000001d0: 8e70 edb9 1e3b 86bc 953f 76bc 6c29 9d3c
000001e0: 47d1 8ebb 4d93 593c b67b 9fbb f5f4 9f3c
000001f0: 4e73 56bc 4952 2bbb 7ff1 a03b 24db cf3c
00000200: 91ae 143c c0ba b63c d922 de3c 1c01 bf3c
00000210: a239 be3c d0af 37bc bfc8 c6bc fa85 bdbc
00000220: 400e 2cbc e324 c0bc b710 93bc 6154 253c
00000230: 9cba 703c be97 de3c 5eee 42bc 399f c63c
00000240: c777 bfbc b860 9cbc 76e1 cc3c 07b7 e0bb
00000250: 720a 2abc e823 eabb cd80 723c c740 97bc
00000260: 5522 79bc 3c70 9ebb 3a94 863c 9fb6 393b
00000270: 0b87 78bc 8907 993c c709 13bb 90da cdbc
00000280: 8301 71bc 5e8f 813c 0651 0e3b 837e 93bb
00000290: 84c3 103c 6413 443b 273c d73c 51ca b1bc
000002a0: b34c 873c 23b7 1f3c d812 58bc 5325 793c
000002b0: be48 3e3c 7ac5 593c 5573 223c e3e1 0d3b
000002c0: 5735 b7bc 813d 3fbc d300 9f3c f09d 873c
000002d0: 7fba cdbc 8c2c 99bc 5731 84bb f605 a5bc
000002e0: 2227 79bc 076b 483b 3ac2 b3bc a422 09bc
000002f0: 6b13 d3bc b1f3 c8bb a7bf 08bc 5853 80bc
00000300: 76c1 9ebc e8c1 a33c 7113 5b3b 7159 c2bc
00000310: a684 61bc dea4 973c 9ec2 3dba 1bbf 613c
00000320: 84bb abbc 4275 37bc f83d 8e3c de24 59bc
00000330: c815 893c 9195 e53a 847e d9bb 7753 633c
00000340: 5905 adbb 1261 b53c 364a 15bc ffae bbbb
00000350: b203 433c 74aa 0abb 6722 e03c 9cb6 43bc
00000360: e60c ccbc 3aed a4bc 92c0 5ebb 7616 9bbc
00000370: 03d3 13bc 521e 72bb cabe bb3c 09a4 913b
00000380: a59b 26bc f62e a2bc ec2c a83c 741c de3b
00000390: 2339 a63b df59 903c 5cd7 03bc 75aa 913c
000003a0: 56e8 0f3c 5c36 843c 2803 5b3c 4d45 563b
000003b0: fbe2 2c3c 7373 973c 0d94 a1bc 88ad 873c
000003c0: 9348 4ebc 2b5a fe3b c37e 3d3c e685 ae3c
000003d0: eb41 07bc 3c50 253c 070d 3dbc a72a 9f3c
000003e0: 119b 5cbc 57b4 a73c fea1 e03b 710e d0bc
000003f0: d572 f9b9 24a3 5b3b 3c2c 093c ef4d b7bc

fc1.bias f4 [20]
0.024223339 -0.036335535 -0.040361434 -0.0014355062 0.0071949656 0.16675517 -0.02317451 -0.09319501
-0.030295122 0.040636554 -0.039794855 -0.08027692 0.11352275 -0.113100186 0.023517042 0.06376943
-0.02727591 0.052583914 0.14155366 -0.14531985
00000000: 0670 c63c 92d4 14bd 0852 25bd 9827 bcba
00000010: bfc3 eb3b dec1 2a3e 78d8 bdbc 07dd bebd
00000020: 7a2d f8bc 8472 263d eeff 22bd 3a68 a4bd
00000030: 9e7e e83d 12a1 e7bd d0a6 c03c 8c99 823d
00000040: bb71 dfbc 3b62 573d 71f3 103e bace 14be

fc2.weight f4 [20, 20]
0.18454859 -0.16021773 -0.33426127 0.10198017 -0.06011305 -0.32544288 -0.080418184 0.3534525
0.047464974 0.062097717 -0.3463148 0.2050032 -0.2799573 0.018487757 0.15690453 0.05560665
-0.18828717 0.20519803 -0.031453043 0.32476556 -0.24684253 -0.06660282 -0.034738477 0.09037942
0.19664788 0.35201967 0.30164564 -0.31641263 0.27487886 -0.03755652 0.038478117 0.036972687
0.31300116 -0.1585402 -0.025605936 -0.35648525 0.022497443 -0.10967337 0.14287663 -0.2189157
0.16855614 0.020817822 -0.0019986369 -0.016352052 -0.14935715 0.0062691527 -0.054710753 0.1998056
-0.15445033 -0.10366382 -0.16022722 -0.12782612 0.04883735 0.04011576 0.15022324 -0.0009303764
-0.16125186 -0.13419595 -0.23377344 0.2296916 -0.3127085 0.123375826 0.0979337 0.039431863
0.3665406 0.039599776 0.3320688 -0.061745077 0.121172 -0.04129982 -0.048561823 0.030734127
-0.0728718 -0.33325732 -0.33178198 -0.038121395 0.06100148 -0.28366202 0.36856955 -0.23773941
0.27896753 -0.18697199 -0.36012655 0.08664483 -0.12781473 -0.42324287 -0.0933692 0.398618
-0.27168614 0.39202037 -0.34592733 0.2187535 -0.37700516 0.08859365 0.20191465 0.07820842
-0.09886047 0.14383823 -0.02346663 0.45309582 0.11412777 -0.24652971 -0.009964444 0.08393948
0.02429405 -0.39528492 -0.19656184 0.07793424 -0.34682244 0.30654135 -0.0026212796 0.23392604
-0.18756169 0.33702826 0.20324185 0.05067472 -0.28704116 0.23940913 -0.3645947 0.24040246
-0.11508182 0.27220142 0.19001648 -0.27300787 0.13917504 0.20104183 -0.011468795 -0.34338865
0.24604197 0.020524548 0.13464679 -0.1643766 0.005350421 -0.16406535 -0.23409645 -0.33706358
0.005613771 -0.048220713 0.23219961 0.048745338 -0.071442775 -0.2932271 0.08095488 0.10894308
-0.13373585 -0.20534381 -0.10663024 -0.011135855 -0.26289716 0.13350348 -0.21686986 0.0622819
0.10419367 0.039718267 -0.032773364 0.29358742 -0.22440124 0.3499267 -0.25090075 0.14227204
-0.23991132 0.10492923 0.056171242 -0.27817905 0.25278628 -0.12236473 -0.06622188 -0.074537255
-0.0047459393 -0.12663719 0.13820359 0.106186606 0.16234568 -0.006968462 -0.045500394 -0.2465747
0.100853465 -0.2722916 0.27744895 -0.09210134 0.04509345 0.035857204 -0.090572335 -0.19969377
-0.1428882 0.17831907 -0.05737254 -0.09629185 0.2123829 -0.15869476 -0.0920893 0.09700129
0.22812627 -0.13647658 0.04225117 -0.17838086 -0.08276354 0.01919153 0.041483905 -0.08502206
0.36277363 -0.17688629 -0.32223043 0.10480111 -0.039784998 -0.37782252 -0.075464875 0.33082208
-0.11492381 0.37788153 -0.34322065 0.36530247 -0.32015362 0.24378327 0.057240084 0.22403553
-0.28896067 0.36664897 -0.18364017 0.3200833 -0.2050769 0.07776722 0.07787279 -0.37932032
0.3731232 0.7029748 0.15255687 -0.44172302 0.087737344 0.0649332 0.3579977 -0.4505492
0.44495952 -0.25372416 -0.20800623 -0.070033155 0.14680435 -0.2131984 0.5057959 -0.38845596
-0.17187244 0.29103968 0.21530983 -0.29618 0.2707379 0.38115674 0.13273764 -0.17807212
0.31508806 -0.16515657 0.27928287 -0.10095266 0.33383644 -0.377276 0.013003255 -0.20136313
00000000: 4efa 3c3e 1e10 24be 4b24 abbe fbda d03d
00000010: 1a39 76bd 73a0 a6be 4ab2 a4bd baf7 b43e
00000020: a26a 423d 2d5a 7e3d 2c50 b1be 5cec 513e
00000030: 9056 8fbe a373 973c 95ab 203e ccc3 633d
00000040: 5ace 40be 6f1f 523e e8d4 00bd ac47 a63e
00000050: 4ac4 7cbe 0f67 88bd ef49 0ebd d818 b93d
00000060: 105e 493e ec3b b43e 4c71 9a3e d600 a2be
00000070: ecbc 8c3e ded4 19bd 3b9b 1d3d ac70 173d
00000080: b041 a03e 5d58 22be 8ac3 d1bc 3c85 b6be
00000090: 8f4c b83c 6f9c e0bd 404e 123e 702b 60be
000000a0: fb99 2c3e 238a aa3c 90fb 02bb bdf4 85bc
000000b0: 15f1 18be 776d cd3b 6218 60bd d799 4c3e
000000c0: 3a28 1ebe b24d d4bd 9b12 24be dae4 02be
000000d0: ac09 483d 6c50 243d 1fd4 193e 81e4 73ba
000000e0: 351f 25be aa6a 09be 4e62 6fbe 4634 6b3e
000000f0: 541b a0be 77ac fc3d 7791 c83d 4e83 213d
00000100: 36ab bb3e 6033 223d ec04 aa3e 68e8 7cbd
00000110: 0729 f83d 002a 29bd c3e8 46bd 23c6 fb3c
00000120: cf3d 95bd b4a0 aabe 54df a9be 2e25 1cbd
00000130: b0dc 793d 263c 91be 26b5 bc3e f671 73be
00000140: d5d4 8e3e 9675 3fbe 8262 b8be d872 b13d
00000150: dde1 02be 4ab3 d8be 5a38 bfbd a917 cc3e
00000160: 721a 8bbe e5b6 c83e 631d b1be eb00 603e
00000170: d206 c1be 9670 b53d b7c2 4e3e bc2b a03d
00000180: 5c77 cabd 544a 133e 173d c0bc 2dfc e73e
00000190: d2bb e93d 4972 7cbe e841 23bc 76e8 ab3d
000001a0: 5104 c73c c962 cabe 8247 49be fd9b 9f3d
000001b0: b692 b1be fdf2 9c3e c6c9 2bbb 4f8a 6f3e
000001c0: 2c10 40be f88e ac3e a21e 503e 4c90 4f3d
000001d0: 0ff7 92be ab27 753e 28ac babe 102c 763e
000001e0: 04b0 ebbd fc5d 8b3e ae93 423e b0c7 8bbe
000001f0: e783 0e3e e9dd 4d3e 9de7 3bbc a3d0 afbe
00000200: 6df2 7b3e 1923 a83c d9e0 093e 5752 28be
00000210: 9652 af3b bf00 28be fbb6 6fbe 9993 acbe
00000220: b9f3 b73b 1583 45bd bcc5 6d3e 31a9 473d
00000230: 9750 92bd dd21 96be accb a53d 8d1d df3d
00000240: 0df2 08be a645 52be f560 dabd 2973 36bc
00000250: 759a 86be 23b5 083e 2213 5ebe 4e1b 7f3d
00000260: 7e63 d53d 9faf 223d 5d3d 06bd 1751 963e
00000270: 70c9 65be 9829 b33e 1076 80be c3af 113e
00000280: 50ab 75be 23e5 d63d d113 663d 7c6d 8ebe
00000290: 346d 813e 5c9a fabd 569f 87bd fda6 98bd
000002a0: d383 9bbb 2ead 01be 3e85 0d3e 5d78 d93d
000002b0: f23d 263e b257 e4bb 9f5e 3abd 147e 7cbe
000002c0: 438c ce3d ce69 8bbe ca0d 8e3e a19f bcbd
000002d0: e9b3 383d 01df 123d fd7d b9bd 867c 4cbe
000002e0: 4951 12be 4699 363e 78ff 6abd a934 c5bd
000002f0: e77a 593e e180 22be 5199 bcbd 9da8 c63d
00000300: ef99 693e 84c0 0bbe 900f 2d3d 79a9 36be
00000310: ee7f a9bd 8e37 9d3c 07eb 293d 0c20 aebd
00000320: 77bd b93e ae21 35be 63fb a4be f7a1 d63d
00000330: 98f5 22bd f471 c1be 548d 9abd 8361 a93e
00000340: 2d5d ebbd b079 c13e 9eba afbe ed08 bb3e
00000350: 2deb a3be 52a2 793e 9474 6a3d 9269 653e
00000360: a7f2 93be 6ab9 bb3e 2b0c 3cbe f5e1 a33e
00000370: aeff 51be 6c44 9f3d c57b 9f3d 4636 c2be
00000380: 010a bf3e 28f6 333f de37 1c3e 8529 e2be
00000390: a3af b33d b3fb 843d 794b b73e 62ae e6be
000003a0: bcd1 e33e 22e8 81be 96ff 54be 8b6d 8fbd
000003b0: e153 163e ae50 5abe d77b 013f b3e3 c6be
000003c0: 54ff 2fbe 2703 953e 2e7a 5c3e e8a4 97be
000003d0: 289e 8a3e fa26 c33e 60ec 073e 8a58 36be
000003e0: 3953 a13e ce1e 29be 2afe 8e3e 45c0 cebd
000003f0: 9cec aa3e 522a c1be 9b0b 553c 2332 4ebe

fc2.bias f4 [20]
0.003899665 -0.13006996 0.028617911 0.19362436 -0.006247828 0.1762684 0.08993109 -0.1535685
-0.16641943 -0.21850523 -0.10027614 0.15974605 -0.21187064 0.06590876 0.19019887 0.121209495
0.021077998 0.20198037 -0.06624802 -0.051112548
00000000: 8691 7f3b 0f31 05be 1c70 ea3c 7745 463e
00000010: 94ba ccbb b47f 343e cb2d b83d 1041 1dbe
00000020: db69 2abe d6bf 5fbe 945d cdbd 7894 233e
00000030: 9ef4 58be 2cfb 863d 7ec3 423e af3c f83d
00000040: c4ab ac3c f1d3 4e3e 0bad 87bd 645b 51bd

fc3.weight f4 [3, 20]
-0.6074201 0.2516733 -0.107190244 0.5171556 -0.7470806 -0.5929761 0.36028135 -0.3938287
0.31331274 0.19071642 -0.7896061 0.97624624 0.7691402 -0.8437835 0.35655352 0.116752505
-0.13739678 -0.03129897 0.13103573 0.3333108 -0.28234625 0.57916623 -0.2895129 0.28310326
-0.7257772 -0.68539256 0.5991994 -0.25062388 0.2498101 -0.0070608812 -0.78215545 0.9348088
0.7501983 -0.8649708 0.12745759 0.2757291 -0.08494386 -0.2719566 0.2211156 0.41496766
-0.6132853 0.37878045 -0.13856617 0.49742904 -0.77921176 -0.4702459 0.31370082 -0.48460642
0.26389232 0.21939868 -0.8791377 0.92202777 0.72040254 -0.8776163 -0.05256294 0.36287883
0.14630471 -0.059447914 0.22844246 0.13628629
00000000: e27f 1bbf 53db 803e 8f86 dbbd 4f64 043f
00000010: ad40 3fbf 48cd 17bf cc76 b83e eaa3 c9be
00000020: 876a a03e 2a4b 433e a023 4abf 46eb 793f
00000030: 5fe6 443f 3202 58bf 2f8e b63e f01b ef3d
00000040: beb1 0cbe 5933 00bd 3b2e 063e b7a7 aa3e
00000050: b08f 90be 3d44 143f 093b 94be e9f2 903e
00000060: 89cc 39bf e375 2fbf 2265 193f c651 80be
00000070: 38ce 7f3e f75e e7bb 573b 48bf a14f 6f3f
00000080: ff0c 403f ba6e 5dbf 3e84 023e 5d2c 8d3e
00000090: 0cf7 adbd e53d 8bbe 216c 623e a476 d43e
000000a0: 4400 1dbf 83ef c13e 4ae4 0dbe 05af fe3e
000000b0: 6c7a 47bf 12c4 f0be 659d a03e 551e f8be
000000c0: e51c 873e 0caa 603e 2b0f 61bf 030a 6c3f
000000d0: 4d6c 383f 76ab 60bf 3d4c 57bd 41cb b93e
000000e0: e7d0 153e a87f 73bd d2ec 693e a28e 0b3e

fc3.bias f4 [3]
0.14159706 0.0928571 0.24206749
00000000: d2fe 103e dd2b be3d 8ae0 773e
