Bachelor/lightning_logs/version_8/checkpoints/epoch=2-step=159.ckpt (torch, 58587 bytes, 4 tensors)

fc1.weight f4 [10, 1350]
0	0xbbab6605	-0.0052306675
1	0xbc7d6c0b	-0.015467654
2	0xbc184f13	-0.0092961965
3	0x3a423b9b	0.00074093946
4	0x3c879509	0.016550558
5	0x3c6dce69	0.014514544
6	0x3cf64bd9	0.030065464
7	0xbb084cf2	-0.0020797816
8	0x3ce40df1	0.027838679
9	0x3cf56fd6	0.029960554
10	0x3ba59181	0.005052746
11	0xbc2ebc5b	-0.010665025
12	0x3ca1a707	0.019732965
13	0x3b846d26	0.004041332
14	0xbc945ed6	-0.018111628
15	0x3c6d2934	0.014475156
16	0x3cd2dbd4	0.025739588
17	0x3ccde6ab	0.025134405
18	0x3c52b220	0.012859851
19	0x3ce8df9e	0.028426941
20	0x3cf00098	0.029297158
21	0x3c7c40f0	0.015396342
22	0xbbb76dac	-0.0055977907
23	0xbc6f5fd5	-0.0146102505
24	0x3c175f2c	0.009238999
25	0xbc666835	-0.014062931
26	0x3cd9afec	0.026573144
27	0xb9cd13fc	-0.00039115536
28	0xbb085b5c	-0.0020806408
29	0x3c9a9d21	0.018873753
30	0x3ce28dbe	0.027655479
31	0x3b377264	0.0027991766
32	0xbc87d62f	-0.016581623
33	0x3bec349b	0.0072084195
34	0x3be51d8b	0.006992047
35	0xbc7e2ed5	-0.015514095
36	0x3cf5c109	0.029999273
37	0x3cc1fe5d	0.02368086
38	0xbc7d11cf	-0.01544614
39	0x3b689247	0.0035487579
40	0x3c57b90d	0.013166678
41	0xbae3e675	-0.0017387407
42	0x3b5cdc6c	0.0033700718
43	0xbbfdf3de	-0.0077500185
44	0x3c412fc7	0.011791176
45	0xbbd6d37a	-0.0065559717
46	0xb9e3e404	-0.000434667
47	0x3c1a2f1e	0.009410648
48	0xbcb7bc8b	-0.022428771
49	0x3c9b8ac1	0.018987061
50	0xbb2a5a3f	-0.0025993732
51	0xbcc20f55	-0.023688952
52	0x3ca5d594	0.020243444
53	0xbcaf11cf	-0.021370796
54	0x3b5857da	0.0033011348
55	0x3bb604f5	0.00555479
56	0xba84fede	-0.0010146757
57	0xbc89e556	-0.016832989
58	0x3a1e3ba6	0.000603611
59	0x3ca3769e	0.019954022
60	0x3c0da08c	0.008644234
61	0x3b597d58	0.0033186283
62	0x3c83cc3c	0.016088597
63	0x3c784cce	0.01515503
64	0x3cef5853	0.029216921
65	0x3cf1fdd1	0.029539974
66	0xba4f7fb5	-0.0007915453
67	0xbc947a9e	-0.018124875
68	0x3cb43a2c	0.022000395
69	0x3cb7e7e9	0.02244945
70	0xbc8a74fc	-0.016901486
71	0x3c927ffb	0.017883291
72	0xbca244d3	-0.019808209
73	0x3b89a96c	0.004201105
74	0xbc0ccfd4	-0.008594472
75	0x3cd09b10	0.025464565
76	0x3c7e3585	0.01551569
77	0x3c2ab2fd	0.010418651
78	0xbb063df4	-0.0020483704
79	0x3cd26865	0.025684545
80	0xbc066da8	-0.008204855
81	0xbcaa9bea	-0.020826299
82	0x3cbe4a50	0.023228794
83	0x3c1f0103	0.009704831
84	0x3aaeace2	0.001332667
85	0x3c9d7d60	0.019224823
86	0xbcb3c720	-0.021945536
87	0xbc4ab1e9	-0.012371519
88	0xbc1f0574	-0.00970589
89	0xbc75a444	-0.014992777
90	0xbca44309	-0.020051496
91	0x3c9d6390	0.019212514
92	0xb9d41b48	-0.00040456117
93	0x3b4dd88e	0.0031409594
94	0x3c8d4d0e	0.017248657
95	0x3bab5336	0.0052284254
96	0xbcc5fd88	-0.024168745
97	0x3b046c41	0.0020206126
98	0x3c0c138b	0.008549581
99	0x3cec3b1a	0.028836776
100	0x3bc94a03	0.006142856
101	0xbc2435b8	-0.010022573
102	0x3cc4b6f6	0.024013024
103	0xbc3b88b9	-0.011446171
104	0xbc4fb933	-0.012678432
105	0x3ce5d757	0.028056784
106	0xbbdb0ac6	-0.006684634
107	0x3cd35e68	0.025801852
108	0xbc92f86d	-0.017940724
109	0x3c323571	0.010876999
110	0xbcb7b8b4	-0.02242694
111	0xbc341f06	-0.010993725
112	0x3ac51d0a	0.0015038562
113	0xbcaf445f	-0.021394907
114	0xbbd6e9bf	-0.0065586264
115	0x3c473031	0.012157486
116	0x3ce1b492	0.027551923
117	0xbcc996de	-0.024608072
118	0x3c5006b6	0.0126969125
119	0x3cda9b6c	0.026685439
120	0x3b91c862	0.0044489363
121	0xbc94823c	-0.018128507
122	0x3c1e9a23	0.009680304
123	0x3cb57a7b	0.02215313
124	0x3c3ee9b4	0.011652399
125	0xbca8dfc5	-0.020614514
126	0xbb40ae17	-0.002940064
127	0xbc94eaf8	-0.018178448
128	0x3cb3113b	0.021858802
129	0x3b8810ca	0.004152392
130	0x3ce81dd9	0.028334545
131	0xbca116b7	-0.019664152
132	0xbc0a5d87	-0.00844515
133	0xbccf7f2e	-0.025329199
134	0x3cb45c4d	0.022016669
135	0x3cc6aad6	0.024251383
136	0x39af9a10	0.00033493387
137	0xbcc4fc27	-0.024046017
138	0x3c0f81e8	0.008758999
139	0x3cd706e7	0.026248408
140	0x3cc8e16c	0.024521552
141	0xbc3ff132	-0.01171522
142	0x3b42dacc	0.0029732464
143	0x3c4eed56	0.0126298275
144	0xbc39d78c	-0.011342894
145	0x3c1ff446	0.009762829
146	0x3bfe757f	0.0077654715
147	0x3c07c9d9	0.00828787
148	0xbc941ade	-0.018079218
149	0x3c056a39	0.008143001
150	0x3cae302a	0.0212632
151	0x3c9486ce	0.018130686
152	0x3aacfd52	0.0013198054
153	0xbc5a8406	-0.013337141
154	0x3bac0a25	0.0052502328
155	0xbc901ebb	-0.017592778
156	0xbc4bfece	-0.012450887
157	0x3cb74ee6	0.022376489
158	0x3c8ccbdf	0.017187057
159	0x3c5b2d81	0.013377548
160	0x3c6ebee3	0.014571878
161	0x3cb6e4b8	0.022325858
162	0x3ca6da5a	0.02036779
163	0x3c4498b7	0.011999301
164	0x3cc53899	0.02407484
165	0xbcbce4e5	-0.023058364
166	0x3ccfea61	0.025380315
167	0x3ca698c3	0.020336514
168	0xbc2a53ec	-0.010395985
169	0xbc6e9d1a	-0.014563823
170	0x3c1b4797	0.009477518
171	0x3c996a7d	0.018727535
172	0xbafa6495	-0.0019103462
173	0x3c43e9e9	0.011957624
174	0x394a2891	0.00019279333
175	0xbcd792aa	-0.026315052
176	0x3cc4f340	0.024041772
177	0x38a28453	7.749409e-05
178	0x3cac254d	0.02101388
179	0xbb3fa035	-0.0029239778
180	0xbbea70f4	-0.0071545783
181	0x3cb8fb4e	0.022580769
182	0xbc7a2569	-0.015267708
183	0xbb5cf386	-0.0033714487
184	0x3cca0992	0.024662767
185	0xbcb4512e	-0.022011366
186	0xbb5f5d82	-0.0034082835
187	0xbcbdaede	-0.023154672
188	0xbba4b813	-0.005026826
189	0x3bc7e7d2	0.006100633
190	0xbc82581b	-0.015911153
191	0x3c99dfd4	0.018783487
192	0xbc1b0bd0	-0.009463266
193	0xbcaa072d	-0.020755375
194	0xbbfdca7a	-0.0077450844
195	0xbc66aa7f	-0.014078735
196	0x3bb14a6a	0.005410482
197	0xbb384f97	-0.002812361
198	0xbc9994b8	-0.018747672
199	0x3c30ad7e	0.010783551
200	0x3b2c3f1d	0.0026282736
201	0x3cb61224	0.022225447
202	0xbca24682	-0.019809011
203	0xbc180412	-0.009278314
204	0xbcc14d54	-0.023596443
205	0xbc81b3e9	-0.015832858
206	0x3c4a1136	0.012333205
207	0x3929b3be	0.00016184055
208	0xbc0b1bd8	-0.008490525
209	0xbc063fec	-0.008193951
210	0x3b8056f7	0.003916617
211	0xbc08ef4f	-0.008357837
212	0x3c8bd442	0.017068986
213	0xbcbadeb1	-0.022811266
214	0x3b0f99b3	0.002191168
215	0xbaeaff46	-0.0017928861
216	0x3c9a1581	0.018809082
217	0x3c8f96e3	0.017528003
218	0x3ca16c5e	0.019704994
219	0x3bf73e75	0.0075452873
220	0xbc9ff927	-0.019527985
221	0xbba7a3f3	-0.00511598
222	0xbb740f92	-0.0037240726
223	0xbcd8925c	-0.026436977
224	0x3c5d2ce8	0.013499476
225	0x3c64b021	0.013958008
226	0xbc2ed844	-0.010671679
227	0xbc094c5e	-0.008380024
228	0xbc30f539	-0.010800653
229	0xbb9a4d69	-0.004708935
230	0xbcd4c641	-0.025973441
231	0xbc228772	-0.009919988
232	0x3cd53dac	0.026030384
233	0xbc2a200f	-0.01038362
234	0x3ac90d21	0.0015338996
235	0x3adee643	0.0017005879
236	0xbccf02fa	-0.025269974
237	0x3c8e2a6d	0.017354215
238	0x3c031870	0.008001432
239	0xbbbd38e3	-0.0057746037
240	0xbcc90ded	-0.024542773
241	0xbc90cb41	-0.017675044
242	0x3c186a59	0.009302699
243	0x3ba2baf1	0.004966133
244	0x3bb6d535	0.0055796155
245	0xbc598219	-0.013275647
246	0x3c8acd14	0.016943492
247	0xbc5c398b	-0.013441454
248	0xbc87d8fa	-0.016582955
249	0x3c44cc07	0.012011535
250	0xbc9cd6b9	-0.019145356
251	0xbbd46832	-0.0064821476
252	0xbccb72e5	-0.02483506
253	0x3cdc948e	0.026926305
254	0x3c70f631	0.014707134
255	0xbc5207ab	-0.012819211

fc1.bias f4 [10]
0	0x3e29eab1	0.16593434
1	0x3d6f1fe7	0.058380034
2	0x3eaae562	0.3337813
3	0xbd838615	-0.064220585
4	0xbe806747	-0.25078794
5	0xbcee4b3c	-0.029088609
6	0x3e105dfe	0.14098355
7	0xbe3a184f	-0.18173335
8	0x3df855bb	0.12125727
9	0xbcac02fd	-0.020997519

fc2.weight f4 [3, 10]
0	0xbec5611f	-0.3855066
1	0xbe02de11	-0.12780024
2	0x3f388433	0.7207672
3	0xbeb4c218	-0.35304332
4	0xbedd2801	-0.43194583
5	0x3f320a23	0.6954672
6	0xbef1bc0d	-0.47213784
7	0x3f1bdadb	0.6088082
8	0x3ef18b45	0.47176567
9	0xbf17dac6	-0.59318197
10	0xbed1feaa	-0.41014606
11	0xbec1d480	-0.37857437
12	0x3f2df709	0.6795507
13	0xbeb611c2	-0.35560423
14	0xbef27415	-0.4735419
15	0x3f3148b6	0.69251573
16	0xbf00525e	-0.5012568
17	0x3f0b0255	0.54300433
18	0x3f13d79f	0.57750887
19	0xbe8459e5	-0.25849834
20	0xbe40c624	-0.18825585
21	0xbf0eeabe	-0.5582694
22	0x3f2f002f	0.68359655
23	0xbec02db4	-0.3753487
24	0xbef0c290	-0.4702344
25	0x3f3950f0	0.72389126
26	0xbecc0740	-0.3984928
27	0x3f3cd794	0.73766446
28	0x3f182a35	0.594394
29	0xbe259e29	-0.16173615

fc2.bias f4 [3]
0	0x3f17b231	0.59256274
1	0x3f1990e7	0.5998673
2	0x3eb8dca3	0.36105832
