Bachelor/Fit tasks/lightning_logs/version_12/checkpoints/epoch=49-step=3050.ckpt (torch, 58651 bytes, 4 tensors)

fc1.weight f4 [10, 1350]
00000000: d834 a93c ce38 873b 6483 32bc 2645 e03c
00000010: 5e04 083c de5e ef3c 3204 d43c dba6 ca3b
00000020: 09d2 e33b 8a23 c7bb fccf 6f3c 736d ab3c
00000030: 9aff f83c 2a06 c13c 975a 7a3c 0387 a43c
00000040: 278d 54bc cd77 933c b783 7cb9 7f1a 4a3c
00000050: 7782 4ebc c090 c93b 0272 20bc f189 4d3a
00000060: b12f 153c 0213 d73c c5ce 59bb ac70 d83a
00000070: 3f31 c43c 58d4 9f3b 9723 7cbc 31cd 933c
00000080: d8a5 f33c b244 f03c 4c4d 1ab9 075f c53c
00000090: ff85 e63c ca36 ad3c 383e 90bb 87a0 05b9
000000a0: 1cb2 08bc b3c2 a6bc 1ef1 e03c 5f21 38bb
000000b0: f61c 5bbc cc5b 2ebc 8dc8 5bbc 12ce 4c3b
000000c0: 0a96 843c e335 0dbc f4a0 263c 1e8c 5dbc
000000d0: fae0 a33c d826 f43b 91a2 8dbc 6dee 9e3c
000000e0: 67a6 f8bb b760 91bc 1654 fc36 c9ba 86bc
000000f0: 74ad 91bc 260d 6a3b 1a70 83b8 78a0 b23c
00000100: 41f4 b0bb fbd8 9c3b 4e6c 053c a09c b53c
00000110: 4a1b 40bc 6f34 b43c dbc8 6a3c 83d9 febb
00000120: 4524 7bbc 85f9 dfbb c5d7 27ba 1732 483c
00000130: 88ea db3c a11b 883b 1e96 a23c fa14 84bc
00000140: fa55 153c 3821 aa3c f1ab 85bc bf5e 733c
00000150: 490a edbb ea50 b2bb e143 9c3c 78da 7f3c
00000160: 371a 3e39 a8f5 55bc 8291 72bc 32b9 eb3c
00000170: d3ec 9b3c 294c babc fa5e a13c 44be 6ebc
00000180: d98b 8bbc c0ae b8bc 2772 d53c ea21 42bb
00000190: 2ca5 be3c 8d65 5c3b ca5b 323c cf90 bebc
000001a0: dc5c 6bbc 6dfe 903c 97f1 e33b 9568 55bc
000001b0: 29a2 9f3c 6169 5f3c 6fe8 273c 8013 12bc
000001c0: 8ebf e33c 7ae2 56bb 1187 233c 1a84 94bb
000001d0: 5917 e23c 2d7b 50bc 4c27 843c d062 d73c
000001e0: 26fa f63c 597d 93bc 87aa f13c 3849 acbc
000001f0: d017 68bb 509c 553c bff4 01bc d1aa 233b
00000200: a95a 71bc c7cf ffba 5bd6 053c e76a 863c
00000210: 53ff e6bb d578 b2bc 2517 21bc 05dd 89bc
00000220: f798 ae3c f6b5 43bc 1392 c8bb 15f3 483c
00000230: 5cdd 9ebb fbc2 40bc 4eee 1dbc 38d0 b13b
00000240: fd63 193c f778 ceb9 7ac2 4f3c 41be 2dbc
00000250: c0c4 47bb 08c7 e33c 71d0 443c 0526 e93c
00000260: 5af5 bfbc b161 be3b a7f2 47bb 9e14 d8bb
00000270: 88a0 1b3b 4433 a93c 4926 5cbc c0e0 5a3a
00000280: cd8d 243b bab4 a33c 15b3 febb 0eee 00bc
00000290: a96e 623b 06e5 74bc 9bdc 48bc b6f4 ca3c
000002a0: 5221 bfbc 0573 453c 8d14 b5ba ef19 cf3c
000002b0: eb1b c63c 72c6 893b 758e 3eba be12 3f3c
000002c0: 8ebf d93c eca5 bdbc 0e4b 3a3b deff deb9
000002d0: e26e b4bc 6844 a03c b3b5 b1bb 4ec3 383a
000002e0: 93ba c63c c943 8d3c c7d7 f83b 1447 ab3c
000002f0: de82 6bbb bfc5 95bc 5f89 5a3c f8c4 6bbc
00000300: 097b ce3c 6804 0cbc 7099 c3bb 26ca 8d3b
00000310: 070e dc3c f0e6 52bb 0996 85bc b781 a1bc
00000320: 259d 993c 7ade 993b 8102 46bc 58f2 08bc
00000330: 9da0 8b3b b784 34bb 2fd1 a63a c362 50bc
00000340: ff7c 573c d3bd 4abc ce77 e4bb 5d92 aa3c
00000350: 81a0 99bc 5003 943c dc06 553c 34d8 753c
00000360: b9a0 00bb ca38 ce3c 1421 b4bc 6652 433c
00000370: 9d5e 72bc c1e8 303c 3909 be3b 46b1 bfbc
00000380: 3b67 693c 2577 acbc 77b6 093b 0392 8cbc
00000390: a285 0dbb 500b 103a 78d4 f0bb 2195 a6bc
000003a0: 432c 0cbc f8d7 4abc cfbb be3a 332d c13c
000003b0: 433d 5a3c 955b 92bc f6e5 99bb 66b6 883c
000003c0: 15fa 2e3c c663 8438 e4c7 afbb 31f0 a83b
000003d0: 48af f5bb 7eb2 933c 4744 27bc b1b5 2fbc
000003e0: 5192 06bc 3184 823c 4430 183b d310 8cba
000003f0: b144 86bc 25ab 34bc 8160 c0ba 8411 2dbc
0.02065508 0.0041266447 -0.010895584 0.027376723 0.0083018225 0.02922004 0.025880907 0.0061844415
0.0069525284 -0.0060772346 0.01463699 0.020926213 0.030395318 0.02356251 0.015280387 0.02008391
-0.0129731065 0.018001461 -0.0002408166 0.012335419 -0.012604347 0.0061512887 -0.009792807 0.0007840684
0.009105609 0.02625418 -0.0033234817 0.0016513071 0.023949264 0.0048776083 -0.015389345 0.018042179
0.029742166 0.029329631 -0.0001471538 0.024093164 0.028140066 0.02114429 -0.0044019483 -0.0001274367
-0.008343246 -0.020356512 0.027458724 -0.0028096063 -0.013373604 -0.010642003 -0.013414514 0.0031250757
0.016184825 -0.008618805 0.01017021 -0.013522176 0.020004738 0.0074509196 -0.017289432 0.0194008
-0.007588196 -0.017746313 7.519974e-06 -0.016446488 -0.017782904 0.0035713403 -6.267447e-05 0.021805033
-0.005400211 0.0047866083 0.008143498 0.022169411 -0.011725256 0.021997659 0.014330114 -0.0077773943
-0.015328472 -0.006835165 -0.00064026966 0.012218974 0.026845232 0.0041536842 0.019846972 -0.016123284
0.009114737 0.020767793 -0.01631734 0.014854132 -0.007233892 -0.0054417746 0.019075336 0.015616052
0.00018129578 -0.013059057 -0.0148052 0.028774831 0.019033825 -0.022741394 0.019698609 -0.01457173
-0.017034458 -0.022544265 0.026055409 -0.0029622265 0.02327212 0.0033629865 0.010886142 -0.02326241
-0.014365401 0.017699445 0.00695629 -0.013025423 0.019486504 0.013635964 0.010248288 -0.008915782
0.027801301 -0.00327888 0.009980933 -0.0045323493 0.027599024 -0.01272468 0.01613202 0.026292235
0.030148577 -0.018004106 0.02950026 -0.021031007 -0.0035414584 0.013037756 -0.007931887 0.002497364
-0.014731088 -0.0019516879 0.008168782 0.016408397 -0.00704948 -0.021786133 -0.009832178 -0.016829023
0.021313174 -0.011945238 -0.006120929 0.0122649865 -0.0048481654 -0.011765237 -0.009639336 0.005426433
0.009362218 -0.00039381508 0.012680644 -0.010604442 -0.0030482262 0.027804866 0.012012587 0.028460512
-0.023432422 0.0058099856 -0.0030509622 -0.0065942546 0.0023746807 0.020654328 -0.013436862 0.00083495304
0.0025108934 0.019983638 -0.007772813 -0.007869257 0.0034550822 -0.014947182 -0.012259628 0.02477489
-0.023331318 0.012051349 -0.0013815329 0.02528092 0.024183234 0.0042045647 -0.00072691526 0.011662183
0.026580598 -0.023150407 0.0028426084 -0.00042533776 -0.02202553 0.019563869 -0.0054232716 0.00070481456
0.024258887 0.017244237 0.007594082 0.020907916 -0.0035936157 -0.01828277 0.013338416 -0.014390223
0.025205152 -0.008545972 -0.005969219 0.0043270765 0.026862158 -0.0032181107 -0.016306894 -0.019715173
0.01875169 0.0046957107 -0.012085558 -0.0083585605 0.00426109 -0.0027544925 0.0012727136 -0.012718859
0.01315236 -0.012374359 -0.0069722896 0.020821745 -0.018753292 0.018067986 0.013002124 0.01500516
-0.0019627048 0.025173564 -0.02198843 0.011921501 -0.014793065 0.01079768 0.0057994393 -0.02339996
0.0142458035 -0.021052906 0.0021013299 -0.017159468 -0.0021594544 0.000549485 -0.007349547 -0.020334782
-0.008555475 -0.0123805925 0.0014551821 0.023581123 0.01332027 -0.017865935 -0.004696603 0.016688537
0.010679741 6.312835e-05 -0.005364405 0.005155586 -0.007497702 0.018029448 -0.01020915 -0.010724471
-0.0082135955 0.015932174 0.0023222128 -0.0010686166 -0.016390176 -0.011027132 -0.0014677198 -0.010563258

fc1.bias f4 [10]
00000000: 9f73 173e bd8c b13e b126 17be 615c 3cbe
00000010: 725d 113e 546f ed3d 88b8 a83c 5bfe 1d3e
00000020: fc59 3fbd 72a0 873e
0.147902 0.34677687 -0.14760853 -0.18394615 0.14195803 0.115935 0.020595804 0.1542906
-0.046716675 0.26489598

fc2.weight f4 [3, 10]
00000000: f6c8 c7bd 57b8 213f ad35 dabe bf05 fe3e
00000010: 6abc b4be d77d ccbe 4e0e 113f 15a5 09bf
00000020: d2c4 323f 0b7d 0f3f 851f 02bf 089d 193f
00000030: b4df fbbe a633 103f 2382 0cbf 6217 423c
00000040: de6b 0d3f 7a98 83be f559 303f 5061 183f
00000050: d789 a5be 81b6 293f 216c f0be 5aa9 f63e
00000060: 59bb c2be b710 4fbe d64d 183f a55a e7be
00000070: d2d2 393f 1752 053f
-0.09755127 0.63171905 -0.42619076 0.4961376 -0.353 -0.39939758 0.5666245 -0.5376752
0.69831574 0.56050175 -0.50829345 0.60005236 -0.4919411 0.5632881 -0.5488607 0.011846395
0.5524272 -0.25702268 0.68887264 0.5952349 -0.32331726 0.66294104 -0.46957496 0.4817608
-0.3803356 -0.2022122 0.5949377 -0.45186344 0.7258731 0.52078384

fc2.bias f4 [3]
00000000: 44a1 cd3d 2cea 823d 6c4b b13d
0.100405246 0.06392321 0.08656964
