Bachelor/Fit tasks/lightning_logs/version_16/checkpoints/epoch=49-step=3050.ckpt (torch, 221147 bytes, 4 tensors)

fc1.weight f4 [40, 1350]
00000000: 7a49 c83c a6f2 d2bc 6904 d2bc 45ea 95bc
00000010: f91e 2e3b b6fc 963c 3c26 313c 21b2 29bc
00000020: 498c cd3c e909 a5bc 319d 503c 8bb0 b2bb
00000030: 59c3 34bc bd7f de3c 12da 8cba 70bd 2d3c
00000040: 7ca2 8e3a 27f5 353c 11e8 b53c 9a97 b63b
00000050: 883d cb3b 01c8 92bc abb1 21bc 5c3f 983b
00000060: ece7 3cbc 5fd6 37bb 7cdc 58bc 27bb 233c
00000070: dcef d13c 20b9 aabc cead a9bb d57c 8fbc
00000080: 669f de3c 8764 853c 9480 abbc 4516 643c
00000090: a7c3 d0bc 9653 a53c 5902 473c 81ea 16ba
000000a0: 8de9 abbc 19ff 74bc 5935 9abb 1e0d 6a3b
000000b0: 2800 bdbc 58e0 4a3c 509a a2bc a343 223c
000000c0: 1183 803c cc5b c73c 13c2 fe3b 4b60 bebc
000000d0: 9a87 a13c b1db 8e3c 0534 243c 9f27 10bc
000000e0: 940c 2ebc 34cd b3b7 1e22 4f3c 3a26 8939
000000f0: 692d 12bc 8dc5 83bc 2dee 0c3c aa37 7bbc
00000100: 9262 a13c 25e7 babc a270 ab3c acc8 d4bb
00000110: 4bb9 9b3a 0372 803a 9051 933c c9d0 303c
00000120: 7f5f 6fbc eed1 1abc c152 c3bc 3566 933b
00000130: 6b3a d639 dfdd bdbc cd18 15bc a56a 3f3c
00000140: d7a0 55bc ce1e a4bc 5ba7 9a3c 0d7f 3dbc
00000150: 16c6 68ba 2fa7 2e3c 3802 b5bc 9b35 6a3c
00000160: c85e 94bc 4b8d f23b 263a d23c 44c8 49bc
00000170: 46a8 093c a292 653c 70f1 cfbc f3a7 c2bc
00000180: 56cb a83b f2b3 c6bc 9816 c43c 99a1 6c3c
00000190: 429d 10bc 0e08 423c 49fe 90bc 0d79 4e3c
000001a0: c5bc 1c3b 10b4 cebc 91c9 30bc 6453 14bc
000001b0: dd3f 8d3c 6c6d d0bc 5b01 debb 6007 c93c
000001c0: 33e0 a53c 0b9b 15bc 50cb a0bc 29b7 aa3b
000001d0: 8067 323c 6833 813c b4f8 393c 9f50 2f3c
000001e0: 2a5c 943c 524a 893c 659e afbc 0cf7 853b
000001f0: 0681 8cbb 7958 923c ab5b 463c 1c9f 063b
00000200: 41cf 6cbc ec18 8fbc aa99 de3c e4d2 c93c
00000210: 00f2 b3bc 8de4 8fbc ba29 9cbb 2210 b8bb
00000220: a6ef 67bc 5c1d 5ebc f739 b73c d092 c63c
00000230: a1ef c13c 3b62 843c 210c e53c 8eb7 93bc
00000240: 6971 c33c 3475 873b 54ef 92bb e4c4 95bc
00000250: c8bb 8bbc 1e82 5a3c 8bda a0bb 7ac0 47bc
00000260: 9315 7b3c d265 b23c 061a a23c d38a 403c
00000270: 186f 92bc b977 91bc 7852 29bc 1aba 503b
00000280: ca96 11bc 9373 753b 48c9 5a3b d0d7 6bbc
00000290: a8fd b63c 2853 14bc 5cd7 88bc d327 9a3c
000002a0: 6011 3dbb 3c80 3a3b 9d4f 033c a252 c93c
000002b0: 66a2 95ba a09a efbb 24cf a33c 9be6 853c
000002c0: 0892 ad3c 4479 d73c c532 8c3b e4b8 7b3c
000002d0: c8a5 043a bfe0 d23c 8997 8dbc 3783 2f3c
000002e0: 6d12 be3c a0ed c13c 468d 753b 033f 6f3b
000002f0: 6de0 bb3c 6565 c7b7 bb70 88bc 36c6 d1bc
00000300: e7a2 d83c a9fc 94ba a20c b33c ed67 e53c
00000310: 3527 f9bb 1660 1a3c 2a75 bf3c 47a1 dc3c
00000320: c650 e63c c4aa c13c fe1f 8c3b 1967 8d3b
00000330: 2d1b 98bc 1ebf e43c 9c02 53bb 8f25 e33c
00000340: b649 29bc dd2a afbc 7f0c dd3c f518 1c3c
00000350: 4230 a8bc 37bf a33c 1421 cf3c 7536 343b
00000360: 5f97 6f3c 7fa5 f83b f0cf 92bc 0f3d 483c
00000370: 5ea0 a33c 3f95 da3c c3d2 aabc 8b22 a13b
00000380: fef1 003c f690 c13c fed6 cd3c 4631 9cbb
00000390: 6ee2 b03c bfad 29bc 03f6 0d3c 238c 183c
000003a0: 308e e33b 8d8b 59bb 9849 98bc 9e67 ac3b
000003b0: 861b 983a aae2 be3c 9c49 23bc 39a4 663b
000003c0: 65c1 2abc 598f 7dbc 9c87 91bc 95e6 913c
000003d0: a528 953b 2711 a3bb b6e8 b13c e3d5 07bc
000003e0: 84f1 09ba 590d 83bc f200 1b3b 095c c8bc
000003f0: f065 b53c 8979 fd3b 0674 c53c bb72 87bc
0.024449099 -0.02575047 -0.025636869 -0.018300185 0.0026568754 0.018431049 0.010812338 -0.010357411
0.025091307 -0.020146327 0.01273279 -0.0054531745 -0.011032903 0.02716052 -0.0010746142 0.010604247
0.0010882164 0.011105812 0.022205384 0.0055722715 0.0062024035 -0.017917635 -0.0098690195 0.004646225
-0.011529904 -0.002805136 -0.013236161 0.009993351 0.02562707 -0.020840228 -0.00517819 -0.01751558
0.027175616 0.016283287 -0.020935334 0.013921325 -0.02548392 0.020181458 0.012146556 -0.00057569897
-0.02098539 -0.014953398 -0.0047060666 0.0035713385 -0.023071364 0.012382589 -0.019848973 0.009903821
0.015687497 0.024335764 0.0077746003 -0.023239275 0.01971798 0.017438741 0.010022168 -0.008798509
-0.010623116 -2.1434018e-05 0.0126424115 0.00026159157 -0.008921959 -0.01608541 0.008601707 -0.015333096
0.019700322 -0.022815296 0.020927731 -0.0064936485 0.0011880783 0.0009799603 0.017983228 0.010791966
-0.01461017 -0.009449465 -0.023843171 0.004498268 0.00040860786 -0.023177085 -0.009100151 0.011683141
-0.0130388355 -0.02003422 0.01887863 -0.011565936 -0.0008879615 0.010659977 -0.022095785 0.014295007
-0.018111601 0.0074020973 0.025662493 -0.012315813 0.008401936 0.014012011 -0.025383681 -0.023761725
0.0051511927 -0.024255726 0.023936555 0.014442825 -0.008826556 0.011842741 -0.017699378 0.012602103
0.0023916226 -0.025232345 -0.010790245 -0.009053085 0.017242366 -0.025442801 -0.006775064 0.02453965
0.020248508 -0.009131203 -0.019628197 0.0052098227 0.010888934 0.015771583 0.011350799 0.010700374
0.018110353 0.016759071 -0.021437833 0.004088288 -0.0042878417 0.017864453 0.012106816 0.0020541614
-0.01445371 -0.017467938 0.027172882 0.024636693 -0.02196598 -0.017565036 -0.0047657164 -0.0056171576
-0.014156258 -0.0135568045 0.022366507 0.024239928 0.023673834 0.016160121 0.027959885 -0.018031862
0.02385779 0.0041338447 -0.0044840965 -0.018282361 -0.017057315 0.013336686 -0.004908865 -0.012191886
0.015324968 0.021777067 0.0197878 0.011751848 -0.01787524 -0.017757284 -0.0103346035 0.0031849206
-0.008886049 0.003745292 0.0033384133 -0.014394715 0.02233775 -0.009053029 -0.016704254 0.018817818
-0.0028849468 0.0028457781 0.008014587 0.024575535 -0.0011416196 -0.007312134 0.019996233 0.016345313
0.021187797 0.026302941 0.004278513 0.015363906 0.0005060104 0.025741933 -0.017284172 0.010712436
0.023202145 0.023672879 0.0037468239 0.0036506064 0.022934163 -2.3769864e-05 -0.016655317 -0.02560721
0.026444865 -0.0011366803 0.02185661 0.028003657 -0.007603551 0.009422323 0.023371298 0.026932372
0.028114688 0.023640998 0.0042762747 0.0043152687 -0.018567646 0.027923163 -0.00321976 0.02772787
-0.010332515 -0.021382743 0.026983498 0.009527435 -0.020530824 0.01998864 0.025284328 0.002749828
0.014623492 0.007588088 -0.017921418 0.012221589 0.01997393 0.026682494 -0.020852452 0.004917448
0.007870195 0.023628693 0.02512693 -0.004766616 0.021592345 -0.010356366 0.008664611 0.009310755
0.0069444403 -0.003319475 -0.01858978 0.0052613756 0.0011604882 0.023301441 -0.00996628 0.00351931
-0.010422085 -0.015476071 -0.017764859 0.017810145 0.0045519643 -0.00497641 0.02171741 -0.008290741
-0.0005262124 -0.015997576 0.0023651686 -0.024457948 0.022143334 0.0077354354 0.024103176 -0.0165342

fc1.bias f4 [40]
00000000: 4463 9dbd 6e22 f4bc 684a 41bd c44c 103e
00000010: 0a68 b3bc b26a b0bc fe22 343e f0f3 a1bc
00000020: 13cb 76bd 1433 1ebe a045 ad3b 25ff 81bd
00000030: e8d6 613c 2f8e f0bd b991 5cbd b61b 1dbe
00000040: 67e4 babc 47f3 6c3d faf8 04be 3d2b 1c3c
00000050: 5337 23bd 237b f7bd bb71 153d a32a cdbd
00000060: 0d43 1c3c 0310 393e 6c3f 573c 226c cf3d
00000070: 3db2 9abc 0ec8 51bd 81ee a4bb 196e b0bc
00000080: 53e4 54bb 3649 8fbb 3cd1 d6bd 032d 41be
00000090: aff1 3fbc 3d29 afbc c97a 5bbd 0d88 58bd
-0.07684949 -0.029801574 -0.0471901 0.14091784 -0.021900196 -0.021535251 0.17591473 -0.019769639
-0.06025226 -0.15449172 0.005287841 -0.06347493 0.013784148 -0.11745869 -0.05384991 -0.15342602
-0.022813989 0.057849195 -0.12985602 0.009531793 -0.039847683 -0.12084033 0.036485415 -0.10017898
0.0095374705 0.18072514 0.01313768 0.101280466 -0.018883819 -0.051216178 -0.0050333147 -0.021536874
-0.0032484725 -0.004372741 -0.10489127 -0.18864827 -0.011715337 -0.021381969 -0.053583894 -0.052864123

fc2.weight f4 [3, 40]
00000000: 977e d53d bbdf ef3d d5a5 ea3c 6487 1a3e
00000010: 96be 2cbe 1787 4f3e ba11 6d3e 48dd 7eba
00000020: adca 2b3e d1d5 9cbe 2555 9e3e 9f4b 63be
00000030: bcd3 403e 0cfe 6abe a9db 2ebe 1840 90be
00000040: ba99 31be 36f1 183e 06e7 75be 12cc 3fbe
00000050: c8e9 f9bc 3180 05be f289 34bd 0341 91bd
00000060: 84c7 453e 2a50 6b3e fefd e43d bcb5 3e3e
00000070: da6e ad3d 5cff 443d d44d 9d3e 8239 083d
00000080: bda3 4b3e 3f75 7e3d df7d cabd f0a9 a1be
00000090: 828a 3f3e daff 2a3e 7b5a b6bd 73a7 893e
000000a0: 5a05 5a3e 7eaa 173e c0b3 173e 2343 5b3e
000000b0: 9eec 02bb ff5d 5d3d 3c50 ac3d 0d74 7b3e
000000c0: 8691 393d 8eff 25be 9c61 213e 4a3a 463b
000000d0: 0862 263e 180f 4ebe 0402 8a3d 67e3 45be
000000e0: c4d3 82bd 93da 163e f554 6cbe 9ed6 a5be
000000f0: 361b 27be 1b65 07be 7adf 693e 5661 26be
00000100: eb8a 883e 5485 a73e 7996 003e 7705 ba3d
00000110: a852 673e 7beb 19be 63f4 513e a42b 52bd
00000120: bf56 e43d 5f30 653e a704 56be 8ddd c6be
00000130: 3616 463b 8605 3b3e 2430 c5bd cc90 e93c
00000140: d018 0a3e fb14 7a3e bbe1 563e 6c72 f13d
00000150: e263 b3bc 701d 383e 5e93 543e 6500 683e
00000160: d08f 1e3e a299 7bbe 435c 113d 1150 89bc
00000170: b447 2b3e f150 90bd cb6a 29be 807f 90bd
00000180: 238c 07bd 72e3 603d 61a9 80be d9d6 46be
00000190: e0c0 47bc 5d77 9bbe b81c 453e 16dd 82be
000001a0: 89a2 0e3e 3eea 953e e0c2 1b3e aeef 9f3d
000001b0: fccf 1b3e bab8 fabd 7518 cf3d 1675 43be
000001c0: edee 1c3e 21f8 773e 7f49 36be ea32 c3be
000001d0: 5048 063e f2f5 803e d0d8 dabd 5b2a a0bb
0.10424536 0.11712595 0.028643528 0.1509071 -0.16869578 0.20266376 0.23151293 -0.00097223045
0.16776533 -0.3063188 0.30924335 -0.22196816 0.1883077 -0.22948474 -0.17075981 -0.281739
-0.17343798 0.14935765 -0.2401391 -0.1873019 -0.030506983 -0.13037182 -0.044076867 -0.07092478
0.1931439 0.22979799 0.11181258 0.18624014 0.08468409 0.048095092 0.3072344 0.03325797
0.1988668 0.062123533 -0.09887289 -0.31574965 0.1870518 0.16699162 -0.089039765 0.26885566
0.21291104 0.14811131 0.14814663 0.2141233 -0.001997746 0.05404472 0.08413741 0.24555989
0.045304798 -0.16210768 0.15759891 0.0030247145 0.16248333 -0.20122945 0.06738666 -0.19325028
-0.06388047 0.14731817 -0.23079284 -0.32390302 -0.16318974 -0.13222162 0.22839156 -0.16248068
0.26668486 0.3271891 0.12557401 0.090830736 0.22590125 -0.15031235 0.20503382 -0.05131115
0.11149358 0.22381733 -0.20900212 -0.38840905 0.003022564 0.18263826 -0.09628323 0.028511427
0.13486028 0.24422066 0.20984547 0.11789402 -0.021898214 0.1797998 0.20759341 0.226564
0.15484548 -0.24570325 0.03548838 -0.016761811 0.16726571 -0.07046688 -0.16544645 -0.07055569
-0.03309263 0.05490441 -0.25129226 -0.19417895 -0.012191981 -0.30364504 0.19249237 -0.255593
0.1392919 0.29280275 0.15211058 0.07809387 0.15216058 -0.12242265 0.10112087 -0.19087633
0.15325518 0.24215747 -0.17801474 -0.38124782 0.13113523 0.2518764 -0.10685885 -0.0048878617

fc2.bias f4 [3]
00000000: 6efe 02be cebf 51be 3eea 07be
-0.1279237 -0.20483324 -0.1327295
