lightning_logs/version_6/checkpoints/epoch=4-step=6565.ckpt (torch, 907366 bytes, 20 tensors)

encoderIn.weight f4 [128, 784]
000000 a2 d1 dd 3c 90 40 11 3c 10 e8 69 3b 40 d7 eb 3a
       0.0270775 0.008865491 0.0035691299 0.0017993227
000010 6e 86 9d 3c b8 dd dd bb 20 36 47 bb a7 52 94 bc
       0.01922914 -0.0067708157 -0.0030397251 -0.018105818
000020 ae 0e c1 3c aa ea fd 3c 88 cd a3 bb 10 dd 53 3c
       0.02356657 0.030995686 -0.0049988665 0.012931123
000030 d1 4f fa bc 5d fa b8 3c 0a 90 9b 3c 78 35 18 bc
       -0.030555638 0.02258032 0.018989582 -0.009290092
000040 c8 2f 5e 3c 88 d2 ec 3b 14 a5 a3 bb 94 c3 7a 3c
       0.013561197 0.0072272457 -0.004994044 0.0153054185
000050 a0 a9 18 bc 20 f2 3a bc 00 40 12 36 ea 7d 7d bc
       -0.0093177855 -0.011410266 2.1792948e-06 -0.015471915
000060 a2 56 e2 3c fa d2 a3 3c 7e ef d7 3c 40 bc df 3a
       0.0276292 0.019998062 0.026359316 0.0017069653
000070 dc 1d 90 bc 18 41 c1 bc 10 13 5c 3b 9a b8 ae bc
       -0.017592363 -0.02359061 0.0033580698 -0.02132826
000080 65 84 e1 bc 12 7e 28 bc a0 20 a8 ba 7c 07 00 bd
       -0.027528951 -0.010283964 -0.0012827106 -0.031257138
000090 c2 0a 51 bb 72 20 30 bc 91 a6 fb bc 29 4d 27 bc
       -0.0031897281 -0.010749923 -0.030719073 -0.0102112675
0000a0 63 e3 9d bc d2 b4 3b 3c 43 78 67 bc 96 d7 40 3c
       -0.019273465 0.011456685 -0.014127794 0.01177015
0000b0 11 4e e7 3c 1f ed d3 3c fe b8 97 3c d9 21 21 3c
       0.028235467 0.025869904 0.018520828 0.00983473
0000c0 27 df e6 3c fc 67 b5 bc f2 e4 f0 39 49 60 57 ba
       0.02818258 -0.02214431 0.00045946945 -0.0008215947
0000d0 c2 cf 0a bd cf 59 0c 3d f2 79 b4 3c ee 5f e1 3c
       -0.03388954 0.034265336 0.022030804 0.027511563
0000e0 7c d8 ff bc 38 65 bd bc 68 4e 92 3c 38 d6 2b bc
       -0.031231157 -0.023119554 0.017859653 -0.010488085
0000f0 c0 8c 95 3c 45 b6 84 3b 47 8a 88 bc 38 99 93 3c
       0.018255591 0.0040500485 -0.016667498 0.018017396
000100 e5 17 06 bd d9 cf 0b bd b4 de 4d bc 89 52 f7 bc
       -0.03273763 -0.034133766 -0.012565304 -0.030190723
000110 9a b6 7b 3c b9 97 85 3c 96 7e 06 3b a8 ff 23 3c
       0.01536336 0.016307699 0.0020522228 0.010009684
000120 9d 44 6d 3c 31 c3 24 3c d7 11 9b bc b7 22 9b 3c
       0.014481691 0.010056303 -0.018929405 0.018937452
000130 6a 6a 0e bb 93 d6 ed bc 81 45 e5 3c ce ee 6a bc
       -0.0021730908 -0.029032981 0.027987244 -0.014339162
000140 3e f6 9c bc dc 06 99 3c 48 4d 7b 3c 95 42 c4 bc
       -0.019160386 0.018680029 0.0153382495 -0.02395753
000150 58 c1 03 3c ca b2 24 bc 00 53 da 39 1e 38 c8 bb
       0.008041702 -0.010052392 0.0004164204 -0.0061102053
000160 a1 2f f6 3b e7 18 06 bd 6b 37 f3 3c bb ee 6f bc
       0.007513002 -0.032738592 0.029689511 -0.01464432
000170 7d c7 84 3b 28 05 65 bc be 42 cd bc 93 99 d7 3c
       0.004052101 -0.01397828 -0.02505624 0.026318347
000180 b1 b9 54 bc 69 bb ce 3c 8a 1e dd 3c 05 9d 99 bb
       -0.012983725 0.025235849 0.026992101 -0.0046879076
000190 b0 43 ab 3c 99 3c 10 bd a9 d4 ea 3c 95 e5 03 bd
       0.0209063 -0.03521404 0.028665857 -0.03220137
0001a0 7d fa d9 3c 72 13 bc 3c b5 ea 05 bd 9a c5 57 3c
       0.0266087 0.022958491 -0.032694537 0.0131696705
0001b0 a1 bb da 3b 73 ae fa bc e0 3a c0 ba c8 53 a1 3b
       0.006675199 -0.030600762 -0.0014665984 0.0049233176
0001c0 00 17 82 3a 7c 44 ba 3c 7d e2 01 bd 9c a3 87 bc
       0.0009925067 0.022737734 -0.031710137 -0.016557507
0001d0 67 7b d4 bb 81 8f ef bc 44 ed a5 3c b9 17 7e 3c
       -0.0064844373 -0.029243233 0.020254739 0.015508586
0001e0 67 e3 a0 bc 33 5c 37 3c 8f e8 d7 3c b2 18 ca 3c
       -0.019639684 0.011191416 0.02635601 0.024669979
0001f0 25 65 82 bc 71 e2 77 3c 8f d8 03 3d 74 6a c4 bc
       -0.01591737 0.015129671 0.03218895 -0.023976542
000200 1f d3 03 3d 5d b0 5e bc 0f b7 ba bc fd 44 d1 3c
       0.032183763 -0.013591853 -0.022792367 0.025545591
000210 50 05 13 3b be 03 84 bc cf f8 6d bc 9f b2 fa bc
       0.0022433586 -0.016115066 -0.014524653 -0.030602751
000220 46 25 a9 bc 7b 91 34 3c 65 38 07 3d 30 f5 93 3c
       -0.020647656 0.011021013 0.033012766 0.01806125
000230 34 43 5c 3c da 97 da bc d8 13 80 3c b7 ca 10 bd
       0.013443757 -0.026683737 0.015634462 -0.035349574
000240 4c 4e 47 3c 74 f8 42 bc 95 84 b7 3b 85 a9 0c 3c
       0.0121646635 -0.011900056 0.005600522 0.0085853385
000250 7f 5a 88 bc 61 b3 d9 bc 4c eb d1 bc 87 71 f3 bc
       -0.016644714 -0.026574792 -0.025624894 -0.02971722
000260 d8 9f b0 3c 12 ab 02 bd 14 73 f3 bb 89 0f c3 bb
       0.021560594 -0.031901427 -0.00742949 -0.0059527797
000270 80 a6 ea bc b0 cb 93 bc 92 dd 82 3c 9e ff 88 3b
       -0.028643847 -0.018041462 0.015974794 0.0041808626
000280 a1 ce ab bb ea c2 9e bb 02 dc 64 bc 60 21 12 3c
       -0.005243138 -0.004845013 -0.01396847 0.00891909
000290 32 48 e4 bc 3d f6 24 bc f5 73 f4 bc 68 4f de 3b
       -0.027866457 -0.010068473 -0.029840449 0.0067843683
0002a0 70 d1 5e bb 35 6b d2 bc de 25 c2 bc 9d 74 cd bc
       -0.0033999346 -0.025685886 -0.023699697 -0.02508002
0002b0 74 e8 81 bc e9 9c b7 bc 59 11 2c 3b 90 18 f2 3c
       -0.015857913 -0.022413688 0.0026255457 0.029552728
0002c0 38 5d e5 3c 6a 54 cb bc 1e 8d c2 3c 1c 97 a3 b9
       0.027998552 -0.024820525 0.02374893 -0.00031202368
0002d0 e1 45 85 bc f8 d5 61 3c 39 c2 dd ba 5a 7c 85 3a
       -0.016268672 0.013783924 -0.0016918845 0.0010184154
0002e0 62 28 a8 3c f9 3f 25 bc 2c 07 d5 3c 1b 28 2b bb
       0.020527069 -0.010086053 0.026004396 -0.0026116434
0002f0 50 ba 11 bd cb 48 a2 bc 95 d2 ed bc 35 43 93 3c
       -0.035578072 -0.019810101 -0.029031077 0.017976383
000300 7a 67 ee 3c 2c 73 c3 3b 87 54 87 3c 16 e4 d4 3c
       0.029102076 0.0059646573 0.016519798 0.025987666
000310 1e 6d 98 3c c7 77 f4 3c 4d 2d 00 3d db 2c 01 3a
       0.018606719 0.02984227 0.031293202 0.00049276435
000320 8e 50 de bc b2 6c c8 bc 0f 3a 0a 3b ee 6a ed 3c
       -0.02713802 -0.024465892 0.0021091735 0.028981652
000330 18 fe 0a bd d3 3b 10 bd 42 e3 a5 3c 9d 3e d8 bc
       -0.03393373 -0.035213303 0.020249967 -0.026397044
000340 ec b2 cf bc 1c ab 9a 3c 72 5e 8a bb 98 6e b7 bc
       -0.025353871 0.01888042 -0.0042226845 -0.022391602
000350 e8 60 a8 bc bf b7 a9 bc 85 59 9e 3b 98 42 46 bc
       -0.020554021 -0.0207175 0.004832449 -0.012100838
000360 a7 03 da bb 2d fb b1 bc 8c 5d 92 bb b9 fc 0e bd
       -0.0066532674 -0.021726215 -0.004466718 -0.034908984
000370 66 a0 8d 3c c7 27 c4 bc 8a fb 27 bc 2a 8d f0 bb
       0.017288398 -0.023944749 -0.010252843 -0.007341047
000380 60 00 43 bc 05 67 f0 3c ac 0e 9f 3c cb 30 b3 3b
       -0.011901945 0.029345999 0.019416176 0.005468463
000390 16 cd de 3a a6 a6 d6 3c 90 47 13 bb 0e 71 b3 bc
       0.0016998376 0.026202511 -0.0022473074 -0.021904495
0003a0 ab 17 38 3c c5 9a 35 bc 91 99 b6 3c 0e a6 1b bb
       0.011236112 -0.011084263 0.022290023 -0.00237501
0003b0 cf cf b8 bb 01 70 c5 3c f9 f1 fd bb b0 84 24 3b
       -0.005640007 0.02410126 -0.0077497927 0.0025103502
0003c0 01 83 c0 3c 51 36 c9 bc a3 8b fe bc 3b 54 de 3c
       0.023499968 -0.024562033 -0.031072443 0.027139774
0003d0 50 70 49 bb 05 11 69 3c 04 f8 a8 3c 9b 78 ea bb
       -0.003073711 0.014225249 0.020626076 -0.0071554906
0003e0 f4 39 0e bc ad a7 89 3c 9e 2b c3 3c 41 ee 43 3c
       -0.008680809 0.016803587 0.02382451 0.01195866
0003f0 64 f0 f2 bb 6a a8 85 bc 26 0f 65 bc c4 58 a2 bc
       -0.0074139107 -0.016315658 -0.013980662 -0.019817717

encoderIn.bias f4 [128]
000000 bb 05 dc 3c 2c c4 02 ba 53 94 fe bc 2a 2d 1c 3c
       0.026858201 -0.00049883383 -0.031076586 0.009532252
000010 56 b9 f0 3b c8 6f 81 3c 86 5f 91 bc 1a c8 c7 bc
       0.0073463125 0.015800372 -0.017745744 -0.024387408
000020 73 3d 07 3d d1 d7 a0 bc b1 8a c0 3c 23 d7 f4 3c
       0.033017587 -0.01963416 0.023503633 0.029887741
000030 b5 06 a7 bc 32 ec 11 bd 5d f5 00 3c 00 fb 47 bc
       -0.02038894 -0.035625644 0.007870999 -0.012205839
000040 3b fb 09 bd b0 eb 9a bb 73 45 88 3c ce 51 f2 3c
       -0.033686858 -0.004727803 0.016634678 0.029580023
000050 1e 90 10 3d 2b 09 a5 bc 83 67 09 bc 9e 7b 57 3c
       0.03529369 -0.020145973 -0.0083864955 0.013152031
000060 ca 00 0c 3d c3 fb b4 bc e4 85 51 3c 61 a8 c3 3c
       0.03418044 -0.022092706 0.01278827 0.023884
000070 f5 9f ff 3c 21 42 64 ba 20 ed c3 bc 36 3f 6a bc
       0.031204203 -0.0008707364 -0.023916781 -0.014297297
000080 3e de cc 3c 64 5f 03 3d 01 bd b3 3c d4 b7 01 3d
       0.025008317 0.032073393 0.02194071 0.031669453
000090 8f bc 37 bc b0 4c 4b bc ec 76 12 3d df f1 01 3c
       -0.0112143895 -0.01240842 0.035757944 0.007931202
0000a0 9a 0c a9 3b e8 fe a4 bc 2e 06 b8 3b 36 6e a4 bc
       0.005158973 -0.02014108 0.005615971 -0.020072084
0000b0 9e d3 fc bb 85 7a e7 bc 1b e0 07 3d 3c 4d 09 bd
       -0.0077156564 -0.028256664 0.033172708 -0.033520922
0000c0 33 b2 f1 3c 23 bd b5 3c 33 e8 02 3d 82 13 06 bd
       0.029503917 0.022184914 0.031959724 -0.032733448
0000d0 5a 8b ed b9 d7 da 86 3c 3e 50 25 3c 76 de d4 bc
       -0.00045307988 0.016461773 0.010089932 -0.025984984
0000e0 06 41 66 bb 4c f8 7c ba b0 6b 4b 3b 79 94 ac bb
       -0.0035133972 -0.0009650036 0.0031039529 -0.0052667228
0000f0 c2 6f 87 ba 05 27 2a 3a 0d ea d3 bc 66 28 d5 3c
       -0.0010332989 0.00064908 -0.02586844 0.02602024
000100 14 60 ed 3c 07 77 df 3b d8 68 10 bc 2a 0d d9 3c
       0.028976478 0.006819609 -0.008814059 0.026495535
000110 6b d2 90 3c a8 8b 07 bc 4c 14 07 bc dd e2 84 ba
       0.01767846 -0.008273043 -0.008244585 -0.0010138411
000120 32 a5 0c 3d c3 92 40 bc 0e 45 f0 3c 51 3c 0e 3d
       0.03433723 -0.011753741 0.029329803 0.03472549
000130 a8 4a 89 bc 3c 4e b9 bc 1e 49 99 bc e3 c1 e7 3c
       -0.016759232 -0.022620313 -0.018711623 0.028290695
000140 71 36 e4 bc dd 91 09 3d 79 7e 7a 3c 20 bf 6e 3c
       -0.027857991 0.03358637 0.0152889425 0.014571935
000150 b8 31 87 bc 10 56 8d bc 87 85 c8 3b 29 d8 01 bd
       -0.0165032 -0.017252952 0.0061194333 -0.031700287
000160 15 db 96 3c 16 ed 5d 3c e4 93 0b bb 06 5f 84 3c
       0.018415013 0.013545295 -0.0021297866 0.016158592
000170 73 b1 ab bc 56 23 8b bc 50 75 2d 3c 5b 76 3f bc
       -0.020958638 -0.016984623 0.0105870515 -0.011685933
000180 ad fc a4 bc 9f 9b c2 bc 53 16 8c 3b 0a 4b 5a 3c
       -0.020140016 -0.023755847 0.004275122 0.013323555
000190 e1 33 d6 3c 39 e5 85 3c 69 2a f6 bb 53 4c bf bc
       0.026147785 0.016344653 -0.00751238 -0.023351824
0001a0 39 f9 ee 3c ff e9 dd 3c 45 56 92 3c 9f 9a ee 3c
       0.029171573 0.027089117 0.017863402 0.029126463
0001b0 ad 74 b4 3c c9 f1 cd 3c 6e cc e8 3c e2 5e 3d 3c
       0.022028292 0.025139706 0.028417792 0.011558266
0001c0 72 8e 07 bd b0 b3 8e 3a 53 48 c2 3c 1b 15 a9 3c
       -0.03309483 0.0010887291 0.023716127 0.020639947
0001d0 83 20 11 bd 0d cb eb 3c 6a e3 3e bc 8e 7a 0e bc
       -0.035431396 0.028783346 -0.011650899 -0.0086962115
0001e0 81 17 43 3c 72 40 b8 3c b3 4d f0 3c d9 f2 cf 3b
       0.011907459 0.022491667 0.029333925 0.0063460884
0001f0 7e f1 59 bc 07 c6 ba bc 1a a3 d7 3c 81 42 f4 bc
       -0.013302205 -0.022799505 0.02632289 -0.029816868

encoderl1.weight f4 [64, 128]
000000 26 65 73 3c 34 1c 39 bb 59 62 64 bb 3c 35 92 bc
       0.014855659 -0.002824557 -0.0034848659 -0.01784765
000010 3d aa ec bc ef b7 5d 3d fb 20 3e 3d 53 a5 a2 bd
       -0.02888977 0.05413049 0.04641817 -0.07941689
000020 1f 85 00 3d 8a cd 0e 3d c3 d3 86 bc 0f 3f 97 3d
       0.031376954 0.034863986 -0.016458398 0.07385074
000030 60 f9 a4 bd 42 ac af 3d 0f 8f 39 bd 8f 6f 94 3d
       -0.08055377 0.085777774 -0.045302447 0.072478406
000040 84 e1 01 bd 8b 30 3c bd cb 8c 1e bd 9b b8 30 bd
       -0.03170921 -0.04594473 -0.03870849 -0.043144803
000050 ab 6f 69 3d 5a a0 95 3c 48 d7 92 3d a3 e1 a7 bd
       0.05699126 0.018264938 0.07169968 -0.08197334
000060 fb 94 0f 3d 82 06 18 3d b1 4b a7 bd 76 80 03 3d
       0.03505419 0.03711558 -0.08168734 0.03210493
000070 73 13 a5 3c 8d 29 8c bd 17 18 81 bd 14 f0 e9 bc
       0.020150876 -0.06843863 -0.06303423 -0.028556861
000080 27 43 88 bc b5 77 b9 bc ee 57 70 3d 0a d7 0d 3d
       -0.016633583 -0.022640089 0.058677606 0.034628905
000090 16 d3 18 bd 4b 80 12 bd f9 09 2b bb 0d 38 b3 3d
       -0.037310682 -0.03576688 -0.0026098473 0.08750925
0000a0 ea cd a8 bd 8c c8 ce 3b c4 a2 88 3d 99 06 1b 3c
       -0.082424 0.006310528 0.0667167 0.009462022
0000b0 99 39 73 bc 65 ea 1a bd 3d a7 91 3d e3 00 a5 bc
       -0.014845275 -0.037821192 0.07111976 -0.020142024
0000c0 4a dd 53 3d be 5e be ba 61 58 58 bd bd 57 92 3d
       0.05172471 -0.0014524085 -0.05281866 0.07145641
0000d0 ae 8f 67 bc 53 a9 aa bc 41 99 a8 bd c9 b9 57 3c
       -0.014133377 -0.020832693 -0.08232356 0.013166853
0000e0 00 ed 9e 3b 93 63 11 3d d7 d6 95 3d c6 df 6b 3d
       0.00485003 0.035495352 0.07316368 0.057586454
0000f0 2d ee 34 bd d4 fa 11 bd 69 cf 70 3d c7 65 46 3d
       -0.044172455 -0.0356396 0.05879155 0.048436906
000100 4f 9d b4 3d de b5 f7 bc 96 3b 40 3c f2 d5 c1 bc
       0.08819067 -0.030238088 0.011732956 -0.023661587
000110 7e 2e 5a 3d 97 66 c7 bc fd d3 95 bd be 0c 8a bd
       0.053266995 -0.02434091 -0.07315824 -0.06740712
000120 89 b7 81 bd a6 dc 4c 3d e7 fc 53 bd 46 58 90 bc
       -0.06333835 0.050015114 -0.05175486 -0.017620217
000130 6f ee 16 3c 5b 2f 9a 3d ac e0 7e 3d 8c b8 b0 3c
       0.00921212 0.075285636 0.062225983 0.021572374
000140 6e df b6 bc 0f 47 55 3d 3c 3d 79 bc b6 87 12 3d
       -0.022323336 0.05206972 -0.015212353 0.035773955
000150 fe 36 26 bd ac 6c 50 bd ed 6c a4 bd 3e cc a3 bd
       -0.04057979 -0.050884888 -0.080285884 -0.079979405
000160 c1 f1 d1 3c bc 38 ff 3c 4a 04 1e bc a7 b3 a6 3d
       0.025627973 0.031154983 -0.009644577 0.08139735
000170 50 1d 9a bd 93 8b 4d bc b8 40 8b 3c 4c d6 25 bd
       -0.07525122 -0.012545484 0.016998634 -0.040487573
000180 dd 03 a6 3d 5d 0b 88 bd 55 9e 91 3d 41 22 6b bd
       0.081062056 -0.066427924 0.071102776 -0.057405714
000190 c8 e9 01 bd 19 10 5e bc 48 7e 08 bd 44 3d bb bb
       -0.03171709 -0.013553643 -0.033323556 -0.0057140905
0001a0 38 5e a7 bd f9 ab 86 3d 6e 6f 06 3d 42 f9 a5 bd
       -0.08172268 0.0657577 0.03282111 -0.08104183
0001b0 c6 9b 80 bd 3c f7 ae bd 85 75 81 bd 5e e3 4c bd
       -0.062797114 -0.0854325 -0.06321243 -0.05002152
0001c0 60 66 eb bc 9d 83 fb bc 75 6f 9f 3d 67 26 78 3d
       -0.02873534 -0.030702407 0.077849306 0.0605835
0001d0 fe 83 ca bc f1 5e 26 bd 18 ca 90 bd e6 ff 1f 3d
       -0.024721142 -0.040617887 -0.07069796 0.039062403
0001e0 d0 17 a1 bc d4 9b a8 bd 39 50 9f bd 53 f8 13 3d
       -0.019664675 -0.08232847 -0.07778973 0.036125492
0001f0 12 c8 7c bc 05 1a 42 3c 18 58 00 3d af 6a 28 3d
       -0.01542856 0.011847024 0.031334013 0.041117366
000200 c1 5f 86 3b 46 e9 90 bd 42 71 79 3c 69 4d 91 bd
       0.00410077 -0.070757434 0.015224757 -0.07094843
000210 f7 9e 5f bd e4 01 87 bc 58 06 ef 3c 6d 71 71 bd
       -0.05459496 -0.016480394 0.02917783 -0.058946062
000220 c3 4d e6 bc 3b 82 f8 bc d7 b8 aa bd 99 e8 42 3c
       -0.028113252 -0.030335536 -0.08336037 0.011896276
000230 47 56 32 bd 37 5d 84 bd 25 73 8e bd 80 8f a8 3d
       -0.04353931 -0.06463092 -0.06955556 0.082304955
000240 07 f8 67 3d 4e d4 21 3c 50 c4 00 3d 37 f5 be 3c
       0.05663302 0.009877278 0.03143722 0.023310287
000250 c7 42 a9 3d 18 4b 47 bd 1c ce 80 3c 31 7d bf 3c
       0.0826469 -0.0486556 0.01572328 0.023375126
000260 e6 6e 8a bb c5 92 45 bc 66 8c 26 3d 95 86 b9 3c
       -0.004224646 -0.012058918 0.040661238 0.022647182
000270 5b 76 8b bd 4c 88 da bc 42 ac d7 bc d3 f0 ac 3c
       -0.06809684 -0.02667632 -0.026327256 0.021110928
000280 b0 a7 53 bd c6 7f 08 bd 66 8e 11 bd 5d e4 05 bd
       -0.05167359 -0.03332498 -0.035536192 -0.032688487
000290 19 a4 99 3d e1 ec 3b ba 21 fb 31 3c 7b 5b 6b bc
       0.07502002 -0.00071687816 0.010863096 -0.014365072
0002a0 8a 0c ac bd 5c d2 80 3d 13 56 9a 3c be 6e af 3d
       -0.08400829 0.06290123 0.018839872 0.08566044
0002b0 9e 62 9c 3d e8 41 9a 3d e8 b4 a7 3d 6f 52 aa bd
       0.07635997 0.07532102 0.08188802 -0.08316504
0002c0 a6 b1 2f 3d 04 26 40 bd 6d ec 9e bd 09 c9 1e bd
       0.042894028 -0.046911255 -0.077599384 -0.03876594
0002d0 a0 55 b0 3c 0e 1b 1f bd e9 eb 09 3d 83 9e 84 bd
       0.021525204 -0.03884416 0.033672247 -0.06475546
0002e0 94 d9 2c bd 19 7b db bb b7 00 11 3d 26 66 15 bd
       -0.042199686 -0.006698024 0.035401072 -0.03647437
0002f0 c7 a7 3c 3d 9d 68 7f bd 61 67 29 3d e2 c0 56 3d
       0.046058442 -0.062355626 0.041358355 0.05243004
000300 7e f9 8e bd c3 4a bc bb 2a c6 cc bc 73 d3 aa bd
       -0.069811806 -0.005746217 -0.024996836 -0.08341112
000310 1a 8b 40 bd 49 2b 16 bd b7 c6 a0 bc ed b7 bc 3c
       -0.047007658 -0.036662374 -0.019626005 0.023036921
000320 2a df a4 3d af 2b d9 3c 1d b2 2d bd fe aa 94 3d
       0.08050378 0.026510088 -0.04240619 0.07259177
000330 63 4b 72 bd c8 b7 87 3d 52 ea f4 3b 86 95 55 bc
       -0.059153926 0.0662685 0.007474222 -0.013036137
000340 5e 12 4b 3d 12 0a 70 3d 40 a2 82 3d 64 e4 f5 bc
       0.049578063 0.058603354 0.06378603 -0.030016132
000350 17 d5 a8 bd f9 2f 80 3c 54 85 25 3d f6 36 ad 3d
       -0.08243769 0.015647875 0.040410355 0.084577486
000360 fb 10 9b 3c a8 c3 ae bd 35 94 0b 3d de 88 a7 bc
       0.018928995 -0.08533412 0.034076888 -0.020451006
000370 df 90 30 3c a0 ec c7 3c b7 40 9a bd 5f e1 3d bd
       0.010776727 0.024404824 -0.075318746 -0.04635751
000380 05 db 16 3a 8b cd 44 bb 25 04 27 3d 9e a5 4a bd
       0.00057546824 -0.003002974 0.040775437 -0.04947435
000390 85 5b 9a 3c 05 0d 67 bd 46 40 33 bc a6 d7 da bc
       0.018842468 -0.0564089 -0.010940617 -0.026714157
0003a0 96 10 2a bd 9c 82 9c 3d c1 25 4e bd b1 47 11 3c
       -0.041519724 0.07642099 -0.050328974 0.00886719
0003b0 61 c8 5f bd 18 ee c5 bc cf f2 66 bd 41 6b ed bc
       -0.054634456 -0.024161384 -0.056383904 -0.028981807
0003c0 8c 58 9d 3d 85 ba 48 3d 39 ff 65 bd 9e d1 49 3d
       0.076829046 0.049006004 -0.056151602 0.049272172
0003d0 99 ad cd bc 12 c3 8a 3d b0 df f5 bb 3d ec aa bd
       -0.025107192 0.06775488 -0.0075034723 -0.0834584
0003e0 d7 56 27 3d cc 9f 4d bd 1d 48 a9 3d d5 d1 8d bb
       0.0408543 -0.050201222 0.08265708 -0.0043279924
0003f0 60 38 4d 3d 43 bb bc bc b3 cd a6 bc 8a 10 9d bd
       0.05010259 -0.023038512 -0.020361757 -0.0766917

encoderl1.bias f4 [64]
000000 d9 b5 62 bd 27 b8 16 bd 52 3f 96 bd cc 7f 52 3d
       -0.055349205 -0.036796715 -0.07336296 0.051391408
000010 3b 14 29 3d 1c 4a 89 bd bc 45 39 bd 40 73 75 3d
       0.04127906 -0.06703588 -0.04523252 0.059924364
000020 95 88 2a bd 36 9d 53 bd a0 a2 29 bc d6 d5 30 bd
       -0.04163416 -0.0516636 -0.010353714 -0.04317268
000030 43 4e 51 bd f9 a4 a3 3c c9 0f a3 3d 8d c6 05 bd
       -0.051100027 0.019976126 0.07961995 -0.032660056
000040 65 86 f0 bc c4 bc 9d 3d 4c 46 9e 3d d8 33 3d 3d
       -0.02936096 0.0770202 0.07728252 0.04619202
000050 ff 6d 75 3d c4 ee fa bc cc d8 92 3d 8d 58 7f bd
       0.059919354 -0.03063143 0.07170257 -0.062340308
000060 bf a1 a2 3d 29 7b 0b 3d 05 f2 f7 3c 88 0b a2 3b
       0.07941007 0.034053 0.030266771 0.0049452223
000070 4e da a9 bd 9e f0 22 bd 82 c2 12 3d 14 9c 88 3d
       -0.082935914 -0.03978025 0.03583003 0.066703945
000080 a2 31 5d 3b c3 65 b3 b9 23 0f 76 bd ee 0f ac bd
       0.0033751507 -0.0003421736 -0.06007303 -0.08401476
000090 f0 39 27 bd 43 b7 92 3c 86 f6 1c 3d 58 b6 54 3d
       -0.040826738 0.017909652 0.03832104 0.05193171
0000a0 e6 ab 09 bb ef 00 a4 3d 02 1d b1 bd 2b c0 a2 bd
       -0.0021007 0.080079906 -0.08648111 -0.079468094
0000b0 b4 13 a4 3d 75 8f b3 bd 60 e4 8f bd 31 ec 32 bd
       0.080115706 -0.08767597 -0.07025981 -0.04368228
0000c0 25 4d a3 bc 9d 79 41 3c 9d 14 96 bd 6f ae b1 bd
       -0.019934246 0.01180878 -0.073281504 -0.08675849
0000d0 37 7e 81 bd c8 c5 75 bc f6 11 b7 3c cf 31 a6 bd
       -0.06322902 -0.015000768 0.022347432 -0.08114969
0000e0 f4 3a 7d 3d 68 08 cd 3c bb fe a8 3d 35 b1 7e bd
       0.0618238 0.025028422 0.08251711 -0.062180717
0000f0 bd 54 ea ba 13 d1 dd 3c b3 2a 3f bd 0b 9a cd bb
       -0.0017878037 0.027077233 -0.04667158 -0.006274467

encoderl2.weight f4 [36, 64]
000000 c0 2a c9 bc 5e 1f a3 3d 2e 3e 99 3d 2a 86 e3 bd
       -0.024556518 0.07964967 0.07482563 -0.11109574
000010 fc d8 0b 3d 00 f4 2e 3c 04 c2 a5 3d d8 28 64 bd
       0.03414248 0.010678291 0.08093646 -0.055703014
000020 ba 0d f9 3d 72 26 e6 bd e0 88 56 3c 26 0d 8a bd
       0.12160821 -0.112378016 0.013094157 -0.06740789
000030 80 5c b5 bd 68 dc ed 3c 18 01 ff bd cc a7 87 bd
       -0.088555336 0.029035762 -0.124513805 -0.066238016
000040 70 18 5f 3d 28 5c f5 bd 4c 01 14 bd c8 bf 9d bc
       0.054466665 -0.11980468 -0.03613405 -0.019256487
000050 8e 90 e4 bd e0 7a c6 3c 42 c7 b8 3d f2 71 a7 3d
       -0.11160384 0.024228513 0.090223804 0.0817603
000060 22 99 b0 3d 1c d0 ca bd 9c 65 3d 3d 4e b1 f5 bd
       0.08622958 -0.09902975 0.04623948 -0.11996709
000070 c2 90 ed bd 58 5a 93 bc b8 12 52 bd 90 d4 23 3d
       -0.11599876 -0.017987415 -0.051287383 0.039997637
000080 64 86 7a 3d 8e 00 a1 bd 40 4c 0e 3b c2 85 a7 bd
       0.06116332 -0.07861434 0.002171293 -0.08179809
000090 dc dc 21 bd 7a d0 a7 3d f0 6a 9a 3d 34 40 0c 3d
       -0.03951727 0.081940606 0.07539928 0.034240916
0000a0 54 b7 ff bd 3c 4d be bd 30 c5 09 3d e0 98 d5 bb
       -0.12486139 -0.09292075 0.03363532 -0.0065184683
0000b0 1c f0 27 bd b2 1c ef 3d 80 72 c1 ba 26 8e ce bd
       -0.04100047 0.11675395 -0.0014758855 -0.100857064
0000c0 84 10 66 3d c8 2e 2b 3d e0 5d 83 3d 28 59 90 bd
       0.056168094 0.04179266 0.064143896 -0.07048255
0000d0 68 a6 af bd 40 a7 5b 3d c8 3e b8 3c 40 92 a9 3b
       -0.08576661 0.0536263 0.022490874 0.005174905
0000e0 06 16 c4 bd e8 bd b4 3c 44 04 f6 bd 8c d3 27 3d
       -0.09574513 0.02206321 -0.12012532 0.04097323
0000f0 ee 21 e3 3d b6 b3 8d 3d 0c 1f 3a 3d 88 d8 e5 3d
       0.11090456 0.06919043 0.045439765 0.11222941
000100 52 ff ea bd 36 6f 9c 3d 88 5c 4e bd 14 75 15 bd
       -0.1147448 0.07638399 -0.050381213 -0.036488608
000110 b8 96 e5 3c bc 2a 5b 3d 78 02 ba 3d 2a e1 cf 3d
       0.02802597 0.05350755 0.09082502 0.101503685
000120 ec 09 81 bd cc 31 e0 bd fc a8 5b bd 88 a4 ec 3c
       -0.063007206 -0.10946998 -0.053627953 0.028887048
000130 d6 bf ec bd 18 09 d8 bd a4 63 b9 bd a0 98 9a 3b
       -0.11560027 -0.105486095 -0.09052208 0.0047179013
000140 18 ad ca 3c 5c 93 4b bd 8c c4 0e 3d 00 b0 e2 39
       0.02474074 -0.04970108 0.03485541 0.0004323721
000150 48 be 9b bd a8 fd 51 3d 88 9b ce bc a2 db c2 3d
       -0.07604653 0.051267296 -0.025220647 0.09514548
000160 82 6c e4 3d 5c 50 00 3d 24 2e 1c bd 34 06 96 bd
       0.11153509 0.031326637 -0.03812994 -0.07325402
000170 28 7f be bc 1a 08 ee 3d 4e 7b f3 3d e4 74 c5 3d
       -0.023253992 0.11622639 0.11888753 0.09641436
000180 a4 45 d8 3d d8 f5 29 3d 18 37 fe bd 80 7e 87 ba
       0.10560158 0.04149422 -0.12412852 -0.0010337383
000190 a0 4e ff bb f0 dd 3e 3d 6a d2 b8 bd a0 b9 49 3c
       -0.0077913553 0.046598375 -0.09024508 0.012312323
0001a0 b0 0a 61 bc c4 2a f5 bd 00 04 34 bc 30 10 3c bd
       -0.013735458 -0.119710475 -0.010987282 -0.045913875
0001b0 d0 c5 91 3c 5a 27 f4 3d 80 d6 a9 3a 10 3b 02 bc
       0.01779452 0.11921568 0.0012957603 -0.007948652
0001c0 98 d4 ad bc f4 2a c0 3d 28 51 ab bc b0 12 09 3d
       -0.021219537 0.09383193 -0.020912722 0.033465087
0001d0 1c e8 2d bd d8 63 13 bd 02 72 e1 3d c8 c3 35 bd
       -0.042457685 -0.03598389 0.110080734 -0.044376165
0001e0 40 2c 61 bd 58 6c cb 3c c0 4f a6 bd 98 20 58 3d
       -0.05497384 0.024831936 -0.0812068 0.05276546
0001f0 a4 e4 05 3d aa 21 a7 3d 82 aa e6 3d e8 76 d2 bc
       0.03268875 0.08160718 0.112629905 -0.025691465
000200 30 3e 97 3d 18 16 04 bd 10 24 c0 3d be 72 b3 3d
       0.07384908 -0.032247633 0.093818784 0.0876212
000210 ab ef 93 3d b6 96 05 bd e4 d1 b1 bd ce f3 af bd
       0.072234474 -0.032614432 -0.086826116 -0.08591424
000220 29 33 d0 3d 0d 0b 28 bd 75 b4 45 bc 63 49 8f 3d
       0.10166008 -0.041026164 -0.01206695 0.06996419
000230 dc fd 52 3d 79 a3 8a bd 70 39 0b bc 65 fa 87 3b
       0.05151163 -0.06769461 -0.008497581 0.0041497224
000240 66 2d 71 bd 25 37 ba bd 64 84 98 3d 84 92 a6 3d
       -0.058881186 -0.09092549 0.074471265 0.081334144
000250 b3 8d ed 3d db 2c 7a bd f1 be ee bd 97 c7 81 3d
       0.115992926 -0.061077934 -0.11657513 0.06336897
000260 80 1c e0 3d 4e a0 ff 3d 0f e9 f7 bc 8f 19 4d 3d
       0.10942936 0.124817476 -0.030262498 0.050073203
000270 08 75 e2 bd 82 2c 36 3c b4 94 dd 3c 1c 32 c5 3d
       -0.11057478 0.01111901 0.027048446 0.09628698
000280 48 d3 9b bd e1 be cc 3c 45 72 16 3d 92 74 ec bd
       -0.07608658 0.024993362 0.03673007 -0.115456715
000290 e9 ba 9d ba c8 df c1 bd 55 6b 1f 3d d7 66 ec 3d
       -0.0012033853 -0.09466511 0.03892072 0.11543053
0002a0 85 aa 61 bd 08 db a5 3d b8 13 33 bd c2 14 85 bb
       -0.05509426 0.080984175 -0.043719977 -0.0040613124
0002b0 4d 42 91 3c 07 c8 5a bd 4e 74 cf bd c9 c5 06 3d
       0.01773181 -0.053413417 -0.10129605 0.032903466
0002c0 2c e3 a1 3d c5 6e f3 3d c3 b5 8d 3d b2 7f bb 3d
       0.07904658 0.11886362 0.06919434 0.09155215
0002d0 7e 3b f0 bd 03 ec b8 3d 8a cd e0 3d 4d 1b dc 3d
       -0.11730097 0.09029391 0.109767035 0.10747395
0002e0 80 55 ed 3d 75 6c 5e 3d ae ee b5 bd f8 fd 52 3d
       0.115885735 0.05430265 -0.08883415 0.051511735
0002f0 f4 34 34 3d 6f c0 b1 3c 25 20 1d 3d 8e b3 c7 ba
       0.043995813 0.021698205 0.038360734 -0.0015236007
000300 df 18 b1 bd 22 c4 b9 3d 9f 3a 2b 3d 49 58 08 3d
       -0.08647322 0.090706125 0.041803952 0.03328732
000310 ea d8 d7 3d ae 28 69 bd dd f4 29 3d 07 90 e1 bd
       0.1053942 -0.05692356 0.041493285 -0.11013799
000320 3f d9 c5 bd 6b af 5a 3d b0 48 b4 3d bd 79 34 3d
       -0.09660577 0.053389948 0.088029265 0.04406141
000330 34 f0 df bc 38 bf 5d bd f4 51 d8 3c 42 c9 34 bd
       -0.027336217 -0.05413744 0.026406266 -0.044137247
000340 c0 18 09 bd ef 81 91 bd d6 fa e2 bd 23 2d d0 bd
       -0.03347087 -0.07104861 -0.110829994 -0.10164859
000350 50 d0 e5 bc f2 6a 9c bd a0 91 2e bd 87 66 2f bd
       -0.028053433 -0.07637586 -0.042619348 -0.042822387
000360 27 c9 92 3d 39 55 45 3b e6 91 4b bd d1 f7 3e bd
       0.07167273 0.003011061 -0.049699686 -0.046623055
000370 e2 fa ef bc 32 30 25 bd 30 74 2c bd ee c1 3b bd
       -0.029294435 -0.040329166 -0.042102993 -0.045839243
000380 e6 f8 e0 bd db b4 24 bd f8 28 49 3b 4c 63 0c bd
       -0.109849736 -0.04021154 0.0030694585 -0.034274384
000390 2c d8 1e 3d 99 ad e6 bd b1 92 4d bc 8d 66 08 bd
       0.038780376 -0.1126358 -0.012547181 -0.033300925
0003a0 f2 b8 e4 3d c6 79 74 3d 14 8a e7 3d 5d 45 28 39
       0.11168088 0.059686445 0.11305633 0.00016047568
0003b0 a4 f0 be bd 01 3d f8 bc c4 c2 fd bd 4f c4 2b 3d
       -0.09323242 -0.030302526 -0.12390664 0.04193526
0003c0 36 34 5b bc 85 b3 1d 3c bb 71 3c 3d 9a 05 9b 3d
       -0.013379147 0.00962532 0.0460069 0.07569428
0003d0 00 d7 af 3d 26 f7 60 3d b6 e8 9f bd 06 70 a3 3d
       0.0858593 0.0549232 -0.07808058 0.07980351
0003e0 01 53 f3 bd ab 2d ea bd a4 1e 9c 3d c4 3f 76 3d
       -0.11881066 -0.11434492 0.07623032 0.060119405
0003f0 bc e4 ea bd d3 75 92 bb b7 cc d6 3c a0 c6 77 3d
       -0.11469409 -0.004469612 0.026220663 0.060492158

encoderl2.bias f4 [36]
000000 16 75 b3 bd 32 15 b3 bd f5 23 87 3c 21 b5 a0 3d
       -0.08762567 -0.08744277 0.016496638 0.078470476
000010 a8 5d fe 3c e0 3b e8 3d 6b ba 88 3d e6 ff 17 3d
       0.031050518 0.11339545 0.066761814 0.03710928
000020 81 56 01 3d 26 2d 21 bd b0 31 77 bd 5a f6 b4 3d
       0.031576637 -0.039349698 -0.06035012 0.0883605
000030 87 98 82 3d 1a c5 a6 bd 46 35 e2 3d 15 f5 d3 bd
       0.063767485 -0.08143063 0.11045317 -0.1034948
000040 0c ac e7 bd 48 c3 fd 3d 1e 66 b8 bd 3f 23 cf bd
       -0.11312112 0.123907626 -0.09003852 -0.101141445
000050 e0 ec 6b bd f7 17 fb 3d e2 9b f5 3c 3e e8 99 3d
       -0.05759895 0.1226043 0.029981557 0.07515
000060 5b bd 4a bc 17 47 e2 3a e5 28 bc 3d 45 d2 bb 3d
       -0.012374247 0.0017263618 0.091874875 0.09170965
000070 1e 5c 00 3d 4a 80 46 3d 22 4f f5 bd df 8c 51 bd
       0.03133785 0.04846219 -0.11977984 -0.051159736
000080 21 37 e2 3d b0 ce 8f 3d 7b 77 d1 3c 56 3b 9c bd
       0.11045671 0.070218444 0.025569668 -0.07628505

encoderl3.weight f4 [18, 36]
000000 ac fc 31 3d 04 4a 11 bd c8 6b f9 3d c5 39 dd bd
       0.043453857 -0.035470977 0.12178761 -0.10802034
000010 6e ae c4 3d a0 cb aa 3d 52 e3 92 3d 3b b2 d0 bd
       0.09603582 0.0833962 0.07172264 -0.10190245
000020 16 89 ad bc 9e 4e 43 bc 6a a5 af 3d 7f 8c 0e bd
       -0.021183532 -0.011920599 0.08576472 -0.034801956
000030 91 4c 2d 3d 5b 47 ea 3a c0 96 c0 bd b1 f0 9d ba
       0.042309348 0.0017874049 -0.09403753 -0.0012049881
000040 a0 a1 f6 bb db 21 1c 3e 1d fd 1e bd 27 09 a3 bc
       -0.0075265914 0.1524729 -0.038815606 -0.019901825
000050 d4 11 1a bd 0c 9e 25 bd 86 6f ac bd 47 18 20 be
       -0.03761466 -0.04043393 -0.08419709 -0.15634261
000060 9b bb 10 be 96 45 bd 3d ec 37 fe bd 63 72 39 bd
       -0.14134066 0.09241788 -0.1241301 -0.045275103
000070 fc 44 cd bd 95 b7 15 be 50 46 59 3d 52 72 cc bd
       -0.10022923 -0.14620812 0.05304557 -0.09982742
000080 03 aa e7 bd 68 08 29 3e 49 67 6a bd ca 34 99 3d
       -0.11311724 0.16507113 -0.057227407 0.07480772
000090 17 eb 21 3e 00 8b fc 3c 53 4c bb 3b 97 cd c4 bd
       0.15812336 0.030828 0.0057158857 -0.09609526
0000a0 ad 9b a3 bd c5 5e 93 3d c0 49 c6 3d 0f 4a f0 3d
       -0.07988677 0.0719581 0.096820354 0.117328756
0000b0 a9 2e ed bd 67 c8 98 3d a0 44 cb 3b fa f9 18 be
       -0.11581165 0.07460099 0.006203249 -0.14939108
0000c0 9c 08 ea bd ce 4d a9 bd 29 a6 c4 3d f0 aa ed bd
       -0.11427423 -0.08266793 0.09602005 -0.11604869
0000d0 b0 ab 1f bc 48 75 79 3d 58 9b 2f bd d9 dd e5 3d
       -0.009745523 0.060902864 -0.042872757 0.11223955
0000e0 15 52 0e 3e 8e ac e4 3d 0b ed 0b be 02 c5 c1 3d
       0.138985 0.11165725 -0.13664643 0.094614044
0000f0 96 9a 71 bd 5b 25 be 3d 73 b7 d3 3c da b6 dd 3c
       -0.058985315 0.09284469 0.025844311 0.02706473
000100 78 d7 6b 3c fc c9 1b 3c 40 ad 1c bb 90 91 47 3c
       0.0143946335 0.009508606 -0.0023906976 0.012180701
000110 1c ff ad 3c 5e 46 27 be fc a6 be bd 86 75 03 be
       0.02123981 -0.16335437 -0.093091935 -0.128378
000120 50 86 0e be 7d f0 0f 3e a8 f4 ef 3c 89 21 15 3e
       -0.13918424 0.14056583 0.029291466 0.14563574
000130 ad c7 25 3e 73 29 db bd 76 61 5a bd c0 84 7e bc
       0.16189452 -0.10701265 -0.053315602 -0.01553458
000140 09 9b 1e 3e 18 87 8f 3c 44 d1 1d be f7 e1 17 be
       0.15488829 0.017520472 -0.1541186 -0.14832292
000150 c0 52 58 bd b8 86 cf bc 9b 57 ed bd d8 bb 94 3c
       -0.05281329 -0.025332794 -0.11588975 0.018155977
000160 68 58 93 bd 1a 33 bc 3d 58 1d c2 3c b3 0d a1 bd
       -0.071945965 0.09189434 0.023695633 -0.07863941
000170 0c 12 1b bd f3 b5 8e bd 5b 0c 12 be 78 88 b3 3c
       -0.037859008 -0.06968298 -0.14262526 0.02191566
000180 4f ad 05 3e 2c 4e 25 be bc 56 02 bd 51 13 04 3e
       0.13054393 -0.16143101 -0.031820998 0.12897994
000190 1e 56 17 be ab ac 87 bd 67 ac 09 3e ed af 29 3e
       -0.14778945 -0.06624731 0.13444673 0.16571017
0001a0 e7 df 20 be 16 e1 e2 bd b9 68 28 3e 8b 8f 06 3e
       -0.15710412 -0.11078088 0.16446199 0.13140695
0001b0 10 6f 7f 3d 5c fe 0b bd 4b d6 97 bd c2 e6 01 be
       0.062361777 -0.034178123 -0.0741392 -0.12685683
0001c0 c6 e8 ee bd 6a 8e e7 3d 3a 83 97 3d 36 03 1a be
       -0.11665492 0.1130646 0.07398076 -0.15040287
0001d0 16 39 d4 3d a3 d9 21 3e 70 91 39 3c 42 7c 95 3d
       0.10362451 0.15805678 0.011326179 0.07299091
0001e0 7b 76 ee bd 05 d0 21 3e 00 98 9e bd 0d 75 14 3e
       -0.11643692 0.1580201 -0.077438354 0.14497776
0001f0 df c1 12 3e 9a ad c3 3d 82 ed c1 3d 70 73 26 bd
       0.14331768 0.09554596 0.09469129 -0.040637434
000200 e6 33 da 3d 00 ce 24 be 6c af 72 bd 10 44 0c 3d
       0.1065443 -0.16094208 -0.059249327 0.034244597
000210 a9 3c 13 3e ab 32 1b 3e 0c c5 09 3d 58 7b 89 bc
       0.14378609 0.15156047 0.033635184 -0.016782448
000220 aa f1 10 be e0 4c a4 3c 72 ba fa 3d 00 c9 d8 3c
       -0.14154688 0.020056188 0.12242593 0.026463032
000230 c0 3f 1a bc ab 3b fe bd b3 b8 dc bd 48 f7 c7 bc
       -0.009414613 -0.124137245 -0.10777416 -0.024409905
000240 fc 6f 45 bd b2 fb 01 be 2e b2 88 3d 64 3d 06 be
       -0.0482025 -0.1269367 0.0667461 -0.13109356
000250 1c 86 28 3d 80 f5 91 bd 5c 71 10 bd 33 ca 28 3e
       0.04114352 -0.071269035 -0.035264358 0.16483383
000260 60 ed 83 bc d2 cd e4 3d 16 5b 19 be d6 85 92 3d
       -0.0161044 0.111720696 -0.14976153 0.071544334
000270 a3 9c 82 bd 98 d1 00 be a2 1b ab 3d 28 57 12 be
       -0.06377532 -0.12579954 0.0835488 -0.1429106
000280 2c 54 16 bd 7e a5 e4 3d e0 7e 1f bd e0 5f d6 bb
       -0.036701366 0.11164378 -0.038939357 -0.006542191
000290 a5 1f 1e 3e 0e 9e 8e 3d e8 d2 9d 3c b0 ce b5 bd
       0.15441759 0.0696374 0.019265607 -0.08877313
0002a0 00 d5 43 bb 58 26 c5 bd 47 b4 06 3e 88 e1 cd 3c
       -0.0029881597 -0.09626454 0.13154708 0.025131956
0002b0 92 e4 b2 3d e0 08 77 bd e0 7c 4c bd 8a 27 ea 3d
       0.087350026 -0.0603112 -0.049923778 0.11433323
0002c0 0a 57 fa 3d 8a 6a 02 be e0 d4 96 bb ac d4 67 bd
       0.12223633 -0.12735954 -0.0046030134 -0.056599304
0002d0 13 74 09 be 10 65 21 bd 1a 01 5a 3c 11 df 10 3d
       -0.13423185 -0.03940302 0.013305927 0.035368983
0002e0 65 d0 2a 3d 28 90 d2 3d 55 c7 0f be ce d9 b9 3d
       0.041702647 0.10281402 -0.14040883 0.09074746
0002f0 9d 1f a6 3c 39 0c ab bd db 09 9d bd f1 70 05 be
       0.020278746 -0.08351941 -0.076678954 -0.13031365
000300 aa 0d 2e bd ce 0b df bd 0c 62 98 3d be 5e cb 3d
       -0.0424935 -0.108909234 0.07440576 0.0993018
000310 4c 28 20 bd 65 db c0 bc 84 7d d7 3d eb f6 ca 3d
       -0.03910093 -0.023542115 0.10521987 0.09910377
000320 a3 88 15 3e 59 5a b3 bd f3 6b ac bd 69 59 c0 3d
       0.14602904 -0.08757467 -0.08419027 0.09392054
000330 58 5a 02 be bc 30 83 3d 01 44 f7 3c 65 03 6f bc
       -0.12729776 0.0640578 0.030183794 -0.014588212
000340 ce ef 09 be d9 90 19 3e b0 e0 6f bc e2 ee 70 bd
       -0.13470384 0.14996661 -0.014640972 -0.058821566
000350 ca 45 19 be de 58 8e 3d bc 2f 5d bc 44 29 34 3d
       -0.14968029 0.06950544 -0.01350015 0.043984666
000360 c8 20 2a be a0 4a d6 bd 86 da 6e bd bb 59 c8 bd
       -0.16614068 -0.10463452 -0.05831387 -0.0978274
000370 74 e3 28 3e 29 a9 14 3e e8 43 a7 3c 03 2a 04 3e
       0.16493016 0.14517654 0.020418122 0.12906651
000380 76 4d 19 3e ef 77 a7 bb 76 42 0f be 44 2d 28 3e
       0.14970955 -0.0051107327 -0.13990197 0.16423517
000390 29 e2 0b 3e 27 e3 14 3e 43 33 13 be 1e f6 98 bd
       0.13660492 0.14539777 -0.14375024 -0.07468818
0003a0 56 2f dc 3d 3b 91 ea bc a2 5f 1e be 7f 0a 4f bd
       0.10751216 -0.028633704 -0.15466169 -0.05054712
0003b0 f8 57 d0 bc a2 54 06 be 6e 1c 08 be 2f 20 8e 3d
       -0.025432572 -0.13118222 -0.13292095 0.06939732
0003c0 45 c1 18 bc 9c 6f 18 3d 11 71 4c bd 0c 12 e8 3c
       -0.009323423 0.037215814 -0.049912516 0.028328918
0003d0 a0 dd 0d be 78 85 24 3e 0a 04 d5 3d 54 fa 12 be
       -0.13854074 0.1606654 0.10401161 -0.14353305
0003e0 1f 9a 13 3d f0 bd cf bd 35 2c ee bb bc e1 6e 3d
       0.036035653 -0.101436496 -0.0072684535 0.058320746
0003f0 50 c5 13 bc ad d9 11 3e 90 62 a7 bd f0 11 6b 3d
       -0.009019211 0.14243193 -0.08173096 0.057390153

encoderl3.bias f4 [18]
000000 8f ee 4e bc fb d1 bf 3d 24 3b 16 be c0 55 3b bc
       -0.012630119 0.093662225 -0.14670998 -0.011434019
000010 74 02 19 be 73 21 45 3d 2d 70 ac 3d 63 4f 94 bd
       -0.14942342 0.048127603 0.08419833 -0.07241704
000020 d0 25 d9 bd aa 15 e8 3c 96 02 01 be 06 56 12 be
       -0.10602915 0.028330643 -0.12598643 -0.14290628
000030 53 7e ac 3d b4 89 28 3e 05 ca fe 3d 70 48 4b bd
       0.08422532 0.1645878 0.12440876 -0.04962963
000040 c6 45 d9 bd 43 05 af bd
       -0.10609011 -0.085459255

encoderOut.weight f4 [10, 18]
000000 bb 93 29 be a0 c6 59 3d 40 77 cf 3b 9f 13 5a 3e
       -0.16560261 0.05316794 0.0063313544 0.21296547
000010 1c 9b 3c be 98 0c 16 bd 5e 7f 95 3d 96 8d bd 3d
       -0.18418545 -0.036633104 0.07299684 0.09255521
000020 df df 05 3e 86 63 2f be 91 30 67 3e ec 0b 9c bd
       0.13073681 -0.17127809 0.2257712 -0.076194614
000030 d3 8a 66 3e 55 fe 3e be 32 e0 2a be dc 91 55 be
       0.22513895 -0.18651707 -0.16687086 -0.20856422
000040 0b f9 55 be 17 6a 5c be c6 9c 27 be 6e 0d 59 3d
       -0.20895784 -0.21524845 -0.16368398 0.052991323
000050 71 04 60 3e cb 0e 0b 3e e0 36 3b be 24 4c 8f 3c
       0.21876694 0.13579862 -0.18282652 0.017492361
000060 be 00 21 be 7b f3 55 3e cd af 4c be f8 8f 20 3e
       -0.1572294 0.20893662 -0.19988938 0.1567992
000070 44 b5 5c be 03 53 70 3e 64 7b bb bd 29 2c 8c bb
       -0.21553522 0.23469166 -0.09154394 -0.0042777252
000080 a4 38 eb 3d 5e b2 15 be a6 ac bc 3d 29 51 0a be
       0.11485413 -0.14618823 0.092126176 -0.13507523
000090 7c 6c 01 3e e0 71 04 3d 86 74 62 be 58 8f b1 bd
       0.1263904 0.032335162 -0.22114763 -0.08669919
0000a0 8c 2d 40 bd ab 49 ff bd 03 d8 3c 3e d6 c9 f4 3d
       -0.046918437 -0.12465223 0.18441777 0.1195256
0000b0 9c 4f 5d bd 05 b2 1c 3c 5a 45 c0 3d 7f 0b 57 3e
       -0.054031 0.009563928 0.09388228 0.21000479
0000c0 50 6f 34 be eb 4d 58 be be b0 51 3e a2 68 a5 bd
       -0.17620587 -0.21123473 0.20477578 -0.08076598
0000d0 c4 ef 5a be 76 29 e1 bd 28 1b 40 bd e1 17 98 3b
       -0.21380526 -0.10994236 -0.0469009 0.0046415185
0000e0 0b 24 5a 3e 56 8e 06 be 08 c8 e4 3c 2a 07 07 3e
       0.21302812 -0.13140234 0.027927414 0.13186327
0000f0 ee 68 b2 3d 6f 06 6a 3e 00 58 a5 b8 86 f4 9d bd
       0.0871142 0.22854017 -7.8842044e-05 -0.07712655
000100 de 0f 4e be 70 b4 3f be 2b 96 57 3d a5 64 90 bd
       -0.2012324 -0.18721175 0.052633446 -0.070504464
000110 ac d4 1f bd ca 5b f3 bd 30 a9 1e bd e6 e0 d6 bd
       -0.03902118 -0.11882742 -0.03873557 -0.10492115
000120 b0 16 92 3d d9 96 54 be 2d bc 6b 3e c0 0a 2c bb
       0.071332335 -0.20760669 0.23021002 -0.0026251525
000130 82 1a f7 bd fa c3 e2 b9 68 3c 1f 3d b8 b4 e0 3c
       -0.12065603 -0.00043252093 0.038875967 0.027429923
000140 be 7d 9a 3d e0 7a 89 3d 97 0c 08 3e 2c 94 67 be
       0.07543515 0.0671289 0.13286053 -0.22615117
000150 11 95 0c 3c 02 97 14 3e 07 72 13 3c 6f c0 0c 3e
       0.008580462 0.1451073 0.008999354 0.13745283
000160 53 47 45 3e 80 56 bf bb ac ac 41 3e 91 e5 1d 3e
       0.1926549 -0.005839169 0.18913525 0.15419604
000170 28 a4 c6 bd 26 09 e1 3d 12 72 02 be 25 ca d7 3d
       -0.09699279 0.10988073 -0.12738827 0.10536603
000180 22 5a 9b bd 14 12 52 3d 5a 66 6e be 89 55 00 be
       -0.07585551 0.051286772 -0.23281232 -0.12532629
000190 d7 6d 6b 3e 6b ed 1e 3e fa 18 04 3e 32 24 9f bb
       0.2299112 0.15520255 0.12900153 -0.0048566097
0001a0 a9 19 19 3e ca d5 35 be 6b e1 57 3e 40 95 6b bb
       0.14951195 -0.17757335 0.21082084 -0.0035947114
0001b0 1e 84 66 3e 43 91 90 3c ee 68 2a be 6e d0 cd bd
       0.22511336 0.017647391 -0.1664159 -0.100495204
0001c0 76 5e 6b be 5a ef dd 3d 78 d1 53 bc 32 38 ad bd
       -0.22985253 0.10836668 -0.012928359 -0.08457984
0001d0 d0 b8 70 3c 99 74 2c bd ee 84 d5 bd a4 bc 36 3d
       0.0146925 -0.042103384 -0.10425745 0.044613495
0001e0 bb 86 17 be 7c 2e 2a 3e 40 87 da 3d f5 7b 3f 3e
       -0.1479749 0.16619295 0.10670328 0.1869963
0001f0 b2 24 00 be 2c 9e 49 bd da 8d 07 3e e4 ff 62 3d
       -0.12513998 -0.04922311 0.13237706 0.055419818
000200 8a ac d3 3d ac eb 4f bd 75 3f 55 be fd 95 32 be
       0.103356436 -0.050761864 -0.20824988 -0.17440028
000210 d1 c3 4a bd e9 2b 19 3e a0 1e a6 bd be cb 5b 3e
       -0.04950315 0.14958157 -0.0811131 0.2146444
000220 22 63 99 3d db 82 24 3e 03 70 68 3d 7f 15 7d 3c
       0.07489611 0.16065542 0.056747448 0.01544702
000230 c6 d9 aa bd 5a 79 b9 bd 48 07 fd bc 37 92 22 3e
       -0.08342318 -0.09056349 -0.030887261 0.15876089
000240 68 60 1c 3e ee e2 25 bd 08 3f c8 3c be 5e 86 bd
       0.15271151 -0.04049962 0.024444118 -0.065610394
000250 14 a4 d6 bd ab 42 bd 3c df 46 33 be 40 f4 37 3b
       -0.10480514 0.023103079 -0.17507504 0.0028069168
000260 5b 14 61 3e 1b 32 4f 3e 78 a9 a3 3c 77 21 4e be
       0.21980421 0.20233957 0.01997827 -0.20129953
000270 34 3f 1e be ea c4 6e 3d 02 2f 2c bc 50 7d 71 bd
       -0.15453798 0.05829326 -0.010509254 -0.058957398
000280 f7 02 2a 3e 72 82 8e 3d e2 19 b3 3b 3b 12 17 3d
       0.16602693 0.06958474 0.005465732 0.03688262
000290 e4 b4 78 3d 80 bf 98 bb 0b b6 0e be 0f 1c 41 3c
       0.060719386 -0.0046615005 -0.13936631 0.011786475
0002a0 4b ca 1e 3e 98 26 d1 3c 91 ba 40 3e d6 85 1d bd
       0.15506856 0.025531098 0.1882117 -0.038457714
0002b0 37 d3 07 3e 84 0a 4d 3d 8d 97 6a bd 67 86 d7 bd
       0.13264166 0.050058857 -0.057273436 -0.10523682
0002c0 6a f2 6e be ff e7 45 be 10 90 fd bd 00 54 a7 bc
       -0.23334661 -0.1932678 -0.12380993 -0.020425797

encoderOut.bias f4 [10]
000000 db 9c 66 3e df ea 0f 3e 4a f7 84 be b3 7a 60 be
       0.22520773 0.1405444 -0.25969917 -0.21921806
000010 0a 6f bd 3d d8 7d 16 3e 49 dc 9e bc 08 30 54 3e
       0.09249695 0.14696443 -0.01939215 0.20721447
000020 83 c6 5a 3e 4c 53 d7 bd
       0.21364789 -0.105139345

decoderIn.weight f4 [18, 10]
000000 1c 6c 3c be 90 50 e6 bc 28 38 32 bd 53 b3 9a be
       -0.18400615 -0.028114587 -0.043510586 -0.3021494
000010 46 d8 55 3e 6a e1 7e 3e 2b 78 9b be fd c4 04 be
       0.20883283 0.24890676 -0.30365118 -0.1296577
000020 e8 e4 1f 3d a8 ba 5a 3d 47 e5 8d 3e 30 88 ea 3d
       0.03903666 0.053400666 0.27713987 0.11451757
000030 15 21 8f be 20 67 8e bc 86 3d 74 3e 88 3e 63 3d
       -0.27954927 -0.017383158 0.23851594 0.055479556
000040 7b 55 9e 3e c0 3c 38 3c d4 fc 06 be 03 40 98 be
       0.3092459 0.011244953 -0.13182384 -0.29736337
000050 2b 29 9a 3e f1 de e1 bd bb 5a 89 bd 99 ab de 3d
       0.30109534 -0.11028851 -0.067067586 0.108725734
000060 97 b8 98 3e 89 ba d3 bd a4 5e 8f 3e ae 68 3e be
       0.2982833 -0.10338313 0.28001893 -0.1859462
000070 0c 5e 38 bd ed bb 90 3d a7 45 6e 3e 03 90 70 bd
       -0.045011565 0.07067094 0.23268758 -0.05873109
000080 39 47 36 be f6 07 99 3c da 57 22 be f0 e2 f1 bc
       -0.17800607 0.018680554 -0.15853825 -0.029527158
000090 77 58 5e 3e f1 19 d8 bd d3 ed 0c 3e ba f9 83 be
       0.21713434 -0.10551823 0.13762598 -0.25776464
0000a0 63 c3 88 be 71 b8 18 3e 14 6e 47 3e 1b e1 92 be
       -0.26711568 0.14914109 0.19475585 -0.28687367
0000b0 6b de 95 3e 26 20 64 be 30 68 69 3d 5d d6 66 be
       0.29271254 -0.22277889 0.056984127 -0.2254271
0000c0 0d b0 63 3e 18 8f 88 3a 2d b5 98 3e a9 4f 2f be
       0.22235127 0.0010418622 0.29825726 -0.17120232
0000d0 ba c1 83 3e 57 f6 cd 3d 19 3f 54 3e ab c7 8b be
       0.2573374 0.10056751 0.20727195 -0.27300772
0000e0 c7 bd 8f 3e 99 d5 67 3e 9e ff c3 bd 44 88 87 3e
       0.28074476 0.22640075 -0.095702395 0.2647115
0000f0 6b 22 90 be 6c 2f ef 3d 4e f9 56 3e f7 ee 99 be
       -0.2815126 0.11678967 0.2099354 -0.30065128
000100 28 a8 9b bd 68 4d 53 3d 20 d7 b0 3d 85 68 8e be
       -0.07600433 0.051587492 0.08634782 -0.27814117
000110 fa 4d 56 be dc ed ae 3d 33 47 8e 3e 3e f2 05 be
       -0.20928183 0.08541462 0.27788696 -0.1308069
000120 c6 27 0c be 9c 91 82 3c e7 a1 16 3c 6f b7 91 3c
       -0.13687047 0.015938573 0.009193874 0.017787663
000130 43 b8 ee bc 8a eb a7 bd 50 25 1f be be 66 8a bd
       -0.029140597 -0.081992224 -0.15541577 -0.06757878
000140 0a 75 dd bd 21 13 71 be bc 47 97 be e0 0a 7e 3d
       -0.10813339 -0.23542453 -0.29546916 0.06202209
000150 d8 2e bb 3d 48 a0 72 be 92 ac b6 bd e8 0e 5a 3d
       0.09139794 -0.23693955 -0.08919634 0.053236872
000160 44 9a 00 be 8f 0b 82 be 1e f8 7c be fa c3 54 3e
       -0.12558848 -0.25399444 -0.24704024 0.20777884
000170 08 5e 34 3d 4a 7d 9e bd 10 8c a0 bc 78 b3 31 3d
       0.044034988 -0.07738741 -0.019598037 0.043384045
000180 c0 cc d1 3b 5e 16 1a 3e 9e 8b 51 3e 1c 4b 98 3d
       0.006402582 0.15047595 0.20463416 0.07436201
000190 bd 79 34 3e ef 4b 78 3e 4f 6b a5 be 59 9a 99 3d
       0.17624564 0.24247716 -0.32308432 0.075001426
0001a0 79 d5 0d 3e 81 12 7a 3e 33 92 a1 bd 19 6f bf bc
       0.13850965 0.24421121 -0.078892134 -0.023368405
0001b0 64 ad 80 be 14 e6 2f be 4e b9 76 bd c9 be cd bc
       -0.25132287 -0.17177612 -0.060235314 -0.025115388
0001c0 bf ac 8c bc c1 fa 9c be 98 1f 96 be c2 87 81 3e
       -0.017172216 -0.3066006 -0.2932098 0.25298887
0001d0 0a b4 bd 3b ae 07 8d 3e 0a 32 1d 3e f8 be 9b be
       0.0057892846 0.27544922 0.1535112 -0.30419135
0001e0 f4 34 d8 3d a4 e2 e6 3d dd 46 0f be e0 81 1b 3e
       0.10556975 0.11273697 -0.13991876 0.15186262
0001f0 a0 4f dd bc 76 d0 6c 3e ba 39 30 be 80 75 d1 3c
       -0.027015507 0.23126397 -0.17209521 0.025568724
000200 17 aa 94 3e 60 55 88 be ae 04 9d be 64 c7 9d 3d
       0.29036018 -0.26627636 -0.30667633 0.07704046
000210 c6 1f 4a be 90 97 fa 3d e0 ac 46 be 69 83 07 be
       -0.19738683 0.122359395 -0.19401884 -0.13233723
000220 80 d9 28 bd 35 1f 8c be 9a b1 01 be 2e 69 26 3e
       -0.04122305 -0.2736756 -0.12665406 0.1625106
000230 e8 dd 89 be 29 79 04 be 73 35 3c be 27 b4 81 be
       -0.26927114 -0.12936844 -0.18379764 -0.25332758
000240 ef bd 08 be aa e5 06 3d ec 79 8b be 01 b9 ce bd
       -0.13353704 0.03293387 -0.27241457 -0.100938804
000250 f5 40 bd 3d 64 9c 2b 3d 6a 1c 43 3d e3 e9 d3 bc
       0.09240905 0.041897193 0.04763452 -0.025868362
000260 4a 89 a0 3e 8c 7b 86 be e4 58 2e 3e a6 b3 43 be
       0.31354743 -0.26266134 0.17026097 -0.19111499
000270 19 4f 85 3e 6c 10 26 be b6 2c cc bd 3c b9 24 3e
       0.2603691 -0.16217202 -0.099694654 0.16086286
000280 ec 2e 03 3d 0c 50 62 bd ab 8e 91 3d 7a 7c 83 be
       0.03202717 -0.05525212 0.0710729 -0.25680906
000290 64 49 51 3e 58 a8 1b bd 6c c3 1f be e5 1b 82 3e
       0.20438153 -0.038002342 -0.15601891 0.25411907
0002a0 44 4b 3a be f7 fe 7a 3e 78 e7 3c be 90 0d 7c be
       -0.18192774 0.24511324 -0.18447673 -0.24614549
0002b0 39 db de bd 1f a7 5c be 05 4b 92 3e 8e cd 31 bc
       -0.10881657 -0.21548127 0.2857286 -0.010852231
0002c0 d7 40 60 be 3b 6e 27 bd 22 27 0c be 5c c4 da bd
       -0.21899734 -0.04087661 -0.13686803 -0.10681984

decoderIn.bias f4 [18]
000000 15 fe 7a be ae 9b 91 be b9 7f da ba f2 f4 cd bd
       -0.24510987 -0.28439087 -0.0016670144 -0.10056485
000010 b4 60 a9 3d 4e 29 db 3d 64 ef b9 bd 9e 30 68 3e
       0.08270398 0.107012376 -0.09078863 0.22674796
000020 52 c9 23 be 41 71 98 be 62 4e 5f bc fc 72 29 3e
       -0.15994766 -0.29773906 -0.013629528 0.1654777
000030 2b 70 a1 be 53 4f 33 be ea d5 79 3d 8f 72 72 3e
       -0.3153089 -0.17510729 0.06099502 0.23676513
000040 14 f3 7d 3e 8c 20 70 3e
       0.24799758 0.23449916
