Bachelor/Fit tasks/lightning_logs/version_44/checkpoints/epoch=199-step=12200.ckpt (torch, 221147 bytes, 4 tensors)

fc1.weight f4 [40, 1350]
00000000: 65fb 123c 4b96 80bb 3911 34ba ae35 babc
00000010: 257a 733c b13b 91bc 7e2e e23b c155 e8bc
00000020: f816 b3bc 1e7a fb3b cfa2 333c a4f5 9aba
00000030: c0ae c8bc 9843 103b ea6c 52bc 3677 f3bc
00000040: bdc8 eabc 611c ad3c ce06 2c3c a400 f7bc
00000050: 84c2 6bba edd2 f7bc 1c40 a5bb 07fb d6bb
00000060: 5b16 bb3b d923 f8bc e1b5 533c 4718 d8bb
00000070: a8a7 fabc 6db5 5ebc 138f c3bc 1cc6 cabc
00000080: e23f febc ef6f debc 36d3 fbba 1691 dbbb
00000090: c165 f1ba 3cce e4bc 8fb1 f0bc b91f b8bc
000000a0: 50d1 603c 76ae d7bc ef63 8e3c f370 333c
000000b0: fd95 233b 156a aa3c 92c8 94bc 94f3 fabc
000000c0: 29d3 1cbb 120c 9f3c 8ade 943c 1c29 81bc
000000d0: fe5c a1bc 6666 383b 1fe6 b13c 479b a63b
000000e0: 8c97 b43c e693 97bc 1ca9 cbbb 4e10 83bc
000000f0: 2480 fabc 33ff b9bc ecbc ac3c b310 583c
00000100: 07f6 61bc 6db1 d23a 8425 e2bc a651 5d3c
00000110: 0cda fbbc eab1 ac3b 9932 8ebc b108 edbb
00000120: 5093 973c 3ca8 47bc 37ed 4bbb 08f5 9e3b
00000130: 48d3 85bc fa18 84ba 39d5 28bb 19bb 5abc
00000140: f1b3 e3bc e5d0 263c c757 bbbc e5e2 cdbc
00000150: 46d7 5abc 9748 fe3b 53fc 823c f0ef 87bc
00000160: e021 fc39 2189 9c3c 6535 0abb c789 973c
00000170: 06c7 7abc 110c dbbc 5dad 7f3c 1a16 febb
00000180: 94d3 72bc aced 04bc e13f b33c 1c99 f9bc
00000190: e8c6 213c 6c10 9f3b 95f5 7b3b 4f65 ac3b
000001a0: 16f8 97bc 1458 9b3c 228a e0bc 6895 833c
000001b0: 51f9 d1bc 0624 53bc 9c57 ed3b 0c84 4b3b
000001c0: ec5f 90bc 6e10 573a b0fd 9ebc f4c0 763c
000001d0: 3445 873b ea37 aabc 6c98 e4bc 9e73 99b7
000001e0: 22a6 d7bc ca17 91bc 8295 1a3c b284 4e3c
000001f0: c5ec 0a3c b7f9 a0bc 5d04 b3bc 5f61 39bc
00000200: 91a2 15bc 87b1 2f3a c53a ab3c e365 a1bc
00000210: 3ccd 90bb eced ad3c a180 aa3b a935 b7bc
00000220: 2eb8 c5bc 4150 db3b cb91 c3bc 5cbf 603c
00000230: a843 b3bc 5292 e73b 6426 5ebc a46b edbc
00000240: 7e7d 6bbb 3949 b93c 5697 7cbc 98fe b33b
00000250: 7273 8a3b 4a0c 373c d448 00bb 3744 59bc
00000260: 42df ecb8 94a5 bebc f5a0 303c 7f5d 35bc
00000270: d027 1d39 99a6 b4bc 7c69 f3bc 63b7 d03b
00000280: a8d6 6e3b 834d 98bc 8c13 79bc ae3d 19bc
00000290: 58b7 b2bc ac77 8ebc 11b8 85bc 14e5 cd3b
000002a0: 70b7 5bbc 5b93 bbbc 42a1 0e3c da7b 69ba
000002b0: cb44 86ba 3253 c13b 2f0b 02bc 73fd 8b3b
000002c0: be38 8ebc 4d5a 1e3c 88ef 5d3c 07b3 f7bb
000002d0: 9ba5 173c 6e53 0f3c 3df8 bcbb e65a b83c
000002e0: 00c2 b7b9 670f 6a3c 30a1 2a3c ba31 9c3c
000002f0: b31b b8ba 7399 393c 4b86 b03b 9efb 79bc
00000300: a4d8 1bbc 269a b63b 4b0e 9a3b f8f7 84bc
00000310: 1f7a d939 eb88 ac37 53c1 fdb8 6f7a c5bc
00000320: 62fa 403c 0375 babc 7707 ccbc 8803 cd39
00000330: 15b9 e9bb e33e 95bc 108c 423c b3fa b1bc
00000340: fd01 823c 8668 bebb 65b5 623c d5ff 38ba
00000350: 7b5a 98bc deda 133b 31da c7bc 6b0c f43b
00000360: 0dd5 953c 9a2e 803c 2f6e 17bc f93b 2e3c
00000370: 72aa ccbc e14a 2c3c a1fa bbbc d42a a33c
00000380: 5394 3bbb 356e 7b3b 156b 81bb ca91 6e3c
00000390: 9917 dbbb 0d1d c9ba dabe c4bb 105d 573c
000003a0: 2d85 d9bc c911 e9bc 3763 a8bc ed97 a8bc
000003b0: 98b1 d5bb ba4a a6bc 179b c3bc db02 e0bc
000003c0: 303f 933b 8212 bebc 79ba 1f3b b62e 553b
000003d0: 8ffa f4bc 9798 623c 56ad bd3b ac44 923c
000003e0: 5a90 74bc 02cc a33a bc1b bcbc 07f1 b6bc
000003f0: 859d 9439 6045 92bc 7d82 efba 131c 503c
0.00897107 -0.0039241663 -0.00068690215 -0.022730675 0.0148606645 -0.017728658 0.006902515 -0.028361203
-0.021861538 0.0076744696 0.01096411 -0.0011822474 -0.02449739 0.0022012945 -0.01284335 -0.02971993
-0.028660173 0.021131696 0.010499669 -0.030151673 -0.00089935237 -0.030251944 -0.005043043 -0.0065606865
0.005709452 -0.030290531 0.012921781 -0.006594691 -0.030597523 -0.01359306 -0.023871934 -0.024752669
-0.031036321 -0.027152983 -0.0019212726 -0.006700645 -0.0018417166 -0.027930371 -0.029381542 -0.022476064
0.013721779 -0.026328307 0.017381636 0.010952222 0.0024961226 0.020802537 -0.018162046 -0.030633725
-0.0023929572 0.019414935 0.018172521 -0.015766673 -0.019697662 0.0028137206 0.021716176 0.0050844285
0.02204492 -0.01850314 -0.006215228 -0.015998986 -0.03057868 -0.022704696 0.021086179 0.013187575
-0.013791568 0.0016074606 -0.02760578 0.013508236 -0.030743621 0.0052702324 -0.017358111 -0.007233702
0.018502861 -0.012186106 -0.0031116733 0.0048509873 -0.016336098 -0.0010078244 -0.0025761856 -0.013350272
-0.027795764 0.01018164 -0.022869004 -0.025132606 -0.013356989 0.007760118 0.015989458 -0.016593903
0.00048090424 0.019108357 -0.0021088955 0.018498315 -0.01530624 -0.026739152 0.015605298 -0.0077540996
-0.014820952 -0.008113306 0.021881046 -0.030468516 0.009874083 0.0048542526 0.003844594 0.0052611004
-0.018550914 0.018962897 -0.027409617 0.016062453 -0.025631579 -0.012887007 0.00724311 0.0031054048
-0.017623864 0.00082040473 -0.019408077 0.015060652 0.0041281227 -0.020778615 -0.027904712 -1.829286e-05
-0.026324335 -0.017711539 0.0094350595 0.012604879 0.008479302 -0.019650323 -0.021852667 -0.011314719
-0.009132997 0.0006702174 0.020902047 -0.019701904 -0.004418997 0.021231614 0.005203322 -0.022364454
-0.024135675 0.0066929166 -0.02387323 0.013717499 -0.021882847 0.0070670033 -0.013558958 -0.028981991
-0.0035932953 0.022617923 -0.015416941 0.0054929964 0.004225188 0.011172364 -0.001957466 -0.013260893
-0.00011294942 -0.023272313 0.010780563 -0.0110696545 0.00014987518 -0.022052096 -0.029713385 0.0063695177
0.0036443863 -0.018591648 -0.015202414 -0.0093530845 -0.02181594 -0.017391048 -0.016323121 0.0062834118
-0.013410434 -0.022897413 0.008705439 -0.00089067 -0.001024389 0.00589981 -0.007937237 0.004272157
-0.017361041 0.009665084 0.013545878 -0.0075591835 0.009255792 0.0087479185 -0.005766897 0.022504281
-0.0003504902 0.014285899 0.010414407 0.01906668 -0.0014046341 0.011328089 0.0053871027 -0.015257744
-0.0095121 0.005572575 0.004701411 -0.016231522 0.00041480453 2.0567755e-05 -0.000120999895 -0.024106232
0.011778446 -0.022760874 -0.024905903 0.00039103278 -0.007132659 -0.018218463 0.011874214 -0.021725988
0.015870089 -0.0058108 0.013837193 -0.0007057165 -0.018597832 0.0022560875 -0.024396034 0.0074477694
0.018290067 0.015647221 -0.009242578 0.010634416 -0.024983618 0.010515899 -0.022946658 0.019917883
-0.0028622344 0.003836525 -0.0039495328 0.014561126 -0.0066861627 -0.0015343741 -0.0060041966 0.013144746
-0.026552761 -0.028450863 -0.020555122 -0.020580256 -0.006521415 -0.020299304 -0.023877664 -0.027345112
0.0044936165 -0.023202185 0.002437262 0.0032529063 -0.029904632 0.013830326 0.0057884855 0.01785501
-0.014926994 0.0012496712 -0.022962444 -0.022331728 0.0002834612 -0.017855346 -0.0018273141 0.012702006

fc1.bias f4 [40]
00000000: 4473 12bc b2a6 843d dc47 473d d783 903c
00000010: 69ad 4f3c 3aad b83b c91a e1bb f2b4 c53b
00000020: d35b 05be 77c6 b03c e9f3 68bc 0ade 313c
00000030: c247 51bc 8fef 723c ffb5 1c3c daed 2bbe
00000040: 6d62 2f3c c1ef a8ba d963 a9bd ddfd 07be
00000050: 9c07 933c 1fad e33c e6c6 cfbd 0f0f 40bd
00000060: dcb6 b13c 78c1 02bd 5498 a8bd 1f1f fd3b
00000070: 553e adbc 427d 0ebc 2e9d 56bc 88c7 063c
00000080: d2bc 52be e659 87be 56b5 c9bb 1bf2 96bd
00000090: eca8 ccbc f3ce debd 6895 b13c de5a febd
-0.008938614 0.06477107 0.048652515 0.017640991 0.012675622 0.0056358846 -0.006869648 0.0060335333
-0.1302331 0.02157901 -0.014218309 0.010856161 -0.012773456 0.014827623 0.009564876 -0.16789952
0.010704619 -0.0012888835 -0.082709976 -0.13280435 0.017947964 0.027792512 -0.10145359 -0.04688936
0.02169364 -0.031922787 -0.08232179 0.007724657 -0.021147886 -0.008696856 -0.013098998 0.008226283
-0.20579842 -0.26435775 -0.00615565 -0.07370397 -0.024982892 -0.10879316 0.021677688 -0.12419675

fc2.weight f4 [3, 40]
00000000: 7f77 653d 6fef e23c bd1e 293d 0a67 ce3d
00000010: 3f5e 4f3d ad6f f33d 77d3 12be b476 803d
00000020: 025b 3bbe 1377 183d ba84 e6bd 4d3d dc3c
00000030: 226c 583d ff3d 733c 44cc f33d 0eef 6abe
00000040: 0767 1d3b 8e41 63bb 76f0 1abd 225f 15bd
00000050: d40a 16be bcef 383e 9ddc b43d f41a 14be
00000060: 4a73 f13d fe1e f33d a618 19bd 942f fc3d
00000070: 261d 52bd fc85 173d 9c66 80bc 8dc1 643e
00000080: a6b3 53be 3621 77be a1f0 263d 579f dcbd
00000090: 72ad 0fbe 0ebe e0bd 5bf2 5c3e 38dd 32be
000000a0: 35f3 253d 3b37 3b3d 6f56 223e 2145 383d
000000b0: edb9 4f3d e5ad ec3c c3a3 e43d 301c 7e3c
000000c0: 6aa1 94bd 5eaf 2e3e fd0d 0abe 7877 553d
000000d0: 35e9 f53d 5bd6 0ebe 8d84 ac3d 2382 37bd
000000e0: 06c8 3e3e 91fe e73d 6f49 8bbd c95b 41be
000000f0: 05a9 7abc da9d 3c3e 12b0 10be 6a8e 08be
00000100: eae0 f43c 937b 96bd 0607 d7bd 4ca6 e13d
00000110: a51b 833d 9a0a 10be 819f 443d 7b9d a23c
00000120: 09b4 83be cc6f 5cbe b0a8 16be 6109 7dbc
00000130: 4ddd d9bc eb94 cdbd e8f5 153d efbc 18be
00000140: 653d 9d3d 65f9 143e f4b4 ce3d 09eb 113d
00000150: 0f27 663e 6357 2f3e 3ad6 2bbd a89e cebc
00000160: 2a26 ccbd 0dc1 d03d 2030 9cbd 742d 653d
00000170: f8fa 2e3d 704e 1c3e 0238 793c bbfb 6cbe
00000180: 3da8 c7bd 4fe9 2cbd 3c32 24be c20d 1fbe
00000190: 6111 efbd 9146 7c3d 4fc7 2fbe bd3c 57bd
000001a0: 22d0 a6bd d13d 10be 32e2 d3bd 496f dbbc
000001b0: 5b67 66bd 5265 04be eb64 1a3c 0b80 563e
000001c0: 3a83 98bd 82ce 4dbe 84b5 0f3e 202d 38be
000001d0: 28af c3bd c803 3abd a8e5 b73c 05b3 32be
0.056022163 0.027702061 0.04128908 0.10078247 0.05062699 0.11886535 -0.1433848 0.06272641
-0.18296435 0.037222933 -0.11255784 0.0268847 0.0528375 0.014846324 0.11904195 -0.22942755
0.0024017708 -0.0034676525 -0.037826978 -0.03646768 -0.14652568 0.18060201 0.08831141 -0.14463407
0.11789568 0.11871146 -0.037377022 0.12313762 -0.05129733 0.03699301 -0.015673928 0.22339459
-0.20673999 -0.24133763 0.040756825 -0.10772579 -0.14031008 -0.1097375 0.21576826 -0.17467201
0.040515143 0.04570697 0.15853284 0.0449878 0.050714422 0.028891513 0.111640476 0.01550965
-0.0725735 0.17059085 -0.13481899 0.052115887 0.12007371 -0.13948958 0.084237196 -0.044801842
0.1863099 0.113278516 -0.06801116 -0.1888267 -0.015299086 0.1841959 -0.14129665 -0.13335577
0.029892404 -0.07347789 -0.104993865 0.11018047 0.06401757 -0.14066544 0.048003677 0.019850483
-0.25723293 -0.21527022 -0.14712787 -0.015444131 -0.026594782 -0.100381695 0.036611468 -0.14915822
0.07677726 0.14548261 0.10093108 0.035624538 0.22475837 0.17123179 -0.04195235 -0.025222138
-0.09968217 0.101930715 -0.076263666 0.05595155 0.04271981 0.15264297 0.015211107 -0.23142903
-0.09748886 -0.042214688 -0.16034788 -0.15532592 -0.11673237 0.061590735 -0.17165874 -0.05254816
-0.08145167 -0.14086081 -0.10345878 -0.026786463 -0.05625091 -0.12929276 0.009423475 0.20947282
-0.074469045 -0.20098308 0.14034086 -0.17985964 -0.09554893 -0.045413762 0.022448376 -0.17451103

fc2.bias f4 [3]
00000000: 68d8 db3c 447b 6b3e 9178 e93d
0.026836589 0.22996241 0.11399949
