Bachelor/Fit tasks/lightning_logs/version_10/checkpoints/epoch=49-step=3050.ckpt (torch, 59603 bytes, 6 tensors)

fc1.weight f4 [10, 1350]
0	0xbd87e114	-0.06634727
1	0xbd87a0ad	-0.06622443
2	0xbd45b5a8	-0.048268944
3	0xbd8a1e20	-0.06744027
4	0xbd8b21cc	-0.067935556
5	0xbd86d99e	-0.06584476
6	0xbd8fc208	-0.070194304
7	0xbd99ac6e	-0.075035915
8	0xbd96281d	-0.0733187
9	0xbda280be	-0.07934712
10	0xbd97d71d	-0.074140765
11	0xbda09975	-0.078417696
12	0xbda3d28c	-0.07999143
13	0xbcdb06ad	-0.026736582
14	0xbd6d2767	-0.057898905
15	0xbd6794c5	-0.056538362
16	0xbd0c0c8a	-0.034191646
17	0xbcede9f5	-0.029042223
18	0xbda360bb	-0.07977434
19	0xbd477d13	-0.048703264
20	0xbcd4646b	-0.02592679
21	0xbcddf70b	-0.027095338
22	0xbd0de9a2	-0.034646638
23	0xbd1700b8	-0.03686592
24	0xbd99abdb	-0.07503482
25	0xbcc96195	-0.024582664
26	0xbd79504d	-0.060867596
27	0xbd72b82b	-0.059257668
28	0xbd9e8a81	-0.07741261
29	0xbd6e6b5b	-0.05820785
30	0xbce7ec47	-0.028310908
31	0xbd3ec140	-0.046571016
32	0xbd3c5ca2	-0.04598678
33	0xbd8b0e3e	-0.06789826
34	0xbd2fccce	-0.042919926
35	0xbcca3b4d	-0.02468648
36	0xbcfab2bb	-0.030602803
37	0xbd721be2	-0.059108622
38	0xbd8c123d	-0.06839416
39	0xbd6b178f	-0.057395514
40	0xbd555296	-0.052080713
41	0xbd98777e	-0.07444666
42	0xbd8b5730	-0.06803739
43	0xbccad35b	-0.024758985
44	0xbd80bbda	-0.0628583
45	0xbcffd4e8	-0.031229451
46	0xbd533ccb	-0.05157165
47	0xbd8e8dbf	-0.0696063
48	0xbd5d89b5	-0.054086406
49	0xbd7d8025	-0.061889786
50	0xbd96bccb	-0.07360228
51	0xbd99a770	-0.07502639
52	0xbd8acfb5	-0.06777898
53	0xbd3830ba	-0.044968344
54	0xbd7ce32c	-0.061740085
55	0xbcb0232e	-0.02150115
56	0xbd89b680	-0.06724262
57	0xbd101ddc	-0.035184726
58	0xbd77d1c1	-0.06050277
59	0xbcfee89d	-0.031116778
60	0xbd45c497	-0.048283186
61	0xbd28e16a	-0.041230597
62	0xbd893458	-0.06699437
63	0xbd89f907	-0.06736951
64	0xbcbec0ee	-0.023285355
65	0xbd6e72ce	-0.058214955
66	0xbd958a53	-0.07301774
67	0xbd00e1ed	-0.03146546
68	0xbd1e0e98	-0.038588136
69	0xbd7144b2	-0.058903404
70	0xbd37ead1	-0.044901673
71	0xbca64154	-0.020294823
72	0xbd4413c2	-0.047870405
73	0xbd8f975c	-0.070112914
74	0xbd52da89	-0.051477943
75	0xbd0693e9	-0.032855902
76	0xbd3f27be	-0.04666876
77	0xbd581935	-0.052758414
78	0xbd515798	-0.051108927
79	0xbcd10227	-0.025513722
80	0xbd3ef818	-0.04662332
81	0xbcf6e501	-0.030138494
82	0xbceb1bce	-0.028699782
83	0xbd88fed0	-0.066892266
84	0xbcb37c71	-0.021909924
85	0xbd58ddf4	-0.052946046
86	0xbd6cd116	-0.057816587
87	0xbd558c37	-0.052135672
88	0xbcefea78	-0.029286608
89	0xbcd0c013	-0.025482213
90	0xbd6eb5c6	-0.05827882
91	0xbd87695f	-0.06611895
92	0xbd0cf2ce	-0.034411244
93	0xbd8c72af	-0.06857812
94	0xbd54b450	-0.051929772
95	0xbd6473e0	-0.05577457
96	0xbd838dce	-0.064235315
97	0xbc970bdf	-0.018438278
98	0xbd2d28ae	-0.042275123
99	0xbcb5ddee	-0.02220055
100	0xbd4da4e1	-0.05020607
101	0xbca250d2	-0.019813929
102	0xbd047e31	-0.032346908
103	0xbd3dcabe	-0.04633593
104	0xbd20e208	-0.03927806
105	0xbd184c0a	-0.03718189
106	0xbd6089c1	-0.054818872
107	0xbd4996c0	-0.049216032
108	0xbd3a4dba	-0.045484282
109	0xbd1f52df	-0.03889739
110	0xbd37e45c	-0.044895515
111	0xbd78e56d	-0.060765672
112	0xbd18e75a	-0.03733001
113	0xbd884a9e	-0.06654857
114	0xbd0b0890	-0.033943713
115	0xbcd1c579	-0.025606858
116	0xbd879c2d	-0.06621585
117	0xbd2c8bab	-0.042125385
118	0xbd5194e4	-0.051167384
119	0xbcfba99b	-0.030720523
120	0xbd91192c	-0.07084879
121	0xbd4a3db9	-0.04937527
122	0xbd4d6995	-0.05014952
123	0xbc97fc13	-0.018552816
124	0xbd54229d	-0.051790822
125	0xbd2664b9	-0.0406234
126	0xbd762e93	-0.06010301
127	0xbd3704f2	-0.04468245
128	0xbd483898	-0.048882097
129	0xbc998eee	-0.018744912
130	0xbd879cc8	-0.066217005
131	0xbd700bdc	-0.05860506
132	0xbd4446d6	-0.047919117
133	0xbd02f8f4	-0.0319757
134	0xbd5742de	-0.052554004
135	0xbd0ff687	-0.035147216
136	0xbca913aa	-0.02063926
137	0xbd83c18c	-0.064334005
138	0xbd1e96cd	-0.038718034
139	0xbd8d1db0	-0.06890428
140	0xbd1972eb	-0.03746311
141	0xbd535bb1	-0.051601116
142	0xbd8bc65a	-0.06824942
143	0xbd437a04	-0.047723785
144	0xbc9bbc2e	-0.01901063
145	0xbd5f9e4d	-0.054594327
146	0xbd778b5a	-0.06043563
147	0xbd70a60b	-0.0587521
148	0xbc9367c1	-0.01799381
149	0xbd891df0	-0.06695163
150	0xbd4d81d5	-0.050172646
151	0xbd863418	-0.06552905
152	0xbd076b7f	-0.0330615
153	0xbd8b07e7	-0.067886166
154	0xbcbf2ca1	-0.02333671
155	0xbd8665b2	-0.065623656
156	0xbd8f2f94	-0.06991497
157	0xbd20faa0	-0.039301515
158	0xbd689c35	-0.056789596
159	0xbcdb9826	-0.026805948
160	0xbcb43e6d	-0.022002423
161	0xbcaa45d7	-0.020785255
162	0xbd04546f	-0.032307085
163	0xbd71e0d7	-0.059052315
164	0xbd896b99	-0.06709976
165	0xbcf84897	-0.030308051
166	0xbd23c966	-0.03998699
167	0xbcc701dc	-0.024292879
168	0xbd90bff2	-0.07067861
169	0xbd09a6c0	-0.03360629
170	0xbd5ffcee	-0.054684572
171	0xbd504247	-0.050844457
172	0xbcd5beb8	-0.026091918
173	0xbd12f7e4	-0.03588094
174	0xbd4eaf28	-0.05046001
175	0xbd785516	-0.06062802
176	0xbcfd0a66	-0.030888747
177	0xbd466d69	-0.048444185
178	0xbd5da6d1	-0.054114167
179	0xbd0be6a1	-0.03415549
180	0xbd896b49	-0.06709916
181	0xbd8de4ba	-0.06928392
182	0xbd48278c	-0.04886584
183	0xbd4f7718	-0.050650686
184	0xbca71f36	-0.020400625
185	0xbd49ab70	-0.04923576
186	0xbd8ae0de	-0.06781171
187	0xbcfa9090	-0.03058651
188	0xbd3bb537	-0.045827117
189	0xbca77c70	-0.020445079
190	0xbd1e314c	-0.038621232
191	0xbd820017	-0.063476734
192	0xbcac519a	-0.021035004
193	0xbd1f5cad	-0.038906742
194	0xbd200e33	-0.03907604
195	0xbd9144be	-0.0709319
196	0xbd043756	-0.032279335
197	0xbd0df002	-0.034652717
198	0xbd81a216	-0.063297436
199	0xbd333869	-0.04375497
200	0xbcf80ebc	-0.030280463
201	0xbd403d7e	-0.046933644
202	0xbd744b4f	-0.059642132
203	0xbd5ea3a2	-0.05435527
204	0xbd6bde82	-0.057585247
205	0xbce8870e	-0.028384712
206	0xbcb505e9	-0.022097545
207	0xbd763b18	-0.06011495
208	0xbd494337	-0.049136367
209	0xbd7bf1a9	-0.061509762
210	0xbcce2001	-0.025161745
211	0xbce20b0e	-0.027593162
212	0xbcb420fc	-0.021988384
213	0xbd4304dd	-0.04761206
214	0xbd3c3c14	-0.045955732
215	0xbd4ee48f	-0.05051094
216	0xbd970a3d	-0.07375
217	0xbd66006a	-0.05615274
218	0xbd615a21	-0.055017594
219	0xbd8d11f4	-0.0688819
220	0xbcf9517c	-0.030434363
221	0xbd528f14	-0.05140598
222	0xbd02f24a	-0.031969346
223	0xbd9913d7	-0.07474487
224	0xbcc88b22	-0.024480406
225	0xbd60ffbb	-0.054931384
226	0xbcb0c6b5	-0.021579126
227	0xbd6d194b	-0.05788545
228	0xbd5a8dbd	-0.05335783
229	0xbd29de83	-0.04147197
230	0xbd272e43	-0.040815603
231	0xbcffe574	-0.031237341
232	0xbd81695d	-0.063189246
233	0xbd732557	-0.059361782
234	0xbd884385	-0.06653503
235	0xbccc1d07	-0.024916185
236	0xbd67f337	-0.056628432
237	0xbd416626	-0.047216557
238	0xbd97c466	-0.07410507
239	0xbd2ebfcf	-0.04266339
240	0xbd1d8f9e	-0.038467042
241	0xbd374f62	-0.04475344
242	0xbd7753fa	-0.06038282
243	0xbd86467b	-0.06556412
244	0xbd88b008	-0.066742
245	0xbd845921	-0.064623125
246	0xbd76e766	-0.060279272
247	0xbd34eeed	-0.04417317
248	0xbd90ef4b	-0.070768915
249	0xbd98fc71	-0.074700244
250	0xbd114840	-0.035469294
251	0xbd3e1cb7	-0.046414103
252	0xbd0c8232	-0.03430385
253	0xbd8fbe89	-0.070187636
254	0xbd112415	-0.0354348
255	0xbd44bcbe	-0.04803156

fc1.bias f4 [10]
0	0x3e4df1d5	0.20111783
1	0xbe4f7b41	-0.20261861
2	0x3e660d64	0.22466046
3	0x3d5d72be	0.054064505
4	0xbe2edb4b	-0.17075841
5	0xbe525cde	-0.20543239
6	0x3e9d9ea0	0.30785084
7	0x3d030b4c	0.031993195
8	0x3e64565c	0.22298568
9	0x3d43a666	0.04776611

fc2.weight f4 [10, 10]
0	0xbe9ad021	-0.30236915
1	0xbef8aa51	-0.4856744
2	0xbe92078f	-0.28521392
3	0x3d21bfa4	0.039489403
4	0xbe78b390	-0.24287248
5	0xbe46e453	-0.19423036
6	0xbf1a4e5e	-0.6027583
7	0x3f00496e	0.50112045
8	0x3f2c5901	0.6732331
9	0x3dcba506	0.09943585
10	0xbe80de43	-0.25169572
11	0xbd49b471	-0.049244348
12	0x3dbdd0a4	0.09268311
13	0x3ec05703	0.37566385
14	0xbe64034a	-0.2226688
15	0xbd23bcd7	-0.039975014
16	0xbec3e3e6	-0.3825981
17	0x3dadc66c	0.084851116
18	0xbe449ddd	-0.19200845
19	0xbe910f2b	-0.28331885
20	0xbea64503	-0.32474527
21	0xbeb28a0c	-0.34870946
22	0xbed8d702	-0.42351538
23	0x3e96c72a	0.29448825
24	0xbe0024e7	-0.12514077
25	0xbec30bf2	-0.3809505
26	0xbf09582f	-0.5365018
27	0x3e4cf8c4	0.20016772
28	0x3ede5bcc	0.4342941
29	0xbccd8a7a	-0.025090445
30	0x3efaf9ce	0.4901871
31	0x3de41453	0.11136689
32	0x3edc6999	0.43049315
33	0xbefaa65b	-0.48955044
34	0x3efef821	0.49798682
35	0x3e88041f	0.26565644
36	0x3edf9298	0.4366653
37	0xbf2ba683	-0.6705095
38	0xbea5ca5e	-0.32380956
39	0xbf36fdd2	-0.7148105
40	0xbe4dfefd	-0.20116802
41	0xbee3112b	-0.44349036
42	0xbf14a2d1	-0.5806094
43	0x3f21f0d7	0.6325812
44	0xbd2f9f0d	-0.042876292
45	0xbea05b75	-0.31319776
46	0xbf350781	-0.70714575
47	0x3f0aacc4	0.5416987
48	0x3e0a985a	0.1353468
49	0x3f28a877	0.65882057
50	0xbd83e71c	-0.06440565
51	0xbec05266	-0.37562865
52	0xbebf5a34	-0.37373507
53	0x3aab75ca	0.0013081369
54	0x3dedbd0f	0.11608326
55	0x3da1eb1e	0.07906173
56	0xbea610d2	-0.32434708
57	0xbcca3e14	-0.024687804
58	0x3e877c57	0.2646205
59	0x3e88e584	0.26737607
60	0x3f13b780	0.57701874
61	0xbd10be1d	-0.035337556
62	0x3f19612a	0.59913886
63	0xbec9ecd9	-0.39438513
64	0x3e9855a7	0.29752848
65	0x3e1717a3	0.1475511
66	0x3f3ddb67	0.74162906
67	0xbdfda5e8	-0.1238516
68	0xbe829b9a	-0.2550934
69	0xbe40ecc5	-0.1884032
70	0x3ef6f201	0.4823151
71	0x3e4f0e69	0.20220341
72	0xbb9a928c	-0.004717177
73	0xbd254230	-0.040346324
74	0x3db37026	0.08761625
75	0x3edb365b	0.42814907
76	0x3d046be5	0.03232946
77	0xbe8e2013	-0.27758846
78	0xbf1bb723	-0.6082632
79	0xbf2e3e44	-0.6806376
80	0x3dfb04a5	0.12256745
81	0x3dd61f63	0.10455205
82	0xbcff01c0	-0.031128764
83	0x3e8d5253	0.2760187
84	0x3e4a349d	0.19746633
85	0xbe5f489e	-0.21805045
86	0xbe08604a	-0.13317981
87	0xbd446839	-0.047950957
88	0xbd367b4b	-0.044551175
89	0xbe3cc65a	-0.1843504
90	0x3eb3b007	0.35095236
91	0x3e8a7f5d	0.27050295
92	0x3ebdc023	0.3706065
93	0xbf3a39df	-0.72744554
94	0x3eb15269	0.34633186
95	0x3e726a86	0.23673448
96	0x3e95edca	0.2928298
97	0xbee57fef	-0.44824168
98	0xbf5d4f9a	-0.8644959
99	0xbf1a06f6	-0.6016687

fc2.bias f4 [10]
0	0xbd84de30	-0.064876914
1	0xbeb33bd2	-0.35006577
2	0xbd5dfd95	-0.054196913
3	0xbf222acc	-0.6334655
4	0x3e8af68f	0.27141234
5	0xbe80bf81	-0.25146106
6	0xbe359cd1	-0.17735602
7	0xbc267895	-0.010160585
8	0x3d95df0e	0.07317935
9	0xbed1c4f2	-0.4097057

fc3.weight f4 [3, 10]
0	0xbf5a49a2	-0.85268605
1	0x3d9018db	0.07035991
2	0xbeec0b4b	-0.46102366
3	0x3f8ad90c	1.0847487
4	0xbf87ad8b	-1.0599836
5	0xbed6ca62	-0.4195128
6	0x3f3de810	0.74182224
7	0x3ef5fbe1	0.4804373
8	0x3c8ed50d	0.017435575
9	0x3f9bbc3e	1.2166822
10	0xbf390bbe	-0.7228354
11	0xbdef8f1d	-0.116972186
12	0xbf3d28a3	-0.7389013
13	0x3f90cb56	1.1312053
14	0xbf6f2df9	-0.93429524
15	0x3d3de95c	0.046365127
16	0x3f604aa2	0.8761388
17	0x3f276afa	0.6539761
18	0x3e95b290	0.29237795
19	0x3f8d6c55	1.1048685
20	0xbf138b65	-0.57634574
21	0xbeb68ff2	-0.35656697
22	0xbf106afb	-0.5641324
23	0x3f9eb3c3	1.2398609
24	0xbf657edb	-0.8964669
25	0xbe898040	-0.2685566
26	0x3f526b03	0.82194537
27	0x3f408982	0.7520982
28	0xbdb60d69	-0.088892765
29	0x3f8d6833	1.1047424

fc3.bias f4 [3]
0	0x3eddbccd	0.43308106
1	0x3c64ffe6	0.013977027
2	0x3e589976	0.2115229
