Bachelor/Fit tasks/lightning_logs/version_46/checkpoints/epoch=99-step=18700.ckpt (torch, 7123 bytes, 5 tensors)

fc1.weight f4 [20, 15]
0	0xbd4cacfd	-0.049969662
1	0xbd0cca57	-0.034372654
2	0xbd3c14a8	-0.045918137
3	0x3d649518	0.05580625
4	0x3d91015f	0.0708034
5	0x3e6b6f5f	0.22991703
6	0x3d2f05e4	0.042730227
7	0xbc9b9d60	-0.01899594
8	0xbd237f93	-0.039916586
9	0x3ea16b06	0.31526965
10	0x3f12b1c4	0.573025
11	0x3f0774e9	0.52912766
12	0xbdc867da	-0.09785433
13	0x3deb3904	0.11485484
14	0xbe2644d1	-0.16237189
15	0x3e8f44c7	0.2798216
16	0x3e26337b	0.16230576
17	0x3e261fb2	0.16223028
18	0xbe541ff4	-0.20715314
19	0xbe6cdd7c	-0.23131365
20	0x3b0bcab3	0.0021330535
21	0xbe788373	-0.24268894
22	0x3e134e28	0.14385283
23	0xbe299d3c	-0.16563886
24	0xbe8337c7	-0.25628492
25	0xbe73676f	-0.23769926
26	0xbe6d63b2	-0.23182562
27	0xbe4a880a	-0.19778457
28	0x3e7d1f3f	0.2471895
29	0xbe04cef6	-0.12969574
30	0xbe21cac6	-0.15800008
31	0x3cd019b1	0.025402876
32	0x3e28bd45	0.1647845
33	0x3e65d642	0.22445014
34	0x3e09d504	0.13460165
35	0xbe1f0b22	-0.1553159
36	0xbe2ba8da	-0.1676363
37	0x3da4cec9	0.08047254
38	0x3e2cb5c7	0.16866218
39	0x3e50ae9e	0.20379111
40	0xbe507477	-0.20356928
41	0xbdd6674d	-0.10468922
42	0xbe34f32f	-0.17670892
43	0x3d96f431	0.073707946
44	0x3e4a8a51	0.19779326
45	0x3e535bda	0.20640507
46	0x3e0b13dd	0.13581796
47	0x3d7d632d	0.06186216
48	0xbd473897	-0.048637953
49	0xbe557dcb	-0.20848767
50	0xbe65eba0	-0.22453165
51	0xbdb8186d	-0.08989034
52	0xbcfb739f	-0.03069478
53	0x3d9ae909	0.07563979
54	0xbe88e483	-0.2673684
55	0x3bc75f41	0.006084353
56	0xbca08f4a	-0.019599576
57	0xbb523329	-0.003207395
58	0x3aea7df3	0.0017890319
59	0xbe380844	-0.17971903
60	0xbdd3834f	-0.103277795
61	0xbe1ee2df	-0.15516232
62	0xbc9fcb28	-0.019506052
63	0xbe261c2e	-0.16221687
64	0x3da1dfa3	0.079039834
65	0xbd8e9b4e	-0.06963216
66	0xbe87f0ab	-0.26550803
67	0xbe016279	-0.1263522
68	0xbe3526b5	-0.17690547
69	0x3ddde915	0.108354725
70	0xbe750867	-0.23928986
71	0xbe355c1b	-0.17710917
72	0xbe4fdfa7	-0.2030016
73	0x3e5a3d88	0.21312535
74	0xbe61e3b8	-0.22059524
75	0x3e17a950	0.14810681
76	0x3dfca4cc	0.1233612
77	0x3e8bbc90	0.272923
78	0xbe18b9a2	-0.14914563
79	0xbdbc3c79	-0.09191222
80	0xbe486667	-0.19570313
81	0x3aa3b3b5	0.001248947
82	0xbdd62b76	-0.10457508
83	0xbe09e694	-0.13466865
84	0x3d515a64	0.051111594
85	0x3ea17bc6	0.31539744
86	0x3dfc1c8a	0.12310131
87	0xbdcfd234	-0.10147515
88	0x3e6809f6	0.2266005
89	0xbe0587ce	-0.13040087
90	0xbb1b3951	-0.0023685286
91	0xbd4f3f47	-0.050597455
92	0x3e1d3238	0.15351188
93	0x3e30e73b	0.17275707
94	0x3e11808e	0.14209196
95	0xbdad09b7	-0.084491186
96	0xbd2e7954	-0.042596176
97	0xbdb8c407	-0.09021764
98	0xbef4bfd7	-0.47802612
99	0x3f1990ad	0.5998638
100	0x3e689f88	0.22717106
101	0x3ef67fc2	0.48144346
102	0xbc6731a9	-0.014110961
103	0x3d4f9c72	0.050686307
104	0xbcf56501	-0.029955389
105	0x3dcc56ad	0.099774696
106	0x3e5408e2	0.20706514
107	0xbe7cef28	-0.24700606
108	0xbdaaa4dd	-0.083322264
109	0xbdcd4227	-0.10022383
110	0x3d7186e2	0.058966525
111	0x3e33d7a8	0.17562735
112	0xbda29129	-0.07937843
113	0xbe0ec9de	-0.13944194
114	0x3dec7466	0.11545639
115	0x3e024fa1	0.12725689
116	0xbe317f94	-0.17333823
117	0xbe1ce5ed	-0.15322085
118	0xbdfd19bf	-0.12358426
119	0x3ca1f3a8	0.019769505
120	0xbd063b5b	-0.03277145
121	0x3dfcd891	0.12345994
122	0xbe51a9b8	-0.20474899
123	0xbe614f12	-0.22002819
124	0xbe7b1458	-0.2451948
125	0xbe259040	-0.16168308
126	0xbc4af9cf	-0.012388661
127	0xbdf3859e	-0.1189072
128	0x3daccb16	0.08437173
129	0xbe306745	-0.17226894
130	0x3d16fb3e	0.036860697
131	0x3eb3261d	0.34990016
132	0xbdf3640a	-0.11884315
133	0x3d06428c	0.032778308
134	0xbd74521f	-0.05964863
135	0x3cc97f35	0.02459679
136	0x3dc06cce	0.09395753
137	0xbdf0a588	-0.117503226
138	0x3d453416	0.048145376
139	0x3a9201bb	0.0011139432
140	0x3d74111a	0.05958662
141	0x3eba936c	0.364406
142	0xbe209ceb	-0.1568486
143	0xbdb4435d	-0.08801911
144	0xbed9d159	-0.42542532
145	0xbeeb5d1d	-0.45969477
146	0xbed13309	-0.4085925
147	0xbe253e43	-0.16137032
148	0xbe0666a4	-0.13125092
149	0x3e6316f9	0.22176732
150	0xbe5b8230	-0.21436381
151	0xbd21ebc6	-0.03953149
152	0x3e7e59ba	0.24838915
153	0x3dfbc1b0	0.12292802
154	0x3d235033	0.039871406
155	0xbda40914	-0.08009544
156	0xbc25b969	-0.010115006
157	0xbc52e738	-0.01287251
158	0xbe815073	-0.2525669
159	0x3ee53571	0.44767335
160	0xbc902d7e	-0.017599817
161	0x3e429eef	0.19005941
162	0xbe6fb9d4	-0.23410732
163	0x3de16bc0	0.1100688
164	0x3defec20	0.11714959
165	0x3b9c2bf6	0.0047659827
166	0xbe26bb5e	-0.16282412
167	0x3e57b2f2	0.21064356
168	0x3da6c5fa	0.0814323
169	0xbd9f2455	-0.07770602
170	0xbe2bb455	-0.1676801
171	0xbe684554	-0.22682697
172	0xbd255772	-0.040366597
173	0x3d1d5959	0.038415287
174	0xbe1e56e2	-0.1546283
175	0x3e334ff8	0.17510974
176	0x3e5151d3	0.2044137
177	0xbd90789f	-0.07054257
178	0xbd9f1116	-0.07766931
179	0x3e5bea93	0.21476202
180	0xbe554a7c	-0.20829195
181	0xbc0be0a8	-0.008537449
182	0x3e6d28d7	0.2316011
183	0x3e02288d	0.12710781
184	0xbe284fea	-0.16436735
185	0x3cc710bd	0.024299974
186	0xbe96e6b6	-0.29472893
187	0xbb65a502	-0.003504098
188	0x3e40ee67	0.18840943
189	0x3ebaab7c	0.36458957
190	0x3ebdcd45	0.3707067
191	0xbdd025bf	-0.101634495
192	0xbe2b42ff	-0.16724776
193	0xbe17051b	-0.14748041
194	0xbe4d078d	-0.20022412
195	0xbde1bcc9	-0.11022336
196	0xbd8f1106	-0.06985669
197	0x3bfb8376	0.0076755835
198	0x3e5805e1	0.21095993
199	0x3d2651f1	0.04060549
200	0xbe541f65	-0.20715101
201	0xbe992ff4	-0.29919398
202	0x3aa6acff	0.0012716352
203	0x3dc006da	0.09376307
204	0xbea20660	-0.3164549
205	0xbef62faf	-0.48083255
206	0xbece0f24	-0.40245926
207	0xbe4e64cb	-0.20155637
208	0x3e01db00	0.12681198
209	0x3df54370	0.11975753
210	0xbe4b26ca	-0.19839016
211	0x3e66107b	0.22467224
212	0x3e2323f5	0.15931685
213	0x3e675bac	0.22593564
214	0x3e356e64	0.17717892
215	0x3ea1cb2d	0.31600323
216	0xbe18b05b	-0.14911024
217	0x3d95ecc7	0.07320552
218	0x3d8f6d33	0.0700325
219	0x3cc2b210	0.023766547
220	0x3e04805b	0.12939589
221	0x3d29a3d6	0.04141601
222	0xbdee3cdc	-0.11632702
223	0x3d24d799	0.040244672
224	0xbde6777e	-0.1125326
225	0x3dfaee16	0.122524425
226	0x3e1a24a1	0.15053035
227	0xbdcc3032	-0.0997013
228	0x3e637350	0.22211957
229	0x3e18ca8d	0.14921017
230	0xbe155dea	-0.14586607
231	0xbd0df0ed	-0.034653593
232	0xbe4808ff	-0.19534682
233	0xbe7485dd	-0.2387919
234	0x3d729bec	0.05923073
235	0x3eda3161	0.42615798
236	0x3efc3aed	0.49263707
237	0x3d427231	0.047472183
238	0x3db6263b	0.08894011
239	0x3d001108	0.031266242
240	0xbe294ea8	-0.16533911
241	0xbdcb3ba0	-0.09923482
242	0x3e51938d	0.20466442
243	0xbc805b00	-0.015668392
244	0x3e470f9a	0.19439545
245	0xbdef502e	-0.11685215
246	0x3ddbf301	0.10739709
247	0x3e4651c2	0.19367126
248	0xbdc4ad2c	-0.096033424
249	0x3c6aecf5	0.0143387215
250	0x3eaececc	0.34142148
251	0x3db35cb9	0.0875792
252	0x3e3d26c0	0.18471813
253	0xbe4e1482	-0.2012501
254	0xbdbd8f39	-0.09255833
255	0x3ddd818b	0.10815724

fc1.bias f4 [20]
0	0x3d1a5e7a	0.037687756
1	0xbdf7f69f	-0.12107586
2	0xbdec52c9	-0.115392275
3	0x3e60451e	0.21901366
4	0xbe128b61	-0.14310981
5	0x3c79f627	0.015256441
6	0xbecdb3ec	-0.40176332
7	0xbd4163a9	-0.047214184
8	0xbdb68b20	-0.08913255
9	0x3dfd92d6	0.12381522
10	0xbe7a8bd1	-0.24467398
11	0xbe95a17e	-0.2922477
12	0xbe765c8a	-0.24058738
13	0x3ecdb89d	0.4017991
14	0x3e238d9d	0.1597199
15	0xbd4c9c3c	-0.049953684
16	0xbd368076	-0.044556104
17	0x3d5652cc	0.052325055
18	0xbe1a56c2	-0.15072158
19	0x3c9363a9	0.017991858

fc2.weight f4 [10, 20]
0	0xbe390739	-0.18069161
1	0x3e6a6300	0.22889328
2	0x3e24bc5c	0.16087478
3	0x3ea5a50c	0.32352483
4	0x3c4bc11b	0.012436177
5	0x3e3cae79	0.18425931
6	0xbd10f4a1	-0.035389546
7	0xbd7b1142	-0.061295755
8	0x3e0467c9	0.12930216
9	0x3e0b3090	0.13592744
10	0xbea45e47	-0.32103178
11	0x3cced0fb	0.025246134
12	0xbe8d095f	-0.27546212
13	0x3e996964	0.2996322
14	0x3e5a0ffd	0.21295162
15	0xbe09bea9	-0.13451637
16	0xbe72fdb3	-0.23729591
17	0x3e4453ff	0.19172667
18	0xbdf4538b	-0.11929997
19	0xbb7a9e82	-0.003824145
20	0xbd4e723b	-0.050401907
21	0xbd61e3aa	-0.055148758
22	0x3cc2e94f	0.02379289
23	0x3e6fce93	0.23418646
24	0xbe438815	-0.1909488
25	0x3d0b7b50	0.034053147
26	0xbdb5f7e8	-0.08885175
27	0x3df6d2a6	0.12051897
28	0xbe356e2c	-0.17717808
29	0x3ea90ee2	0.33019167
30	0xbda93fa3	-0.08264091
31	0xbe763644	-0.24044138
32	0x3d965abe	0.073415264
33	0x3e2eed12	0.17082623
34	0x3e9a6c8a	0.30160934
35	0xbe2bd542	-0.1678057
36	0x3dfc852f	0.1233009
37	0xbdc53c16	-0.09630601
38	0xbdad23df	-0.084541075
39	0x3d8b8137	0.06811755
40	0xbe860880	-0.2617836
41	0x3de62b93	0.1123878
42	0x3def1b7e	0.116751656
43	0x3daa9d85	0.08330826
44	0x3e0123d7	0.12611328
45	0x3e973eea	0.29540187
46	0x3e1a670c	0.15078372
47	0x3d919cb0	0.07109964
48	0x3e018fcc	0.1265251
49	0xbcf63683	-0.03005529
50	0x3e2a9e45	0.16661938
51	0x3dd51287	0.104039244
52	0x3d90f648	0.070782244
53	0xbcd903b8	-0.026491031
54	0xbe960b79	-0.29305628
55	0xbccc6146	-0.024948727
56	0x3e328386	0.17432985
57	0xbafee883	-0.0019447956
58	0x3e32e08c	0.1746847
59	0x3ca04928	0.019566134
60	0xbcdc11ac	-0.026863895
61	0x3e903daf	0.2817206
62	0xbdc8862d	-0.09791217
63	0xbd8e8315	-0.06958596
64	0x3e2a7eef	0.16649984
65	0xbcd1707e	-0.025566336
66	0xbe027931	-0.12741543
67	0x3e2e86d5	0.17043622
68	0x3e216c57	0.15763985
69	0x3e2e20d7	0.17004715
70	0xbe87c41e	-0.26516813
71	0x3d0aba63	0.03386916
72	0xbe39df22	-0.18151525
73	0x3e0606c2	0.13088515
74	0x3e940e39	0.289171
75	0xbcc03d47	-0.02346672
76	0x3e42dd5f	0.19029759
77	0xbca751e6	-0.020424794
78	0x3d21eac3	0.039530527
79	0xbc743fe2	-0.014907809
80	0xbe7a23e9	-0.24427761
81	0x3dabb6cb	0.08384474
82	0xbc8532c8	-0.016259566
83	0x3d2ca92e	0.04215353
84	0x3e704e59	0.23467387
85	0x3cf051b6	0.029335838
86	0xbe4e2621	-0.20131733
87	0x3d178800	0.036994934
88	0x3e7e1c0c	0.24815387
89	0x3e7ed2fc	0.24885172
90	0xbe7446e7	-0.23855172
91	0xbcc91551	-0.024546297
92	0x3c86297b	0.016377201
93	0x3c8a7d1f	0.016905366
94	0x3c89d5bd	0.016825551
95	0xbdcb5080	-0.099274635
96	0xbe6da0f3	-0.23205929
97	0x3e721b2b	0.23643176
98	0xbe50fb9b	-0.2040848
99	0x3af53535	0.0018707874
100	0x3ee404f4	0.4453503
101	0x3dc5e491	0.09662736
102	0xbe3857de	-0.18002269
103	0x3d8f0489	0.06983287
104	0x3de190d3	0.11013951
105	0xbda0d9ae	-0.07854019
106	0x3f063e9a	0.5243927
107	0xbe2be597	-0.167868
108	0xbd065bb9	-0.032802317
109	0xbe9879fd	-0.2978057
110	0x3e8456cb	0.25847468
111	0x3e875a0c	0.26435888
112	0x3d5d4da7	0.054029133
113	0xbecbb87f	-0.39789197
114	0x3e0589c2	0.13040832
115	0x3ec09f46	0.37621516
116	0x3e62b6a2	0.22139981
117	0x3cdb0ebe	0.026740428
118	0x3ebe1334	0.37124026
119	0xbe5ec3de	-0.21754405
120	0x3f05eead	0.52317315
121	0x3c1a00bc	0.009399589
122	0x3db6de38	0.089291036
123	0xbd02f275	-0.031969506
124	0xbd72ce75	-0.059278924
125	0x3d268e4b	0.040663045
126	0x3f12693c	0.57191825
127	0x3c15c276	0.009140601
128	0xbe0bbbed	-0.13645907
129	0xbecbf025	-0.39831653
130	0x3e18ce5e	0.14922473
131	0x3d703f52	0.058654137
132	0x3ec5d9f8	0.3864286
133	0xbed96acb	-0.4246429
134	0x3e187942	0.14890006
135	0x3e584411	0.21119715
136	0xbd9b4e7e	-0.075833306
137	0xbe9162dd	-0.2839574
138	0x3eac3daa	0.33640796
139	0xbd01bd82	-0.03167487
140	0x3e4ec290	0.20191407
141	0xbc5ac8b7	-0.013353518
142	0x3d8f950d	0.07010851
143	0xbd54b8d1	-0.051934067
144	0xb9eb6b36	-0.0004490257
145	0x3dba3554	0.09092203
146	0x3ec21518	0.37906718
147	0x3de2f62b	0.11082109
148	0xbd76d5c9	-0.060262475
149	0xbe23cdde	-0.15996501
150	0xbc01c667	-0.007920838
151	0x3e4101a3	0.1884828
152	0x3e898f56	0.2686717
153	0xbeffdb53	-0.4997202
154	0x3e2ce877	0.16885553
155	0x3e39573b	0.18099682
156	0x3dc7f606	0.09763722
157	0xbc320a31	-0.010866688
158	0xbd2c5b7c	-0.042079434
159	0xbe647118	-0.22308767
160	0xbe90abe2	-0.28256136
161	0xbe097d1b	-0.1342663
162	0x3e349b61	0.17637397
163	0xbdc92eac	-0.09823355
164	0x3e4a05a4	0.19728714
165	0x3e184666	0.14870605
166	0x3d7d118e	0.06178432
167	0x3e2b10a7	0.16705571
168	0x3e3af8c2	0.18258956
169	0xbeab6a39	-0.3347948
170	0x3ca53b67	0.020169927
171	0x3dbd7dac	0.09252486
172	0x3da9056f	0.082529895
173	0xbe8da49b	-0.27664647
174	0x3c2faf34	0.010722924
175	0xbeaa65f8	-0.3328092
176	0xb9b6d2b4	-0.0003487073
177	0xbd170cac	-0.03687732
178	0x3ddbcb3c	0.10732123
179	0x3e058e4c	0.13042563
180	0x3df2bb9d	0.11852191
181	0x3df31c65	0.1187065
182	0xbceee89a	-0.029163647
183	0x3e62b9e9	0.22141232
184	0xbdf4c360	-0.11951327
185	0xbe0eaeb1	-0.13933827
186	0xbe1b4979	-0.15164746
187	0xbe1b6b24	-0.1517759
188	0xbd9578c7	-0.07298427
189	0xbd2d57e5	-0.04232015
190	0xbe6e89c0	-0.23294735
191	0x3df35f9c	0.118834704
192	0xbe13b8ae	-0.14425918
193	0x3cc78b39	0.024358379
194	0x3e427458	0.18989694
195	0x3e35f13e	0.17767808
196	0xbdb7057b	-0.08936592
197	0xbca1cfbc	-0.019752376
198	0x3d6806bc	0.056647047
199	0xbdf648e3	-0.12025621

fc2.bias f4 [10]
0	0x3e13ffa6	0.14452991
1	0x3e29a559	0.16566981
2	0xbdb952df	-0.090490095
3	0x3e4cc743	0.19997887
4	0x3e7ccff3	0.24688701
5	0xbee529a7	-0.4475834
6	0xbeb1c723	-0.34722242
7	0xbef75053	-0.4830347
8	0xbe379dfb	-0.17931359
9	0x3f0b8f48	0.54515505

fc3.weight f4 [1, 10]
0	0xbfba920d	-1.4575821
1	0xbfa50855	-1.2893168
2	0x3fb44eca	1.4086545
3	0xbf8e80c1	-1.1133043
4	0xbfae9e9a	-1.3642151
5	0x3ffae6bc	1.9601665
6	0x40016c15	2.0222218
7	0x3ff98bf3	1.9495834
8	0x3fbde4a0	1.4835396
9	0xbfad6402	-1.3546145
