Bachelor/lightning_logs/version_13/checkpoints/epoch=49-step=3050.ckpt (torch, 58651 bytes, 4 tensors)

fc1.weight f4 [10, 1350]
00000000: a71b 103c 5fe9 9f3c cdb0 193c bd54 fe3b
00000010: fd5d 923c cd45 143b d028 1b3c 4504 c33b
00000020: 4e9d b33c 9e8f 823c 1ad6 903b 296d 163d
00000030: 04b0 d73c 2e1c 68bb f71d 2b3d d788 ecbb
00000040: 6e9e 0b3c 6ebb 89bb a482 c5bb e98c 003c
00000050: 1dab 2ebc f6dc ed3c 00c5 e73c cecd 9e3c
00000060: 38b5 fb3c 271e 8c3b 004a d33c e6f5 1e3d
00000070: 5338 ed3c 0adf 43bc 5360 0e3d 7556 ec3b
00000080: 4600 1e3d 521e 943c 7ca6 2cbc fa01 823c
00000090: 23c3 093d 870f 363c a85a 4abb f044 d23a
000000a0: 8d07 1f3c d88a 99bb f0de 183d 21b8 bbba
000000b0: 7c49 633c ec87 853c 8ad0 48bc 2b4e dcbb
000000c0: 5b81 5dba a3ce 1ebc 66fc 1d3b aedf ce3c
000000d0: ce20 f53c cab9 fa3c 4624 48bc 5a84 ae3c
000000e0: ace6 023d 61a4 0e3d 7aca 4a3b 9fd1 143d
000000f0: cd2c b33b 39a6 0d3d ac90 4bbc 20f0 bd3c
00000100: 3376 173d e762 12bc 9f48 0b3d e308 703c
00000110: 654b e83c 7a27 6dbc 6937 d23c 6990 473b
00000120: 88de 7d3b d74b 0b3d 728a ad3c 4554 c43b
00000130: 2def 003d 3e9d b53c 41bc c43b 4478 d33c
00000140: a9c1 a33c ac92 003d ecea e73c 911f f2ba
00000150: d829 583c 0f26 ee3b 6fa4 c23b 824a 3c3c
00000160: 65ee 52bc e855 cf3c 9fea 3e3c 9dea 0f3c
00000170: 4df0 46bc 064f 113c 2fbe 033d e81d 3dbb
00000180: f09c 0dbc f80d 78bc 12ce 67bc 5a81 31bb
00000190: a991 a73c 1dfc 993c 80ff 293c fede fabb
000001a0: 1e26 b43c 7fe6 833b 7c6c f93c 0046 63bc
000001b0: 96d2 b33c 390c 2bbb ad07 043d 6ddd 9f3c
000001c0: 0749 ea3c 1ee4 52bc 20e0 083d 21c2 6f3c
000001d0: e069 2dbb c586 893c ccb5 85bc ddd7 0d3d
000001e0: a24a 223c 68ff 383c b750 9bbb cc6c a73c
000001f0: 5b5c 1cbc f836 873c c1b7 813c 4f23 b4bb
00000200: fa59 9d3c 74ac 0e3d 1a0a 233a a681 82bc
00000210: cbcc ab3c 2c30 af3c 2429 083d e4ac 68bc
00000220: 2a81 913b 8a67 e93c 4f88 983c 1433 7bbc
00000230: 73ce aa3c ca3e fb3c ef11 f83c 54b5 a73c
00000240: f314 73bc ff88 7e3c 9266 b83c 7a03 fa3c
00000250: 0a96 e93b b6d5 55bc 9812 d5bb e505 233c
00000260: 073b 4e3c ba18 51bb fa63 9c3c 0df2 953c
00000270: 1ddb 5f3c dd64 1a3c 5c8e 85bc 36e3 50bc
00000280: 9146 913c a6f2 d33c 044d 92bc e0a9 87bc
00000290: 411d 913a b344 233b 4e21 ec3b 5093 423c
000002a0: bcc2 c53c 5fc8 873c 7308 863c 2b71 7ebb
000002b0: 7e53 be3c ed3a a6bc 5d88 a43c 51a7 5239
000002c0: 1e08 89bc 9f36 a2bc b978 95bc 746b 0d3c
000002d0: 8982 d43b cbde 9dbc ef52 96bc 1430 833c
000002e0: 9269 9bbc 68b0 963c 6184 90bc b2be 6cbb
000002f0: 383a febb 616f ed3c f8f4 85bc 1fba 9bbc
00000300: afae 513c 900c 22bc 6335 fe3c 94dd e63c
00000310: 166d b53c 6c18 a13c e4a1 ed3c 727c 4abc
00000320: a3d6 a03b 3455 e13b 0778 043d daba 9bbc
00000330: de0f d93c 870e e73c 3e85 61bc 6155 a3ba
00000340: 231c 6e3c 07bc 8bbc f812 bcba 9733 083c
00000350: 3788 01bc 202f 453c cac1 9bbc fb6a dc3a
00000360: 58b9 ee3c 7a60 04b9 e4de df3c 1315 963c
00000370: 44a6 a1bb 5610 053b e20b 97bc f11e ef3c
00000380: 58cf efbb 8140 30bb 7690 c63c 50a1 a33c
00000390: f43c 2f3b bc7f fa3c 8044 133c 10d0 0d3c
000003a0: 803d 5dbc 88aa 1b3c c0b8 ed3b 82c1 bfba
000003b0: 797d a53c 7623 adbc 9687 573c 3361 65bc
000003c0: 3ffb 153c 4e4a 90bb 3bac 83bc 626c dd3c
000003d0: 4417 dc3c 2ff7 063b 0437 113c f6cb 263c
000003e0: 3cff ba3a a6ed 9c3c 1797 2abc 241a 073b
000003f0: f843 30ba 8459 aebc 93cd a53c 58cd 41bc
0.008795655 0.01952046 0.0093805315 0.0077615664 0.017867083 0.0022624612 0.00947018 0.0059514367
0.021925595 0.015937623 0.004420054 0.036725197 0.026329048 -0.0035417187 0.041776624 -0.007218461
0.008521659 -0.0042032516 -0.0060275365 0.007846096 -0.010660914 0.029036026 0.02829218 0.019385245
0.03072606 0.0042760554 0.025792122 0.038808726 0.028957522 -0.011955032 0.03475983 0.007212455
0.03857448 0.018080864 -0.01053774 0.015870083 0.033633363 0.0111121 -0.003087679 0.0016042273
0.00970639 -0.004685741 0.037321985 -0.0014321842 0.0138725005 0.016300164 -0.012256751 -0.0067231855
-0.00084497564 -0.009692821 0.002410674 0.025253143 0.029922869 0.03060617 -0.0122156795 0.021303345
0.031958267 0.034824733 0.003094344 0.036332723 0.005467987 0.03458235 -0.012424629 0.02318579
0.036977958 -0.008934713 0.034004804 0.014650556 0.028356263 -0.014474744 0.025661187 0.0030451065
0.0038737375 0.034007873 0.02118418 0.005991491 0.031478096 0.022169705 0.006003887 0.025814183
0.019989805 0.031389877 0.028310262 -0.0018472542 0.01319357 0.0072677205 0.005940012 0.011492373
-0.0128742205 0.025309518 0.011652618 0.0087839635 -0.012142253 0.008868938 0.032163795 -0.0028856937
-0.008643374 -0.015140049 -0.014148252 -0.0027085156 0.020455198 0.018796975 0.010375857 -0.0076559773
0.021990832 0.00402528 0.030447237 -0.01387167 0.021951001 -0.0026099815 0.032233883 0.019514764
0.028599275 -0.01287177 0.033416867 0.014633686 -0.0026460811 0.016787896 -0.016322039 0.03462969
0.009905489 0.011291362 -0.0047398466 0.02043762 -0.009543504 0.016505703 0.015834691 -0.005497373
0.019207943 0.034832433 0.0006219462 -0.015930962 0.020971676 0.021385275 0.03324236 -0.014201377
0.0044404464 0.028491754 0.018619685 -0.015332002 0.020850396 0.030669589 0.030281989 0.020472206
-0.014836538 0.015535592 0.022509847 0.030519236 0.0071284818 -0.013051441 -0.0065024607 0.009950136
0.012587315 -0.0031905607 0.019090641 0.018303895 0.0136630805 0.009423462 -0.016303234 -0.012749484
0.017733844 0.02587254 -0.01785899 -0.016560495 0.001107134 0.0024912774 0.0072061187 0.011875942
0.024140708 0.016575037 0.01636145 -0.0038824778 0.023233172 -0.02029177 0.020084554 0.00020089491
-0.016727503 -0.019801436 -0.018246042 0.008631576 0.0064852876 -0.019271275 -0.018350093 0.016014136
-0.018971238 0.018394664 -0.017641248 -0.0036124405 -0.007758405 0.028983774 -0.016352162 -0.019009648
0.0127979955 -0.00989069 0.031031316 0.028181829 0.022146743 0.019664966 0.02900786 -0.012358772
0.004908399 0.006876612 0.03234103 -0.019009996 0.026496824 0.02820517 -0.013764678 -0.0012461358
0.0145330755 -0.017057432 -0.0014348915 0.008313081 -0.007906011 0.012035161 -0.019013304 0.0016816551
0.029141113 -0.00012624441 0.027327962 0.018320596 -0.0049331505 0.0020303926 -0.018438283 0.029189559
-0.0073184185 -0.0026893916 0.024238806 0.01997438 0.0026739212 0.030578487 0.0089885 0.008655563
-0.013503432 0.009501107 0.00725469 -0.0014629813 0.020201432 -0.021135073 0.013154885 -0.014000225
0.00915414 -0.004403389 -0.016073337 0.02702922 0.026866563 0.002059411 0.008863214 0.010180464
0.001426674 0.019156288 -0.010411999 0.0020614946 -0.00067239953 -0.021282919 0.020239627 -0.011828743

fc1.bias f4 [10]
00000000: ac9d 82bd f00e 58be 6ad4 943e 2ff3 cdbb
00000010: f3a6 44be 266a 52be a1e1 d13d 52bb 513d
00000020: 3e88 1a3e 20ac 49be
-0.0637773 -0.21099448 0.2906831 -0.0062850933 -0.19204311 -0.20548305 0.102481134 0.051204033
0.15091035 -0.19694567

fc2.weight f4 [3, 10]
00000000: 357b 2a3f 0ad1 cbbe 49f7 093f 568d 723e
00000010: baee 0bbf 8cf0 ea3e d37a f2be 320d ee3e
00000020: 6ae6 a7be 8d17 1c3f fd2b 283f 5c2b babe
00000030: 5263 163f bc96 143f 936b 04bf a63d f53e
00000040: 40dc 47be 73b0 a93e 133b d2be 8ecb 113f
00000050: b168 2a3f 2373 15bf 7ac2 2d3f a0c3 aa3e
00000060: e2fd 6dbe 9de5 a63e ca9f 06bf 200d c33e
00000070: 06ce ccbe e32b 1a3f
0.6659425 -0.39807922 0.5389295 0.23686728 -0.5466114 0.45886648 -0.47359332 0.46494442
-0.3279298 0.60973436 0.6569212 -0.36361206 0.587453 0.580425 -0.51726645 0.47898597
-0.19517612 0.33142433 -0.41060695 0.56951225 0.66565996 -0.5837881 0.6787487 0.33352375
-0.2324138 0.32597056 -0.5258757 0.3809595 -0.40000933 0.60223216

fc2.bias f4 [3]
00000000: 17b3 b03d 15c8 1dbe 15ad 9b3d
0.08627909 -0.15408356 0.07601372
