Bachelor/lightning_logs/version_3/checkpoints/epoch=49-step=3050.ckpt (torch, 58651 bytes, 4 tensors)

fc1.weight f4 [10, 1350]
0	0x3c7f07f6	0.015565863
1	0x3ca87a6f	0.020566193
2	0x3bd17604	0.0063922424
3	0x3c5d64f6	0.0135128405
4	0xbc95ad2a	-0.018271048
5	0xbc3a0e38	-0.011355929
6	0x3c26a81a	0.0101719145
7	0x3cc3840d	0.023866678
8	0x3c2b429a	0.010452891
9	0xbc15c3c0	-0.009140909
10	0x3c526a4a	0.012842724
11	0xbb008580	-0.0019610822
12	0x3c0a197a	0.008428926
13	0x3ca218b3	0.019787168
14	0xbbaabebc	-0.0052107256
15	0xbb4feab0	-0.0031725578
16	0x3b217e70	0.0024642013
17	0xbc486804	-0.0122318305
18	0xbcbcc8d5	-0.023044983
19	0xbc5b74d4	-0.013394553
20	0xbcbf7c40	-0.023374677
21	0x3c4bc5be	0.012437282
22	0x3c61a956	0.013773283
23	0x3b3cb8f8	0.0028796773
24	0xbc10c696	-0.008836409
25	0xbc172b92	-0.009226697
26	0xbc74372b	-0.014905731
27	0xbcc77dec	-0.024352036
28	0xbcaed0e8	-0.021339849
29	0x3c9cf8e3	0.019161647
30	0x3cc7f757	0.024409933
31	0xbbc0e728	-0.005886931
32	0x3c9e2ecd	0.019309426
33	0x3c0f005a	0.008728111
34	0x3be6c864	0.0070429314
35	0xbcbe2386	-0.023210298
36	0x3bc67bc4	0.0060572345
37	0x3c677462	0.014126869
38	0xbc79a1be	-0.015236316
39	0xbc8bf811	-0.01708606
40	0xbc9b2f52	-0.018943463
41	0xbc9a33f1	-0.018823596
42	0x3c9b0bfb	0.018926611
43	0xbc7dc91f	-0.015489846
44	0x3cc21ca9	0.023695307
45	0x3c8407ef	0.016117064
46	0xbbab6394	-0.0052303765
47	0xbc746f32	-0.014919089
48	0x3b729ae8	0.00370186
49	0xbb82dabc	-0.0039933603
50	0x3c5b01e6	0.013367152
51	0x3c965107	0.018349184
52	0x3c302bfe	0.010752676
53	0xbc8f74b0	-0.017511696
54	0x3c5f1a8a	0.013617167
55	0x3c95253b	0.01820623
56	0x3c03fff6	0.008056631
57	0xbc529b9c	-0.012854483
58	0x3c920df5	0.01782892
59	0x3c1aac92	0.009440558
60	0x3c04482e	0.00807385
61	0xbc60d7be	-0.013723312
62	0x3cac8623	0.021060055
63	0xbcb65502	-0.022257332
64	0xbcc5d882	-0.02415109
65	0x3ac267a0	0.0014831908
66	0x3cb594d1	0.022165688
67	0x3cd830a9	0.02639039
68	0xbbf32850	-0.007420577
69	0xbbfa590c	-0.0076400097
70	0xbc82e84c	-0.015979908
71	0x3bfa853c	0.0076452773
72	0x3ca09d0d	0.019606138
73	0xbc88eef2	-0.0167155
74	0x3c88ed43	0.016714698
75	0xbc207052	-0.009792404
76	0xbcd57145	-0.026054988
77	0x3c037a8e	0.008024825
78	0x3beec894	0.0072870944
79	0xbc605af8	-0.013693564
80	0xbc8204f0	-0.015871495
81	0xbb85f380	-0.0040878654
82	0xba164cc0	-0.00057334825
83	0xbc73cb5a	-0.014880026
84	0xbadb23c0	-0.0016719028
85	0xb868ec00	-5.5532902e-05
86	0x3ccaf68d	0.024775768
87	0xbb2caa78	-0.0026346724
88	0x3b6e72c0	0.0036384314
89	0xbb590a78	-0.0033117812
90	0x3b6d7f20	0.0036239102
91	0x3bf1faf4	0.0073846523
92	0xbb3da238	-0.0028935801
93	0xbc82b81c	-0.01595693
94	0x3bd1d44c	0.0064034816
95	0xbc7cd872	-0.015432464
96	0x3ca001c3	0.01953209
97	0x3ccc25ff	0.024920462
98	0xbc6f824b	-0.014618467
99	0xbc6d5a2d	-0.014486832
100	0x3cd9e463	0.026598161
101	0xbcbe04ac	-0.023195587
102	0xbcd31434	-0.02576647
103	0xbcad8034	-0.021179296
104	0xbc8f4a8d	-0.017491603
105	0x3bb4475c	0.0055016708
106	0x3b9655cc	0.0045878645
107	0xbc5d4a2d	-0.013506454
108	0xbc1bbd7c	-0.009505626
109	0x3cd815e5	0.026377628
110	0x3af46f90	0.0018648971
111	0xbc231f72	-0.009956228
112	0x3c51e1de	0.012810199
113	0x3b98573c	0.004649071
114	0x3c55318e	0.013012303
115	0xbc91e8bd	-0.017811174
116	0x3be2e884	0.0069246907
117	0xbbdf7748	-0.0068196394
118	0x3c94a6d7	0.018145962
119	0x3c2157b2	0.009847568
120	0xbcb82eb0	-0.0224832
121	0xbb80e65c	-0.003933711
122	0x3b814c78	0.0039458834
123	0x3c910f5d	0.017707521
124	0x3c72a106	0.014808899
125	0xbc3253f4	-0.010884274
126	0xbc0dd6a2	-0.0086571295
127	0xbcbfac6c	-0.023397647
128	0x3cae8c3b	0.021307101
129	0x3c81215d	0.01576298
130	0x3cc4b835	0.024013618
131	0x3a5e4520	0.00084789284
132	0xbbb81e34	-0.005618835
133	0x3ccaaf3d	0.024741763
134	0xbadb40d0	-0.001672769
135	0x3c60841e	0.013703374
136	0xbbed1b80	-0.0072359443
137	0x3cb64523	0.022249764
138	0xbc98c128	-0.018646792
139	0xbc92be07	-0.017912878
140	0xbc920722	-0.017825667
141	0x3cd651f3	0.026162123
142	0x3be5afec	0.007009497
143	0xbb38f788	-0.0028223712
144	0x3cdafc5f	0.026731668
145	0xbc8cb547	-0.017176284
146	0x3c90cd9f	0.017676173
147	0x3c3d8ba2	0.011568936
148	0x3c6f9c16	0.014624616
149	0x3c08b0fe	0.0083429795
150	0xbc34ba34	-0.011030722
151	0xbba27ea8	-0.0049589463
152	0xbcbd23d3	-0.023088371
153	0xbcb5b402	-0.022180561
154	0xbc93b837	-0.018032176
155	0xbcc381b0	-0.02386555
156	0x3ca554ed	0.020182097
157	0x3cdb4c7d	0.02676987
158	0x3a619e20	0.00086066313
159	0x3cb17669	0.021662908
160	0xbc5e6a05	-0.013575082
161	0x3c484dae	0.0122255515
162	0x3ca8189d	0.020519549
163	0xbcb199a3	-0.021679705
164	0xbbe2ebb8	-0.0069250725
165	0xbc41a590	-0.011819258
166	0xbc972336	-0.018449407
167	0x3b15c1a8	0.0022851024
168	0x3bb9fd9c	0.0056759845
169	0xbbcb3674	-0.0062015597
170	0x38d66600	0.00010223314
171	0xbc18d83e	-0.0093289
172	0x3aab02d0	0.0013047103
173	0x3c165ef6	0.009177914
174	0x3bca1bc4	0.0061678607
175	0x3b065228	0.0020495746
176	0x3b4c3780	0.003116101
177	0xbcd70bfb	-0.02625083
178	0xbc8e7ca0	-0.01739341
179	0xbcbeafaa	-0.023277123
180	0x39c45c00	0.00037452579
181	0x3c883cef	0.016630618
182	0xbabf7c40	-0.0014609173
183	0xbc299d88	-0.0103525
184	0xbca4ea09	-0.020131128
185	0x3c89f0d9	0.016838478
186	0x3ccde907	0.02513553
187	0xbcab3274	-0.020898081
188	0x3c3b30e2	0.011425229
189	0xbb8b276c	-0.004246643
190	0x3ac2c020	0.0014858283
191	0xbc80c66a	-0.015719611
192	0x3cc57127	0.024101807
193	0x3bd6460c	0.006539112
194	0x3c879c45	0.016554007
195	0xbc1ecdfa	-0.009692663
196	0x3cda4e25	0.02664859
197	0x3c70f6c6	0.014707273
198	0xbcb9aeba	-0.022666324
199	0xbc1c70fe	-0.009548424
200	0x3c398b12	0.011324661
201	0x3c0bc71e	0.00853136
202	0xbc89bde5	-0.016814182
203	0xb7da9400	-2.6056543e-05
204	0x3cb33089	0.02187373
205	0xbc3ff76b	-0.011716704
206	0x3a200900	0.0006104857
207	0x3bcf7234	0.0063307527
208	0x3ca63cc9	0.020292656
209	0x3cda62d7	0.026658459
210	0xbc6a72a2	-0.014309557
211	0xbccb1acd	-0.024793053
212	0x3955a400	0.00020374358
213	0x3c7298c2	0.014806928
214	0x3cbd0b35	0.023076633
215	0x3ba4d9ac	0.0050308313
216	0xbca6cb1c	-0.020360522
217	0xbca5ee38	-0.020255193
218	0x3ba31f3c	0.0049780887
219	0x3c72fb62	0.014830442
220	0xbc1acf8c	-0.009448897
221	0xbb8688d4	-0.0041056667
222	0x3c5bab26	0.013407504
223	0xbcc78d05	-0.024359236
224	0xbca645ba	-0.02029692
225	0xbbef7030	-0.007307075
226	0x391bad80	0.00014846586
227	0xbcd0c2d3	-0.025483524
228	0x3c2e4666	0.0106369015
229	0xbb3d7a70	-0.002891209
230	0x3c97d7cf	0.018535523
231	0x3c8eb98d	0.017422462
232	0x3c429d6e	0.0118783545
233	0x3c98e219	0.0186625
234	0x3c0e307a	0.00867855
235	0x3c9754e1	0.01847309
236	0xbc975403	-0.018472677
237	0xbb33e928	-0.0027452204
238	0x3b936244	0.004497798
239	0x3c3e04ce	0.011597825
240	0x3c23c006	0.009994512
241	0x3c6ef466	0.014584636
242	0xbc8e3e55	-0.017363707
243	0xbc4be386	-0.0124443825
244	0x3b3eaad0	0.0029093511
245	0x3bab6ffc	0.0052318554
246	0x3be3207c	0.0069313627
247	0x3c25655e	0.010094969
248	0xbad28a90	-0.0016063023
249	0xbcab573e	-0.020915624
250	0x3c989be3	0.01862902
251	0x3c96543f	0.018350719
252	0xba15d2e0	-0.0005715322
253	0x3b96588c	0.0045881923
254	0x3cd73251	0.02626911
255	0xbcb77e7a	-0.022399176

fc1.bias f4 [10]
0	0xbc330cf6	-0.010928383
1	0x3cc130f5	0.023582915
2	0x3c26a116	0.010170242
3	0x3ca2ee59	0.019889044
4	0x3c1c8886	0.009554034
5	0x3c8395cf	0.016062645
6	0x3bf49f2c	0.007465264
7	0xbc8720e6	-0.01649518
8	0xbca2d717	-0.019877953
9	0xbc8e46f2	-0.017367814

fc2.weight f4 [3, 10]
0	0x3e90800d	0.28222695
1	0x3e1d1a48	0.15342057
2	0x3e8a291f	0.26984498
3	0x3fc4aa6d	1.536451
4	0xbe9a6e0e	-0.3016209
5	0xbe4b8710	-0.19875741
6	0x3dfd1e14	0.123592526
7	0x3e04ad90	0.12956834
8	0x3f064d52	0.5246173
9	0xbfb213c5	-1.3912283
10	0xbe624a74	-0.22098714
11	0x3ed9dc02	0.42550665
12	0x3d4c7418	0.049915403
13	0x3fc5f0e1	1.5464135
14	0xbd8cd31c	-0.068762034
15	0x3d205520	0.03914368
16	0x3e8240f1	0.2544017
17	0x3e7d6fce	0.24749681
18	0x3e8d229a	0.2756546
19	0xbfb161f3	-1.3858017
20	0xbdc20932	-0.0947441
21	0x3f1025bb	0.5630757
22	0x3df09fec	0.11749253
23	0x3fc6b791	1.552477
24	0x3dc83adc	0.097768515
25	0x3d784c70	0.06061977
26	0xbe090a33	-0.13382797
27	0x3dbc96fc	0.092084855
28	0x3e80f95c	0.25190246
29	0xbfb0d4e7	-1.3814973

fc2.bias f4 [3]
0	0x3f0b8a56	0.5450796
1	0x3f04528e	0.5168847
2	0x3ecc59cc	0.3991226
