Bachelor/Fit tasks/lightning_logs/version_18/checkpoints/epoch=49-step=3050.ckpt (torch, 221147 bytes, 4 tensors)

fc1.weight f4 [40, 1350]
0.01372471 0.0011863756 -0.017463544 -0.0066912617 0.010510279 -0.022316799 0.00777079 -0.032427344
-0.0333965 -0.012194666 -0.01640837 -0.014293539 -0.022854945 -0.028461881 0.008612324 -0.0085518565
0.011778208 -0.017412564 -0.025266485 0.016154243 -0.0039092572 -0.01979448 0.0050430303 0.010615682
0.015493578 -0.0064226086 -0.021779997 0.016231831 -0.024278916 -0.01880476 -0.00882383 -0.023985898
-0.01531201 -0.0026868312 -0.0036562216 -0.030870883 0.0023596643 -0.021491436 0.0195799 0.00094319653
0.002824588 -0.0044004945 -0.011315868 0.011492741 -0.020557638 0.012361891 0.004782922 -0.029447233
-0.023254141 -0.02981216 0.011941882 -0.023050265 -0.014348688 -0.025887236 0.02108665 -0.021678634
-0.017274318 -0.03164059 0.006764361 -0.007852574 -0.0031829276 -0.0027624683 -0.0065072193 -0.010030467
-0.01540249 -0.014462833 0.0052746856 0.0029113374 -0.014442172 -0.008200501 0.018169662 -0.0025677842
-0.024334377 -0.004633782 0.0019658871 -0.018625503 -0.01386444 -0.016337624 -0.008608282 -0.010273882
0.0018031962 -0.015583592 -0.01691867 -0.020912565 -7.87938e-05 0.0028941375 0.00019373804 -0.0016975567
0.014181229 -0.019013977 -0.013620755 -0.011131605 0.012424462 -0.00037150393 0.0110998815 0.0035878187
0.0002851744 -0.015697742 -0.010534921 0.0139599275 -0.0044443817 0.00035527497 -0.030770525 -0.015446956
0.009243787 0.0051792096 0.018214384 0.015272058 0.016654234 -0.0063547785 0.0041482 0.0016853985
-0.030784842 0.018017724 -0.026027152 -0.016316568 -0.026738461 0.010540246 0.004108918 -0.015626479
-0.017336776 0.018252011 -0.023065187 -0.022429302 0.01769985 -0.011916698 0.009366685 -0.029809272
-0.0063369316 -0.032247066 0.018146504 -0.020325061 -0.01228352 -0.026464015 0.0014654783 -0.02789432
-0.002087279 0.008178717 0.004827379 0.018067999 -0.01433523 -0.025779167 -0.01926729 -0.020865228
-0.03158708 0.0043480024 -0.028081449 0.0034705352 -0.025711175 -0.008334704 -0.021961512 -0.02497606
-0.0325698 -0.007546311 0.0145912515 0.009241384 0.01596636 0.019233836 -0.005716859 0.008498934
0.0044695237 -0.019444635 -0.008112123 -0.015749248 -0.013546399 0.0014396315 -0.024588175 -0.008879987
0.013737154 -0.010295715 0.016564319 -0.0101467855 -0.0070212786 -0.009816339 0.01497796 0.010945113
0.014242337 -0.004337124 -0.0014375047 0.00059904996 0.009443627 0.005093058 -0.010482346 0.017565526
0.001983798 -0.014189784 -0.0033516497 0.012624205 -0.02048809 -0.0007293944 -0.0052645323 0.0055639823
0.011648601 0.017008886 0.016900992 0.012917233 -0.028005589 -0.017464397 0.01210637 0.020449834
0.008614493 0.004657863 0.012096539 -0.014334666 0.0069333827 -0.025356397 0.0165297 0.00508979
0.0046652784 -0.010742638 -0.0065434333 -0.013308583 0.009226085 0.0058827247 0.011992745 -0.009502004
-0.008088427 0.008078531 0.0036369571 -0.013533202 -3.506759e-05 -0.014385323 0.019580407 -0.022497248
0.0022134203 0.008045408 -0.013905078 -0.02889276 0.007763493 0.001385985 0.0041546454 0.00033660477
-0.018217467 -0.021041457 -0.0057749534 -0.024189776 0.0029993367 -0.0041960184 0.012429661 0.0039022283
-0.031772304 -0.025815768 -0.020000692 0.008234857 0.0034569923 -0.018644547 -0.0066636694 -0.012912099
0.016344853 -0.0024855502 -0.011963581 0.004639304 -0.000946951 -0.021067461 -0.024041036 -0.023725327
00000000: 9bdd 603c 2980 9b3a b50f 8fbc 5f42 dbbb
00000010: 4e33 2c3c b8d1 b6bc 1ca2 fe3b 89d2 04bd
00000020: c5ca 08bd 23cc 47bc d96a 86bc 732f 6abc
00000030: 4b3a bbbc e428 e9bc b41a 0d3c 161d 0cbc
00000040: 63f9 403c cba4 8ebc a9fb cebc e755 843c
00000050: 3a19 80bb 0928 a2bc 0140 a53b 66ed 2d3c
00000060: c7d8 7d3c bf74 d2bb f76b b2bc 9ef8 843c
00000070: 94e4 c6bc 710c 9abc d391 10bc 137e c4bc
00000080: 3adf 7abc 8c15 30bb 389d 6fbb efe4 fcbc
00000090: 99a4 1a3b cf0e b0bc 0766 a03c d940 773a
000000a0: b91c 393b 0632 90bb 3166 39bc 0d4c 3c3c
000000b0: 7e68 a8bc 8789 4a3c 0fba 9c3b 533b f1bc
000000c0: 787f bebc a238 f4bc e2a7 433c e9d3 bcbc
000000d0: c216 6bbc 7811 d4bc e9bd ac3c 6497 b1bc
000000e0: df82 8dbc 9099 01bd 93a7 dd3b 15a8 00bc
000000f0: aa98 50bb 870a 35bb 833a d5bb d456 24bc
00000100: ba5a 7cbc 85f5 6cbc 45d7 ac3b 23cc 3e3b
00000110: dc9e 6cbc 655b 06bc 8bd8 943c 4548 28bb
00000120: e358 c7bc fbd6 97bb 1dd6 003b 8394 98bc
00000130: ad27 63bc 7bd6 85bc c009 0dbc c953 28bc
00000140: 3959 ec3a 5252 7fbc 0699 8abc d450 abbc
00000150: 193e a5b8 92ab 3d3b 2926 4b39 8d80 deba
00000160: 6358 683c 33c3 9bbc 9629 5fbc 5661 36bc
00000170: f88f 4b3c 6ac6 c2b9 47dc 353c 9c21 6b3b
00000180: 7683 9539 8d98 80bc a99a 2cbc 2eb8 643c
00000190: 2da2 91bb 3344 ba39 7812 fcbc 3b15 7dbc
000001a0: 4173 173c 5cb6 a93b 5536 953c a737 7a3c
000001b0: 766e 883c bf3b d0bb a0ed 873b 97e8 dc3a
000001c0: 7e30 fcbc e899 933c e536 d5bc 53aa 85bc
000001d0: 9e0a dbbc ffb0 2c3c 1aa4 863b 1a03 80bc
000001e0: db05 8ebc 3e85 953c 34f3 bcbc a8bd b7bc
000001f0: 47ff 903c 413e 43bc b976 193c 9332 f4bc
00000200: 09a6 cfbb 8015 04bd faa7 943c be80 a6bc
00000210: d140 49bc 10cb d8bc 4b15 c03a a182 e4bc
00000220: bbca 08bb 0700 063c fd2e 9e3b 5703 943c
00000230: 50de 6abc d52e d3bc 70d6 9dbc 8eed aabc
00000240: 7461 01bd b079 8e3b 110b e6bc eb71 633b
00000250: 3ea0 d2bc 488e 08bc a1e8 b3bc 989a ccbc
00000260: e967 05bd 0b47 f7bb 2510 6f3c 2d69 173c
00000270: e2cb 823c 4790 9d3c 7d54 bbbb 1d3f 0b3c
00000280: 1575 923b 5b4a 9fbc b6e8 04bc 9104 81bc
00000290: b7f1 5dbc 04b2 bc3a 246d c9bc 5d7d 11bc
000002a0: cd11 613c 5caf 28bc e5b1 873c b43e 26bc
000002b0: c112 e6bb b6d4 20bc 1e66 753c 2253 333c
000002c0: b158 693c 6f1e 8ebb a76a bcba 9009 1d3a
000002d0: 71b9 1a3c abe3 a63b 25be 2bbc 94e5 8f3c
000002e0: 9c02 023b 457c 68bc 5aa7 5bbb c1d5 4e3c
000002f0: a4d6 a7bc d434 3fba 1982 acbb 1152 b63b
00000300: c6d9 3e3c 3856 8b3c f373 8a3c cda2 533c
00000310: fa6b e5bc 7f11 8fbc cc59 463c 6986 a73c
00000320: cd23 0d3c fda0 983b 9030 463c f2db 6abc
00000330: 6e31 e33b 38b8 cfbc 4b69 873c 41c8 a63b
00000340: 31df 983b e401 30bc 4c6a d6bb 3e0c 5abc
00000350: 0129 173c dfc3 c03b 387d 443c 4bae 1bbc
00000360: 5285 04bc d15b 043c 045a 6e3b 5dba 5dbc
00000370: 8a15 13b8 6bb0 6bbc 1767 a03c 264c b8bc
00000380: 080f 113b e3d0 033c 20d2 63bc 82b0 ecbc
00000390: e664 fe3b f0a9 b53a b123 883b 547a b039
000003a0: cc3c 95bc 225f acbc d23b bdbb a329 c6bc
000003b0: 8590 443b c17e 89bb c7a5 4b3c 87bc 7f3b
000003c0: ad23 02bd 977b d3bc 7ed8 a3bc 7eeb 063c
000003d0: b58e 623b 73bc 98bc e95a dabb 458d 53bc
000003e0: a4e5 853c 9de4 22bb e502 44bc 4d05 983b
000003f0: ce3c 78ba ab95 acbc b5f1 c4bc 9e5b c2bc

fc1.bias f4 [40]
0.031041715 -0.037710827 -0.07528361 -0.0507204 -0.01054467 -0.19159785 0.0126915695 -0.008639478
-0.034531493 -0.038310945 -0.038532436 -0.08208583 -0.009887644 -0.07109049 -0.067947336 -0.035631847
-0.17397931 0.19053501 0.14233314 -0.0044140695 -0.04720945 -0.059820168 -0.039890446 -0.057928022
-0.0024471309 0.110660896 -0.013904658 -0.075651415 -0.01502696 -0.040560253 0.00078500545 -0.07330474
-0.048598547 -0.049562406 -0.05095692 0.0035121713 -0.006944681 -0.0066579455 -0.09792713 -0.09162667
00000000: 324b fe3c ab76 1abd 4b2e 9abd 32c0 4fbd
00000010: 8dc3 2cbc 3a32 44be 4df0 4f3c 998c 0dbc
00000020: e570 0dbd f0eb 1cbd 30d4 1dbd 9e1c a8bd
00000030: c9ff 21bc e497 91bd f927 8bbd b3f2 11bd
00000040: a227 32be 9c1b 433e c7bf 113e e6a3 90bb
00000050: b25e 41bd fe05 75bd 2a64 23bd ef45 6dbd
00000060: 0b60 20bb 2ea2 e23d 5dd0 63bc 21ef 9abd
00000070: a333 76bc 8222 26bd d3c8 4d3a cc20 96bd
00000080: 450f 47bd f301 4bbd 34b8 50bd 752c 663b
00000090: 3590 e3bb e52a dabb 058e c8bd c3a6 bbbd

fc2.weight f4 [3, 40]
0.14961468 0.17135614 0.11163883 0.1373473 0.17344245 -0.40221033 0.124767035 0.19200899
0.15506032 0.17079371 0.09930331 -0.012980766 0.29017994 0.13179868 -0.046699654 0.10135206
-0.39562315 0.23734528 0.30666178 0.01702991 0.085588224 -0.11659437 -0.16948706 -0.19112128
0.11350747 0.10936428 -0.12360946 -0.049236808 0.08185219 -0.12263241 0.22119728 -0.23342453
-0.03238049 -0.2705897 -0.012468204 -0.014471379 0.043804057 0.16226445 -0.25419682 -0.028900295
0.1851465 0.17400147 0.09500186 0.03858922 -0.0012294257 -0.38653067 0.1997357 0.09455141
0.12332748 0.06978866 0.21076621 -0.16243143 0.16645312 0.23442031 -0.17131938 0.06776333
-0.40897596 0.2778654 0.21802254 0.08663373 0.08865667 -0.09741514 -0.086362295 -0.1299977
0.18049568 0.18138227 -0.15919176 -0.17088033 0.27504933 -0.07162322 0.10093612 -0.019589119
0.010137318 -0.30187967 0.15483513 0.066139445 0.031352848 0.09147724 -0.054450218 -0.19333808
0.1613225 0.0071582817 0.16178083 0.16391648 0.15043059 -0.37713182 0.033714503 0.08411134
0.025932027 0.110309795 0.02779605 -0.15335546 0.065843605 0.052762184 -0.16939357 0.09714261
-0.3828149 0.270386 0.21463631 0.21439812 0.1360776 -0.05750437 0.02095643 -0.0059450646
0.104544386 0.20444791 0.039786797 -0.15199758 0.12553182 -0.13667443 0.25896648 -0.14946373
-0.20471594 -0.32296455 0.182312 0.24431853 0.14143771 0.12106622 -0.12444551 -0.17726171
00000000: 9734 193e fc77 2f3e e6a2 e43d c5a4 0c3e
00000010: e69a 313e 83ee cdbe dc85 ff3d 019e 443e
00000020: 22c8 1e3e 8ce4 2e3e 895f cb3d 47ad 54bc
00000030: 7792 943e 3cf6 063e 2348 3fbd ab91 cf3d
00000040: 1e8f cabe a40a 733e c602 9d3e 4f82 8b3c
00000050: e148 af3d 07c9 eebd 048e 2dbe 4cb5 43be
00000060: 9b76 e83d 61fa df3d f526 fdbd 89ac 49bd
00000070: 1fa2 a73d b326 fbbd 8a81 623e d706 6fbe
00000080: 68a1 04bd bc8a 8abe 7047 4cbc 5d19 6dbc
00000090: e26b 333d a728 263e 1626 82be 50c0 ecbc
000000a0: 0b97 3d3e 712d 323e 5690 c23d bb0f 1e3d
000000b0: ae24 a1ba 59e7 c5be 8487 4c3e 2ba4 c13d
000000c0: 1e93 fc3d 5bed 8e3d 19d3 573e 6d54 26be
000000d0: b072 2a3e e10b 703e 596e 2fbe 80c7 8a3d
000000e0: 4c65 d1be 6044 8e3e 4d41 5f3e 066d b13d
000000f0: a191 b53d 9781 c7bd b7de b0bd 1e1e 05be
00000100: dcd3 383e 46bc 393e 2a03 23be 41fb 2ebe
00000110: 44d3 8c3e 32af 92bd 99b7 ce3d 5c79 a0bc
00000120: fe16 263c f98f 9abe 1a8d 1e3e 1e74 873d
00000130: d86b 003d 6b58 bb3d 3107 5fbd 6bfa 45be
00000140: ba31 253e 0590 ea3b e0a9 253e b9d9 273e
00000150: 7a0a 1a3e 6c17 c1be 3818 0a3d 9142 ac3d
00000160: 676f d43c 1aea e13d 8bb4 e33c 3709 1dbe
00000170: 03d9 863d 291d 583d 8275 2dbe b4f2 c63d
00000180: 5100 c4be 0970 8a3e 9fc9 5b3e 2e8b 5b3e
00000190: ed57 0b3e b489 6bbd d2ac ab3c d1ce c2bb
000001a0: 5e1b d63d cb5a 513e 7bf7 223d 41a5 1bbe
000001b0: 6a8b 003e 62f4 0bbe 4197 843e 050d 19be
000001c0: 0ea1 51be 9c5b a5be ffaf 3a3e a32e 7a3e
000001d0: 0cd5 103e 91f1 f73d 4add febd 1884 35be

fc2.bias f4 [3]
-0.055950373 -0.111724295 -0.119443536
00000000: 382c 65bd b5cf e4bd d09e f4bd
