Bachelor/lightning_logs/version_7/checkpoints/epoch=49-step=3050.ckpt (torch, 58651 bytes, 4 tensors)

fc1.weight f4 [10, 1350]
-0.0051566344 -0.015394071 -0.0092231175 0.0008134661 0.016622482 0.014585819 0.030136049 -0.0020099103
0.027907802 0.030028917 0.005120335 -0.010598224 0.01979897 0.0041065216 -0.018047238 0.014538742
0.02580239 0.025196403 0.012921068 0.028487368 0.029356815 0.015455278 -0.0055395467 -0.014552643
0.009296026 -0.014006391 0.026629323 -0.00033523078 -0.0020248583 0.018929483 0.027711222 0.0028550262
-0.016525561 0.007264763 0.0070487685 -0.015456919 0.03005696 0.023739135 -0.015387228 0.0036083334
0.013226893 -0.0016779471 0.0034313933 -0.007688212 0.0118534425 -0.0064932597 -0.0003715326 0.009474189
-0.022364842 0.019051364 -0.0025347404 -0.023624038 0.020308547 -0.021305561 0.0033664338 0.00562009
-0.0009494175 -0.01676781 0.00066870265 0.020019015 0.008709161 0.0033834972 0.01615344 0.01521988
0.029281797 0.029604921 -0.0007265191 -0.018059747 0.02206567 0.022514885 -0.016835878 0.01794909
-0.019742215 0.004267336 -0.008528017 0.025531251 0.015582619 0.0104858205 -0.0019809583 0.025752181
-0.008136995 -0.020758223 0.023297079 0.009773308 0.0014013256 0.019293651 -0.021876555 -0.012302389
-0.009636627 -0.014923381 -0.019981986 0.019282142 -0.00033482828 0.0032107893 0.017318578 0.0052984296
-0.024098655 0.0020907728 0.008619816 0.028907087 0.0062132264 -0.00995214 0.024083512 -0.011375614
-0.012607812 0.028127454 -0.0066138986 0.025872644 -0.017869886 0.010947908 -0.022355981 -0.01092269
0.0015749512 -0.02132375 -0.0064874054 0.012228766 0.027623264 -0.024536656 0.012768389 0.02675698
0.0045205452 -0.01805684 0.0097520305 0.022224935 0.011724257 -0.020542586 -0.0028680845 -0.018106405
0.021930886 0.0042245323 0.028406737 -0.01959193 -0.008372876 -0.02525689 0.022089005 0.024323748
0.0004073222 -0.023973616 0.008831413 0.026320834 0.024593987 -0.011642792 0.0030456686 0.012702236
-0.0112705035 0.009835198 0.007837822 0.008360188 -0.018006923 0.0082152495 0.021335416 0.018202849
0.0013919233 -0.01326507 0.0053222533 -0.01752081 -0.012378981 0.02244834 0.017258853 0.013449285
0.014643557 0.022397475 0.02043936 0.012070804 0.024146277 -0.022986978 0.025451649 0.020407805
-0.010324741 -0.014492622 0.009548674 0.018798644 -0.0018392658 0.012028673 0.00026380934 -0.02624408
0.024112724 0.00014843822 0.0210848 -0.002853066 -0.0070836763 0.02265166 -0.015196821 -0.0033005655
0.024733646 -0.02194048 -0.0033374012 -0.023083797 -0.0049559316 0.006171534 -0.015840253 0.018854404
-0.009392336 -0.020684432 -0.007674126 -0.01400777 0.005481466 -0.0027413615 -0.018676661 0.010854584
0.0026993172 0.02229651 -0.019737933 -0.009207218 -0.02352533 -0.015761739 0.012404346 0.000233002
-0.008419345 -0.008122752 0.003987829 -0.008286601 0.017140234 -0.022739993 0.0022624535 -0.0017215823
0.018880403 0.017599339 0.019776348 0.0076166578 -0.019456591 -0.005044568 -0.0036526462 -0.026365548
0.013570942 0.014029491 -0.010600184 -0.008308522 -0.010729127 -0.0046373964 -0.025901888 -0.0098484205
0.026101952 -0.010312027 0.0016055021 0.0017722016 -0.02519834 0.01742586 0.008073077 -0.005702954
-0.02447111 -0.017603368 0.009374381 0.0050378107 0.0056512975 -0.013203956 0.017015181 -0.013369754
-0.016511252 0.012083235 -0.01907365 -0.006410444 -0.024763355 0.026998002 0.014778839 -0.012747499
00000000: fcf8 a8bb 6a37 7cbc 8f1c 17bc c93e 553a
00000010: df2b 883c 5cf9 6e3c e0df f63c b3b8 03bb
00000020: e79e e43c 34ff f53c 7cc8 a73b 2ca4 2dbc
00000030: 7331 a23c 0090 863b cdd7 93bc e733 6e3c
00000040: 895f d33c b068 ce3c e3b2 533c 575e e93c
00000050: b47d f03c 2238 7d3c 1685 b5bb 356e 6ebc
00000060: 5c4e 183c 107b 65bc bd25 da3c eac1 afb9
00000070: 7cb3 04bb 0112 9b3c a502 e33c 641b 3b3b
00000080: 9d60 87bc 400d ee3b 5bf9 e63b 043f 7dbc
00000090: 043a f63c 9378 c23c b61a 7cbc ca79 6c3b
000000a0: 9cb5 583c 90ee dbba 3ae1 603b 66ed fbbb
000000b0: f134 423c 69c5 d4bb 43ca c2b9 a139 1b3c
000000c0: 7936 b7bc 9b11 9c3c e31d 26bb 3387 c1bc
000000d0: 1c5e a63c 0089 aebc 639f 5c3b bb28 b83b
000000e0: 54e2 78ba a55c 89bc e04b 2f3a ebfe a33c
000000f0: deb0 0e3c aabd 5d3b 3854 843c ce5c 793c
00000100: 61e0 ef3c 0586 f23c df73 3eba 09f2 93bc
00000110: 10c3 b43c 2371 b83c 65eb 89bc f809 933c
00000120: 6dba a1bc 02d5 8b3b 19b9 0bbc ea26 d13c
00000130: 3e4e 7f3c b8cc 2b3c f7d2 01bb 3df6 d23c
00000140: 0851 05bc 260d aabc 84d9 be3c 3a20 203c
00000150: afac b73a b80d 9e3c 7636 b3bc f68f 49bc
00000160: f1e2 1dbc 3281 74bc 43b1 a3bc 95f5 9d3c
00000170: e48b afb9 1b6c 523b b1df 8d3c 739e ad3b
00000180: 8b6a c5bc 5905 093b 213a 0d3c 8ece ec3c
00000190: 5298 cb3b 4d0e 23bc c94a c53c c960 3abc
000001a0: ff90 4ebc 8c6b e63c 67b9 d8bb def2 d33c
000001b0: de63 92bc db5e 333c e423 b7bc 15f5 32bc
000001c0: 986e ce3a 25af aebc 4d94 d4bb 2a5b 483c
000001d0: 2f4a e23c 1901 c9bc 8132 513c 7431 db3c
000001e0: 1521 943b f0eb 93bc fbc6 1f3c 1111 b63c
000001f0: 1917 403c ed48 a8bc 79f6 3bbb e253 94bc
00000200: 67a8 b33c f26d 8a3b 3fb5 e83c 417f a0bc
00000210: 632e 09bc 8ae7 cebc 00f4 b43c 9942 c73c
00000220: dc8d d539 5164 c4bc a2b1 103c ca9e d73c
00000230: 5479 c93c 69c1 3ebc d799 473b 0a1d 503c
00000240: eba7 38bc cf23 213c 356a 003c 2cf9 083c
00000250: 4183 93bc 4199 063c 9cc7 ae3c 241e 953c
00000260: 3271 b63a bc55 59bc 4c66 ae3b cd87 8fbc
00000270: 36d1 4abc 95e5 b73c 7062 8d3c 645a 5c3c
00000280: 88eb 6f3c e97a b73c 7270 a73c 9fc4 453c
00000290: 6ace c53c 304f bcbc fa7f d03c 452e a73c
000002a0: 1a29 29bc 7672 6dbc 0b72 1c3c 9dff 993c
000002b0: 8513 f1ba e913 453c e44f 8a39 d3fd d6bc
000002c0: 0c88 c53c 15a6 1b39 08ba ac3c 81fa 3abb
000002d0: 2f1e e8bb f98f b93c 16fc 78bc 4d4e 58bb
000002e0: 379e ca3c 86bc b3bc 4db8 5abb 3b1a bdbc
000002f0: 5e65 a2bb 943a ca3b 6bc3 81bc 8d74 9a3c
00000300: 50e2 19bc 6672 a9bc 3c77 fbbb d980 65bc
00000310: df9d b33b 6aa8 33bb ccff 98bc 6dd7 313c
00000320: 07e7 303b 2ca7 b63c 72b1 a1bc dfd9 16bc
00000330: 31b8 c0bc c31e 81bc 993b 4b3c 0052 7439
00000340: 4bf1 09bc 4b15 05bc 56ac 823b 86c4 07bc
00000350: ad69 8c3c 3949 babc ac45 143b b7a6 e1ba
00000360: 13ab 9a3c 7d2c 903c 0202 a23c 2895 f93b
00000370: 6e63 9fbc e74c a5bb 3c61 6fbb 90fc d7bc
00000380: a858 5e3c f3db 653c 65ac 2dbc 7820 08bc
00000390: 38c9 2fbc 4df5 97bb 3230 d4bc 455b 21bc
000003a0: c3d3 d53c c7f3 28bc b66f d23a 3849 e83a
000003b0: c06c cebc adc0 8e3c f044 043c d8df babb
000003c0: a377 c8bc f034 90bc 0197 193c 3814 a53b
000003d0: 852e b93b 6855 58bc 6c63 8b3c d00c 5bbc
000003e0: 9b42 87bc c3f8 453c 5840 9cbc b40e d2bb
000003f0: 85dc cabc ea2a dd3c f222 723c e3da 50bc

fc1.bias f4 [10]
0.16529605 0.057725843 0.33320653 -0.06442684 -0.25211278 -0.028732454 0.14070162 -0.18091758
0.121061616 -0.02110757
00000000: 5e43 293e ef71 6c3d 0c9a aa3e 38f2 83bd
00000010: ed14 81be 5360 ebbc 1614 103e 7542 39be
00000020: 27ef f73d c8e9 acbc

fc2.weight f4 [3, 10]
-0.37996837 -0.12369584 0.7200212 -0.350141 -0.43006542 0.6903878 -0.46941933 0.61009413
0.46911174 -0.59027565 -0.4077931 -0.3746068 0.677964 -0.35262817 -0.47200844 0.6879357
-0.4994436 0.54325086 0.5761971 -0.2532339 -0.18123236 -0.5542752 0.6810885 -0.37474117
-0.46886584 0.7224856 -0.39382574 0.73983485 0.59363294 -0.1586295
00000000: 378b c2be 3f54 fdbd 4f53 383f ae45 b3be
00000010: 8931 dcbe 41bd 303f bb57 f0be 212f 1c3f
00000020: 6a2f f03e 4e1c 17bf 42ca d0be 76cc bfbe
00000030: 0c8f 2d3f ae8b b4be 17ab f1be 8e1c 303f
00000040: 12b7 ffbe 7d12 0b3f a781 133f e0a7 81be
00000050: fa94 39be fbe4 0dbf d15b 2e3f 13de bfbe
00000060: 2f0f f0be d1f4 383f 87a3 c9be d165 3d3f
00000070: 54f8 173f c66f 22be

fc2.bias f4 [3]
0.59483665 0.6028761 0.35916445
00000000: 3747 183f 1756 1a3f 67e4 b73e
