Bachelor/Fit tasks/lightning_logs/version_19/checkpoints/epoch=49-step=3050.ckpt (torch, 221147 bytes, 4 tensors)

fc1.weight f4 [40, 1350]
00000000: a6ad 6abc 8075 773c 4fb3 633c 8aaa d03c
00000010: cae0 81bc 4efb 12bc b87a 6bbc 8a52 ed3c
00000020: 7856 e93c c25e f3bb 8423 943c c79d 10bb
00000030: 4879 99bc b421 b43c bb56 43bc 13a4 9ebc
00000040: b361 a93b 0bf0 b23c 4eda f73b 0fb5 7dbc
00000050: 4385 833a 15d1 42bb 8193 d73c d010 dc3b
00000060: a7cc f83c 370a 7d3c 0124 2e3c d9a8 9c3c
00000070: 2c7c 0f3b 0c6f f53c e8d9 8f3c 5a83 033d
00000080: 5942 f33c 7705 013d 3234 9f3c 2ce6 75bc
00000090: 68c7 c5ba facc f339 a85c 07bc 34a3 ec3a
000000a0: 2483 6c3c 4c9d 023d 5258 43bb 7da9 e23c
000000b0: 45f7 023d 26e8 4a3c dcd5 05bc 0424 023d
000000c0: 815a a83c 5995 a6bc 8266 873c 6bca 5f3b
000000d0: baca e83c 4c97 cd3c 7585 ee3b 90f9 013d
000000e0: a42a a1bc cb67 e63c 256d d43c 5851 ce3b
000000f0: 301f ec3c b9b1 a73c 6f1e 30bc adb6 963c
00000100: 7ee0 073d 0962 4dbc a2a7 8cbc c1ec 7a3b
00000110: cb33 d23c d70b ca3c e378 ad3c e84f 053c
00000120: c336 c73c e9ae 53bc 5690 c13c 8876 003d
00000130: 9e7d 003d a8c0 ac3c 21d7 513c 343a 83bc
00000140: 3f9c 893c 6c9c 2e3b 3ada 14bc 3309 083d
00000150: 1a05 8abb d8be 503c 94bb 9bbb 5f97 fdbb
00000160: 4dbc c33b 1771 8a3c fcdf 043d f145 c43c
00000170: 4888 063d d23c df3c 9102 d03c 34e7 583b
00000180: 5224 9a3c e168 c13c afef 2cbc 5d7b c63c
00000190: 515e 0a3d a4d1 6fbc 09d6 d03c 0355 953b
000001a0: e35c f23c 70de d23c b955 843c e23b 16bc
000001b0: 4e7d d43c 75d0 6c38 f278 95bc e544 9ebb
000001c0: 6f07 d23c 9773 b6bb 3026 81bc 68dd 903c
000001d0: 3a72 6b3c a54f 9c3c b905 c739 b7d8 41bc
000001e0: c0cf 753c 000f 813c c96f 033d 2c2b ba3c
000001f0: aef3 d83c b464 833c b24e 123c 4173 723c
00000200: f601 923c 21af 5f3c a42c 3e3b fdc0 39bc
00000210: f6f2 273c 3a1c ee3c ddbe 51bc 56dd 7bbc
00000220: 4787 f73a 6d76 cc3b 2673 bf3c d8eb 163c
00000230: fdc1 cdbb cff9 b13c 0a16 fe39 435f 863c
00000240: 8b00 37bb 7a2e 723c d688 5f3c 0890 8f3c
00000250: 87bc c73c 2be5 be3c 4f82 5d3b 4bc2 3fbc
00000260: cef3 b13b c538 85bc 6027 0b3d 2710 093d
00000270: 7c65 ca3b f29e 773a d0b1 4bbb ea9c cb3c
00000280: 6363 013d 708e 3f3c 2ded c83c 6cea 9c3b
00000290: 0d14 853a ff0b 1bba 2e4e d23c 331d 81bc
000002a0: f2b7 00bc ce7e 053d 6430 2fbc 7d4a a8bb
000002b0: 9b2c ab3c c06d 99bc b59e df3c 0f24 96bb
000002c0: a31b 983c b7c5 35bc b721 903b 966e 67bc
000002d0: 407b 713b cce5 d53c b8e4 353c 74e1 b43c
000002e0: de29 8cbc 8f12 b5ba 0261 0b3a afe4 c5bb
000002f0: ef6a 9cbc a62b 35bb 03dd 033d 3df0 8b3c
00000300: 0b22 043c b2c9 463c ff89 dc3c 617d a1bc
00000310: 3d67 e93c 225e 4dbc 3448 02bc b82f 0cbc
00000320: 3b05 8a3c bd5b 7a3c 7af1 513c 7248 2cbc
00000330: fe5b 15bb 131c 27bb 8dd9 8a3b 0742 89bc
00000340: 2bdc 203c de70 97bc 8714 aa3c c7c3 ef3b
00000350: c13f 693a 6dd2 80bb 0797 ce3c 321a 8b3c
00000360: ca22 59bc 6e07 833c 2509 0f3c 0c1f 36bc
00000370: ba3d 6b3c 65cc 7e3c 856b 823c 0b7c fb3b
00000380: 6a52 e43c 62d3 9e3c 9e33 7a3c 60ce 71bc
00000390: 1e87 813b ead2 c23c 6bd8 85bc 6f08 053b
000003a0: cf29 88bc efd3 d43c 1a13 e03c 1668 583c
000003b0: 70b0 ef3c 8408 063c 4562 6a3c 5278 2b3c
000003c0: 4981 453c 6a63 16bc 4652 c13b 33a2 fd3c
000003d0: 9a11 dd3c dc4a 283c 3c27 0a3d 6bd1 833c
000003e0: aaaa 54bb a185 6d3b cef0 283a 29c7 a73c
000003f0: d358 aa3b bc74 fcba ab6d a5bb c2b3 a43c
-0.014323628 0.015103698 0.013897731 0.025471944 -0.015854258 -0.0089710485 -0.01437252 0.028970022
0.028483614 -0.0074270675 0.018083341 -0.00220667 -0.01873459 0.021988727 -0.011922534 -0.019365346
0.0051691174 0.021842977 0.0075638657 -0.015485062 0.0010034222 -0.0029726673 0.026315453 0.0067158714
0.030371023 0.01544433 0.010628701 0.019123482 0.002189408 0.029960178 0.01755996 0.03210769
0.029694723 0.031499352 0.019434068 -0.0150084905 -0.0015089335 0.0004650129 -0.008261837 0.0018054009
0.014435563 0.03188829 -0.0029807282 0.027668709 0.031974096 0.01238445 -0.008168664 0.03177263
0.020550968 -0.020334886 0.016528372 0.003414775 0.02841698 0.025096558 0.007279093 0.031732142
-0.019673653 0.028125664 0.02593095 0.006296318 0.028823465 0.020470487 -0.010749443 0.018397653
0.033173077 -0.01253558 -0.017169777 0.003828809 0.025659462 0.024663849 0.021175807 0.008136727
0.024318105 -0.01292012 0.023628395 0.03136304 0.031369798 0.02108796 0.012807638 -0.016018964
0.016798137 0.0026643528 -0.009085232 0.033211898 -0.004212034 0.012740813 -0.0047525857 -0.007738992
0.005973375 0.016899629 0.03244017 0.023959132 0.03284481 0.027250681 0.025391849 0.0033096792
0.018816147 0.02360958 -0.010555192 0.024228746 0.033781353 -0.014637385 0.025492685 0.0045572533
0.029585307 0.025740832 0.016154157 -0.009169551 0.025938656 5.6460925e-05 -0.018246148 -0.00482999
0.02563831 -0.0055679786 -0.01576528 0.0176837 0.014370495 0.019080946 0.00037960502 -0.011831454
0.015003145 0.015754223 0.03208903 0.022725664 0.026483383 0.01603923 0.008929895 0.0147979865
0.0178232 0.013652594 0.0029018307 -0.011337516 0.0102507975 0.029066194 -0.012801853 -0.015372595
0.001888492 0.0062397034 0.023370337 0.009211503 -0.0062792287 0.021725563 0.00048463076 0.016402846
-0.0027923908 0.014781589 0.013643464 0.017524734 0.024381889 0.023302635 0.0033799594 -0.011704038
0.005430675 -0.016262421 0.033973098 0.03346267 0.0061766487 0.0009445987 -0.0031081326 0.024855096
0.031588923 0.011691675 0.024527157 0.0047886875 0.001015307 -0.00059145683 0.025672045 -0.015760994
-0.007856356 0.032591633 -0.01069269 -0.005135833 0.020895293 -0.01872909 0.027297357 -0.0045819352
0.018567866 -0.011094502 0.0043985504 -0.014125487 0.0036847144 0.026110552 0.011101894 0.02208016
-0.017109808 -0.0013814735 0.00053168845 -0.006039224 -0.019093959 -0.0027644425 0.032193195 0.017082328
0.008064757 0.012133049 0.02692127 -0.019713106 0.02849161 -0.01253465 -0.007951785 -0.008556299
0.016848197 0.015280661 0.01281392 -0.010515319 -0.0022790427 -0.0025498911 0.00423736 -0.016755117
0.009818117 -0.018486436 0.020761741 0.0073170396 0.00088977447 -0.0039313347 0.0252185 0.016980264
-0.013252923 0.015994754 0.008730208 -0.011115801 0.0143579785 0.015551661 0.01592041 0.007674699
0.02787133 0.019387905 0.015271096 -0.014758676 0.003952875 0.023782212 -0.016338548 0.0020299216
-0.016621498 0.025979964 0.027352858 0.01320841 0.029258937 0.008180741 0.014305656 0.010465698
0.01205475 -0.009178976 0.0058997003 0.030961132 0.026985932 0.010271754 0.033728823 0.01609107
-0.0032450357 0.003624298 0.0006444574 0.02048071 0.005198577 -0.0019260864 -0.005048474 0.020105246

fc1.bias f4 [40]
00000000: de65 b0bc 4fca c4bc 199b edbc bba9 34bc
00000010: 4075 2abd 36ab 0f3e f539 7fbd 1471 07bd
00000020: 1417 3bbe 0a24 acbc d56b aabb 1604 bfbd
00000030: 4557 03be 4875 683e 7669 16be a8ec cabd
00000040: 5556 fcbd 9b8b 65bc 95a7 11bc 699c bc3a
00000050: 444a e5bd f3a5 01bd 123e e7bc c5b0 cdbc
00000060: be1d ce3b b95a 01bc 8b86 39bd fbb6 e8bb
00000070: 483c e53d f5e9 8ebc 346f 0cbd 9c06 9dbc
00000080: d316 10bd 71f5 b73c 0043 91bd 4d97 27bd
00000090: 23a4 95bb b5b7 1dbd 0456 dbbd ac93 02bd
-0.021532949 -0.02402225 -0.02900462 -0.011026795 -0.041615725 0.14030156 -0.06231113 -0.033066824
-0.18270522 -0.021013279 -0.005200843 -0.09326951 -0.1282626 0.22700989 -0.14688668 -0.0990842
-0.12321154 -0.014010335 -0.008890052 0.0014389876 -0.11195806 -0.031652402 -0.02822784 -0.025108704
0.0062901666 -0.007895165 -0.045294326 -0.007101891 0.11193138 -0.017445544 -0.03428574 -0.01916819
-0.035178017 0.022455903 -0.07092857 -0.040915776 -0.0045666858 -0.038505275 -0.107097656 -0.031879112

fc2.weight f4 [3, 40]
00000000: c657 3f3e fd89 9bbe bdbc 203e 7a67 043e
00000010: fbfd bd3d 9edf 583e f7d7 5dbe de52 0cbe
00000020: 070d aabe d552 ce3d 77c9 cc3d f0c2 51be
00000030: b40a 82be 5663 f03e a616 5ebe 04de babc
00000040: 66c9 6abe 7c6f 153e 576e 113e 80ec 3a3e
00000050: 67a0 d8bc 6244 13be f2df 36be 7435 bdbc
00000060: 2e95 d43d d46c 243e f594 343e 2b84 633e
00000070: 365f 2b3d d462 5f3e cb69 d83d 4d86 ae3d
00000080: 7657 5abd 3416 2d3e b5aa b93d 2466 2e3e
00000090: 2b54 273e 667b 193e f16c 1ebe bfa3 74bd
000000a0: 37e1 cdba 8d16 32be 0ce9 03bc 4c0f 3c3e
000000b0: fb7e d73d 4aa7 d83d ae4e 08bd b178 26be
000000c0: 5fd8 a0be f71d 5abe 6e48 7a3e 7449 49be
000000d0: 2650 03be e8a4 fd3e 020b 3fbe ed33 64be
000000e0: 7183 6cbe 9b07 ac3d 669d 093e f8ab d53d
000000f0: 89cf 68be cd39 05bd 8522 ebbd 73a4 653e
00000100: c0ef 303e e873 873e 331d f53d d272 53bd
00000110: bfd2 133e 42b1 943e 139c 1a3e 4919 53bc
00000120: 4681 41bd 2be8 303e 8540 973e 8c55 3e3e
00000130: eba9 8f3d a2dd 223e c62f febd 453e abbb
00000140: 64ce 573e b34a 36be e886 2d3e 7aa7 883c
00000150: 817a 713e 3cb3 343e 38d3 1ebe baf1 dc3c
00000160: aec2 c9be 233d 1cbe 5d99 993c 2188 9abd
00000170: 6f7f 94be 7cf9 dd3e 3058 3dbe e0ae 3bbe
00000180: f784 cfbd 3761 093e c3f2 6a3e 1841 013e
00000190: 83b5 47be fbfe f4bd 10a9 8f3b 4537 333e
000001a0: a73c c73d 64bf e0bc 55e7 5d3e a864 0f3e
000001b0: c05f 363e af7a 493e 75e7 003e ebba 563e
000001c0: 0553 25be db37 fb3c 6441 3d3d 4dac 023e
000001d0: 14df 533e e347 b13d adbc 02be d36a 47be
0.18685827 -0.30378714 0.15696998 0.12930098 0.092769586 0.21179053 -0.21664415 -0.13703486
-0.33213064 0.10074393 0.09999364 -0.20484519 -0.2539879 0.46950787 -0.21688327 -0.022810943
-0.2292839 0.14593309 0.14202248 0.1825428 -0.026443673 -0.14381555 -0.17858866 -0.023096777
0.10380016 0.1605714 0.17634948 0.22218387 0.041838847 0.21815044 0.105670534 0.085217096
-0.053306065 0.16903001 0.09065763 0.17031151 0.16340701 0.14988479 -0.15471245 -0.059726473
-0.0015707378 -0.17391415 -0.008051168 0.1836521 0.105222665 0.10578783 -0.03327816 -0.16256978
-0.31415078 -0.21300493 0.24441692 -0.19656926 -0.12823543 0.49539876 -0.18656543 -0.22285433
-0.23097016 0.08399888 0.13438949 0.10433191 -0.22735418 -0.032525826 -0.114811935 0.22426014
0.17278957 0.26455617 0.1196846 -0.051623173 0.14435862 0.29041487 0.150986 -0.012884446
-0.047242425 0.17276065 0.29541412 0.18587321 0.07014831 0.15904859 -0.12411456 -0.005225929
0.21074826 -0.17801933 0.16945994 0.016681422 0.23581888 0.17646497 -0.15510261 0.026970733
-0.3940634 -0.15257697 0.018749887 -0.07545496 -0.29003474 0.43354404 -0.18490672 -0.18328428
-0.10132783 0.13415991 0.22944169 0.12622488 -0.19502835 -0.11962696 0.0043841675 0.17501552
0.097283654 -0.027435012 0.21670277 0.14003241 0.17809963 0.19675706 0.12588294 0.20969741
-0.1614495 0.030666282 0.04620494 0.1276104 0.20690566 0.086562894 -0.12767287 -0.19474344

fc2.bias f4 [3]
00000000: df2d 74be ff6b 5cbe e584 39be
-0.23845623 -0.21525572 -0.18117101
