Bachelor/Fit tasks/lightning_logs/version_34/checkpoints/epoch=199-step=12200.ckpt (torch, 221147 bytes, 4 tensors)

fc1.weight f4 [40, 1350]
0	0x3cbd279b	0.023090174
1	0xbb47b933	-0.0030475378
2	0xbc91cd45	-0.017798075
3	0x3be2db4e	0.006923116
4	0xbc9bd85c	-0.019024067
5	0xbc96bbf1	-0.018400164
6	0xbca2dee2	-0.01988167
7	0xbc5b70e8	-0.013393618
8	0xbca941eb	-0.020661315
9	0xbbd30f93	-0.0064410656
10	0x3c821f6a	0.01588412
11	0x3bd17e21	0.0063932096
12	0xbc6e801b	-0.01455691
13	0xbc62cbea	-0.013842562
14	0xbbc4bfda	-0.006004316
15	0x3cddcd6f	0.027075497
16	0xbcaccdab	-0.021094164
17	0x3b8cc20c	0.004295593
18	0x3c387ff8	0.011260979
19	0xbcb13471	-0.021631451
20	0x3ce35200	0.027749062
21	0x3cd4ff8a	0.026000757
22	0xbc67ca97	-0.014147422
23	0xbc97e6fe	-0.018542763
24	0x3cb791f7	0.022408469
25	0xbca37c12	-0.019956622
26	0x3c5fa5f8	0.01365041
27	0x3c9a9a9a	0.018872548
28	0xbb24ff03	-0.0025176413
29	0xbaab7dfd	-0.0013083812
30	0x3cc01f50	0.023452431
31	0x3c09dbe5	0.008414243
32	0x3cb3b49d	0.021936709
33	0x3bbe5bea	0.005809297
34	0xbc4bb10c	-0.012432348
35	0xba63c5ee	-0.00086888566
36	0xbc3cfc37	-0.011534742
37	0xbac9cc45	-0.001539596
38	0xbbe34e7f	-0.0069368477
39	0xbc926619	-0.01787095
40	0x3cb8bcc8	0.022550955
41	0xbcc8550c	-0.024454616
42	0x3cdb2ec9	0.026755707
43	0xbaa44cb7	-0.001253507
44	0x3be3ff63	0.0069579347
45	0x3c219f6b	0.009864668
46	0x3c10170d	0.008794558
47	0x3cdd0be2	0.026983205
48	0xbc625d4f	-0.013816192
49	0xbc56759a	-0.013089562
50	0x3c38a15a	0.011268938
51	0x3c4c489b	0.012468482
52	0x3cca26bb	0.024676671
53	0x3cd9ec9d	0.026602084
54	0xbc0ff977	-0.008787504
55	0xbc22994f	-0.009924247
56	0x3bb3d272	0.0054877335
57	0xbbaea987	-0.005330268
58	0x3cc635fa	0.02419566
59	0xbcc3b273	-0.023888802
60	0x3c9267f2	0.01787183
61	0x3bc8aa0b	0.0061237863
62	0x3c38d6bc	0.011281665
63	0xbc3356cc	-0.010945987
64	0xbcb04509	-0.021517294
65	0x3ced8034	0.028991796
66	0xba89eecc	-0.0010523438
67	0x3c5eee83	0.01360667
68	0x3c7aeaaa	0.015314737
69	0xbc6860df	-0.014183252
70	0x3c5d9cb1	0.013526128
71	0xbcb13827	-0.02163322
72	0x3b357b77	0.0027692
73	0x3b7f3d51	0.003894646
74	0x3c99c79d	0.01877194
75	0xbcc9e316	-0.024644416
76	0xbbfeee63	-0.0077798828
77	0x3cd8a85c	0.026447468
78	0x3cbc938c	0.023019575
79	0x39c7628a	0.00038029655
80	0x3c374f74	0.011188377
81	0xbcca35ea	-0.024683911
82	0xbc292b68	-0.01032529
83	0x3cea04ca	0.028566737
84	0x3b00e6e5	0.0019668874
85	0xbcb5c5f7	-0.022189124
86	0x3896bc99	7.1876864e-05
87	0x3b185e44	0.0023249546
88	0x3cd5a924	0.02608163
89	0x3cd5f36f	0.026117055
90	0x3b5c485c	0.0033612465
91	0x3c707b7e	0.01467788
92	0xbc2faf61	-0.010722966
93	0x3cbf2c4d	0.023336554
94	0x3cb25f9a	0.021774102
95	0x3c438cde	0.011935441
96	0xbba4e02e	-0.005031607
97	0x3c684aec	0.014178019
98	0x3a8f4be5	0.0010932653
99	0x3c8503e1	0.016237201
100	0x3cccec9f	0.025015173
101	0x3c679207	0.014133937
102	0x3cbc1978	0.022961363
103	0xbc089db7	-0.008338383
104	0x3cd1267c	0.025531046
105	0xbc9c49ba	-0.019078124
106	0xbc8e641f	-0.017381726
107	0x3c8c4341	0.017121913
108	0x3cca4426	0.024690699
109	0x3bc3d4b3	0.0059762835
110	0x3c85898e	0.016300943
111	0xbc44cf61	-0.012012334
112	0xbb5b6af3	-0.0033480495
113	0x3c0e63b2	0.008690761
114	0x3b80dd0d	0.0039326013
115	0x3c614762	0.013749929
116	0xbc4925ea	-0.012277106
117	0x3ba8464d	0.0051353336
118	0x3ca5d29f	0.020242034
119	0x3c9dda2e	0.019269075
120	0xbc7cf427	-0.01543907
121	0x3c6ef95f	0.014585822
122	0xbbf89138	-0.007585671
123	0xbb212eb9	-0.00245945
124	0xbc2afa59	-0.010435664
125	0xbc96b024	-0.018394537
126	0x3c3fa8ce	0.011697961
127	0xbc29448c	-0.010331284
128	0xbc3e02e4	-0.011597369
129	0x3b630b29	0.0034644103
130	0xbc43f725	-0.011960779
131	0xbc6ae122	-0.014335902
132	0xbcb64fbf	-0.022254823
133	0x3c3da334	0.011574555
134	0x3c30d634	0.0107932575
135	0x3cacd64c	0.021098278
136	0xbcccc9f5	-0.024998644
137	0xbcaba3aa	-0.020952065
138	0xbcade05c	-0.021225147
139	0xbb0f869d	-0.0021900304
140	0xbae9e24c	-0.0017843931
141	0xbca67d1c	-0.020323329
142	0xbc0fc643	-0.008775297
143	0x3c33a99b	0.01096573
144	0xbc9b0c8a	-0.018926878
145	0xbcb40b03	-0.021977907
146	0x3cc0a483	0.023515945
147	0xbc9560ad	-0.018234575
148	0x3cc4e7fb	0.024036398
149	0xbcca5753	-0.024699843
150	0x3bb5f51a	0.0055529
151	0xbcb05b39	-0.021527873
152	0x3c1bfa59	0.009520137
153	0x3bc3b02d	0.0059719295
154	0x3cb5351b	0.02212005
155	0xbccb18a9	-0.024792032
156	0x3bd06b63	0.0063604577
157	0x3c16f613	0.009213942
158	0x3c75f0e3	0.015011045
159	0xbc229451	-0.009923057
160	0xbba78568	-0.005112339
161	0xbc8c4ccc	-0.017126463
162	0x3c93dd14	0.018049754
163	0x3cbf9e67	0.023390962
164	0x3a912240	0.0011072829
165	0x3c87300e	0.016502406
166	0x3c24d95a	0.010061586
167	0xbcae733c	-0.021295182
168	0xbc9defa8	-0.019279316
169	0xbb68e41d	-0.0035536357
170	0xba7fcc75	-0.00097579445
171	0xbb8004c3	-0.0039068176
172	0xbcc0fb33	-0.023557281
173	0x3c3e5563	0.0116170375
174	0xbbe26721	-0.0069092666
175	0x3b94087c	0.004517613
176	0x3c870b66	0.016484927
177	0xbcb4c72a	-0.022067625
178	0x3c80ea34	0.015736677
179	0xbc93fbcd	-0.018064404
180	0xba244923	-0.0006267002
181	0x3cd751f0	0.026284188
182	0xbcba10b8	-0.02271305
183	0xbc5e5f41	-0.013572515
184	0xbc8fe8c1	-0.01756704
185	0xbbb82e6f	-0.0056207697
186	0x3c3ae538	0.011407189
187	0x3bbb7b80	0.0057215095
188	0x3ce3c3dd	0.027803356
189	0xbc5567df	-0.013025253
190	0x3c1ceaa9	0.009577432
191	0x3c309db3	0.010779786
192	0xbc8354e1	-0.016031684
193	0x3c84f967	0.016232206
194	0xbcca4c25	-0.024694512
195	0xbbb1b0f8	-0.0054227076
196	0x3c29fd44	0.010375325
197	0xbc9e2922	-0.019306723
198	0x3cae689f	0.021290122
199	0x3bfb0904	0.007660987
200	0x3c449658	0.011998735
201	0xbc88abb4	-0.016683437
202	0x3c918308	0.017762676
203	0xbcbdd9fd	-0.023175234
204	0x3ca51467	0.02015133
205	0xbba4559e	-0.005015089
206	0x3c5a82b9	0.013336831
207	0x3ce20857	0.027591867
208	0x3bd4a456	0.006489317
209	0x3cba1a87	0.022717727
210	0xbbfdc63e	-0.0077445796
211	0x3c9c0820	0.019046843
212	0x3b37e8da	0.0028062374
213	0xbc0dc081	-0.008651854
214	0x3ca16f6b	0.019706449
215	0x3c6610ae	0.014042063
216	0x3c15b349	0.009136983
217	0xbaee7103	-0.0018191639
218	0xbb109dbf	-0.002206668
219	0x3bdba32a	0.0067028003
220	0xbc4dc4b2	-0.012559103
221	0xbc04f44b	-0.008114885
222	0xbaf4c434	-0.0018674196
223	0xbc927f7e	-0.017883059
224	0x3bd1370d	0.0063847364
225	0x3ccccc9a	0.024999905
226	0xbc0b01da	-0.008484328
227	0x3a711c96	0.000919768
228	0x3c470243	0.012146535
229	0x3bca5c08	0.0061755218
230	0x3c2ddb8c	0.010611426
231	0x3c3a0942	0.011354746
232	0x3b1a0e3e	0.0023507024
233	0x3cd24472	0.025667403
234	0x3cc558ab	0.024090132
235	0x38f9123b	0.00011876641
236	0xbc884d9c	-0.01663857
237	0xbc14dd48	-0.009085961
238	0xbca0e193	-0.019638812
239	0x3b838333	0.004013443
240	0xbb327da6	-0.0027235537
241	0x3bf2fff2	0.007415765
242	0x3c9b428d	0.018952632
243	0xbcce7f79	-0.025207268
244	0x3cc0a04c	0.023513936
245	0x3cc228a6	0.023701023
246	0x3c55981b	0.013036753
247	0x3c93886c	0.018009387
248	0xbc80ac25	-0.015707085
249	0xbc56040c	-0.013062488
250	0x3c898c49	0.016790526
251	0xbc915172	-0.017739031
252	0x3c11f1ce	0.008907748
253	0x3c578928	0.013155259
254	0xbbf2dfe8	-0.0074119456
255	0x3bdc3a9a	0.006720853

fc1.bias f4 [40]
0	0xbcc3a5f6	-0.023882847
1	0x3d96e2b3	0.07367458
2	0xbce807e3	-0.028324073
3	0xbc7b8f60	-0.0153540075
4	0xbc601807	-0.013677604
5	0xbc5b83f3	-0.013398158
6	0xbd005a8a	-0.031336345
7	0x3a86b102	0.0010276141
8	0x3e3affcc	0.18261641
9	0xbca8143c	-0.020517461
10	0xbc9bd5fa	-0.01902293
11	0xbd1ce46a	-0.03830377
12	0xbd390d8f	-0.045178946
13	0x3ce47101	0.027885916
14	0x3cafcdb8	0.021460399
15	0xbd4401c4	-0.047853246
16	0x3db58fd7	0.08865326
17	0xbda52cb9	-0.08065171
18	0xbc95aaff	-0.018270014
19	0xbd21e629	-0.03952614
20	0xbccd198c	-0.025036596
21	0xbc61190a	-0.01373888
22	0xbda37780	-0.07981777
23	0xbdfa51f2	-0.12222661
24	0xbb056579	-0.0020354672
25	0xbc5ce02d	-0.013481182
26	0x3c44f9ad	0.012022418
27	0x3dfaafac	0.12240538
28	0xbc915368	-0.017739967
29	0xbb9485ac	-0.0045325365
30	0xbce5f742	-0.028072003
31	0x3cab9af8	0.020947918
32	0x3d2eed1c	0.042706594
33	0x3c87ed87	0.016592754
34	0xbc8fa12d	-0.01753291
35	0x3e18a324	0.14905983
36	0x3cad931c	0.021188311
37	0xbb707a47	-0.0036693977
38	0x3dd03c86	0.10167794
39	0x3d146ef3	0.036238622

fc2.weight f4 [3, 40]
0	0xbe5faf2c	-0.21844167
1	0x3e762da7	0.24040852
2	0xbe43f70e	-0.19137213
3	0xbd02a70a	-0.031897582
4	0xbeac2890	-0.33624697
5	0xbe417a82	-0.1889439
6	0xbbe19440	-0.006884128
7	0xbe150a79	-0.14554776
8	0x3f1a0788	0.6016774
9	0x3db056bd	0.08610294
10	0x3e01c06d	0.12671061
11	0xbe57fdb7	-0.21092878
12	0xbe7b975a	-0.24569455
13	0x3e3d3f91	0.1848128
14	0x3d059621	0.032613877
15	0xbe0d9706	-0.13827142
16	0x3e0e13df	0.13874768
17	0xbe860e42	-0.26182753
18	0xbe826533	-0.25467834
19	0xbdb77813	-0.08958449
20	0x3e1d9a52	0.153909
21	0x3e2eb0fd	0.17059703
22	0xbe5a1fff	-0.21301268
23	0xbe7ed16b	-0.24884574
24	0xbd6f1fa0	-0.05837977
25	0xbe845888	-0.25848794
26	0x3e2ee971	0.17081238
27	0x3eaf4a12	0.342362
28	0xbe4ff7b0	-0.20309329
29	0x3cb728ca	0.022358317
30	0x3e109c03	0.14122014
31	0x3e4aaefd	0.19793315
32	0x3de02f48	0.10946518
33	0xbe29ed29	-0.16594376
34	0x3e870c30	0.26376486
35	0x3ec1addd	0.3782796
36	0xbe25cc5a	-0.16191235
37	0x3da10857	0.07862919
38	0x3e904d3a	0.2818392
39	0x3e19c095	0.1501487
40	0xbd0e1cce	-0.03469544
41	0x3d3d43ab	0.04620711
42	0xbe149ec8	-0.14513695
43	0xbe7ff25a	-0.24994794
44	0xbe191be4	-0.14952046
45	0xbe081a58	-0.132913
46	0x3e2018cc	0.1563446
47	0xbe6c09c9	-0.23050608
48	0x3f12485a	0.5714165
49	0xbd552905	-0.052041072
50	0x3e47f210	0.19525933
51	0xbe19d5e9	-0.15023006
52	0xbe7836ed	-0.24239703
53	0x3d87c023	0.06628444
54	0x3e5739a6	0.21018085
55	0xbe5a3257	-0.21308266
56	0x3e734b68	0.23759234
57	0xbe5d2495	-0.21595986
58	0xbe7f0485	-0.24904068
59	0xbe5db4f3	-0.21651058
60	0xbc375987	-0.011190779
61	0x3e385277	0.18000208
62	0xbe8b0669	-0.27153328
63	0xbeb82bba	-0.3597086
64	0xbe2716e7	-0.1631733
65	0xbe267384	-0.16255003
66	0x3e6b6faa	0.22991815
67	0x3e4e44ee	0.20143482
68	0xbdeee0ce	-0.11663972
69	0x3e7bc470	0.24586654
70	0x3d8a13e6	0.067420766
71	0x3e25f335	0.16206057
72	0x3e6a46a1	0.22878505
73	0xbe100dd9	-0.14067782
74	0x3e2a6bbd	0.16642661
75	0x3ee66279	0.44997004
76	0xbe47f1e3	-0.19525866
77	0x3e10a3d2	0.14124992
78	0x3e30b4c4	0.17256457
79	0x3e66f242	0.22553352
80	0xbe8eba5c	-0.27876556
81	0x3e8ea0fa	0.2785719
82	0xbdf426a0	-0.1192143
83	0xbe9d2d51	-0.30698636
84	0xbde09985	-0.109667815
85	0xbdfbb7d4	-0.12290922
86	0x3e77f6b6	0.24215207
87	0xbe221ca7	-0.15831243
88	0x3f15f03e	0.58569705
89	0x3e6b8eb8	0.23003662
90	0x3dc67e21	0.09692026
91	0xbe6f802e	-0.2338874
92	0xbde3800a	-0.11108406
93	0x3e585404	0.211258
94	0x3dad9c09	0.08477027
95	0xbe7c36bb	-0.24630253
96	0x3e8022a5	0.25026432
97	0xbeacf292	-0.33778816
98	0xbdfd1d8a	-0.1235915
99	0xbe76f1bf	-0.24115656
100	0x3e2e44ed	0.1701848
101	0xbd4b82ff	-0.049685474
102	0xbe47afad	-0.19500609
103	0xbeae02e4	-0.3398658
104	0xbd69137c	-0.056903347
105	0xbe189ea8	-0.14904273
106	0x3d65535f	0.055987712
107	0x3e85c68a	0.26128036
108	0xbdfcfbe9	-0.123527355
109	0x3e5bf820	0.21481371
110	0x3e1ed6af	0.15511583
111	0x3d833586	0.06406693
112	0x3dd5d00c	0.104400724
113	0xbe8aecb4	-0.27133715
114	0xbcdb66db	-0.026782444
115	0x3eb0d7ce	0.34539646
116	0xbe107b13	-0.14109449
117	0x3e5d5680	0.21615028
118	0x3e713dfa	0.23558798
119	0x3d46827a	0.048464276

fc2.bias f4 [3]
0	0xbdaa9c00	-0.08330536
1	0xbdc2e2d6	-0.09515922
2	0xbce7d653	-0.02830044
