Bachelor/lightning_logs/version_15/checkpoints/epoch=49-step=3050.ckpt (torch, 47835 bytes, 4 tensors)

fc1.weight f4 [10, 1080]
0	0xbd1eb6db	-0.038748603
1	0xbd8af5fc	-0.06785199
2	0xbcb7dea3	-0.022445029
3	0xbd945e85	-0.07244591
4	0xbd6f3807	-0.05840304
5	0xbd71b5be	-0.059011213
6	0xbd4181d1	-0.047242943
7	0xbd126341	-0.035739187
8	0xbd07829c	-0.033083543
9	0xbd2d9f0a	-0.042388
10	0xbc8c106e	-0.017097678
11	0xbd1d7197	-0.038438406
12	0xbc52b917	-0.012861512
13	0xbcfa0a69	-0.030522542
14	0xbd847f57	-0.06469601
15	0xbd8b61b0	-0.06805742
16	0xbc37b65c	-0.011212911
17	0xbd46642b	-0.04843537
18	0xbd8161ac	-0.063174576
19	0xbd48e1e9	-0.04904357
20	0xbd6b91aa	-0.057511963
21	0xbce3f465	-0.027826497
22	0xbc41195b	-0.01178583
23	0xbd744a6e	-0.059641294
24	0xbc9c8fa0	-0.019111454
25	0xbcfa7ec6	-0.030578028
26	0xbca8f0c0	-0.020622611
27	0xbc7171c9	-0.014736601
28	0xbd1a77d7	-0.037711944
29	0xbcc4e301	-0.024034025
30	0xbd6cd5fc	-0.05782126
31	0xbd8bed60	-0.06832385
32	0xbd0638d0	-0.032769024
33	0xbcde297f	-0.027119396
34	0xbc84f37a	-0.01622938
35	0xbd3e986e	-0.046532087
36	0xbd7ee366	-0.062228583
37	0xbcd84a9c	-0.026402764
38	0xbd0c46a8	-0.03424707
39	0xbd2e7c78	-0.04259917
40	0xbc8b54d1	-0.017008217
41	0xbd67919e	-0.056535356
42	0xbd73e8cb	-0.05954818
43	0xbd2eae5f	-0.042646762
44	0xbd899283	-0.06717398
45	0xbc65783d	-0.014005718
46	0xbce960e6	-0.028488588
47	0xbcbd5366	-0.023111057
48	0xbcb2fbb0	-0.02184853
49	0xbd58c07a	-0.052917935
50	0xbcd506c0	-0.026004195
51	0xbd78bb61	-0.060725573
52	0xbc092276	-0.0083700325
53	0xbd074940	-0.03302884
54	0xbd0c3fc0	-0.034240484
55	0xbc65da78	-0.014029138
56	0xbc9c26e9	-0.019061523
57	0xbd83401f	-0.064087145
58	0xbc6917bd	-0.014226851
59	0xbd5b1100	-0.05348301
60	0xbd4ad31c	-0.049517736
61	0xbc7c4daa	-0.015399376
62	0xbd0e703f	-0.034775015
63	0xbc98d339	-0.018655406
64	0xbd8311fb	-0.06399914
65	0xbc40b6a1	-0.011762292
66	0xbd06428f	-0.03277832
67	0xbcce2b5d	-0.025167162
68	0xbd334317	-0.043765154
69	0xbcac6971	-0.021046372
70	0xbc94b857	-0.018154306
71	0xbd763bbf	-0.060115572
72	0xbca028a5	-0.01955063
73	0xbd5b1b08	-0.053492576
74	0xbd2dbed6	-0.042418323
75	0xbcbe3565	-0.02321882
76	0xbcaaf364	-0.02086801
77	0xbcfe3a5a	-0.031033684
78	0xbd836d1d	-0.06417296
79	0xbd1ac1ca	-0.037782468
80	0xbd8a95a7	-0.06766825
81	0xbcac8f00	-0.021064281
82	0xbd043ce0	-0.032284617
83	0xbd7584e4	-0.059941188
84	0xbc9261d7	-0.01786892
85	0xbd00b13f	-0.031419035
86	0xbd7aa1fe	-0.061189644
87	0xbcf6cc08	-0.030126587
88	0xbcb22d59	-0.02175014
89	0xbd63dd1b	-0.055630784
90	0xbcec3161	-0.02883214
91	0xbd00aa5a	-0.03141246
92	0xbccfc2b2	-0.025361393
93	0xbd7f28f0	-0.0622949
94	0xbcc529d6	-0.0240678
95	0xbd513cdb	-0.051083427
96	0xbcf01f72	-0.02931187
97	0xbd591464	-0.05299796
98	0xbd7a8b49	-0.06116799
99	0xbd272635	-0.04080792
100	0xbd5ccfe5	-0.0539092
101	0xbc4d859e	-0.012544064
102	0xbcaa2036	-0.020767312
103	0xbd6dde76	-0.058073483
104	0xbd50c5ce	-0.05096989
105	0xbd7e4df7	-0.06208607
106	0xbc7fa2d5	-0.015602787
107	0xbd53b829	-0.0516893
108	0xbcb1f0ee	-0.02172133
109	0xbd8d081d	-0.06886313
110	0xbc675670	-0.014119729
111	0xbd927a18	-0.07152194
112	0xbd50ce86	-0.050978206
113	0xbc65f7c8	-0.014036126
114	0xbcc707c3	-0.024295693
115	0xbc8a2738	-0.016864404
116	0xbc866f24	-0.016410418
117	0xbd72a8a8	-0.059242874
118	0xbd433d8d	-0.04766612
119	0xbc8acf66	-0.016944598
120	0xbd8732d8	-0.066014946
121	0xbd1148bc	-0.035469756
122	0xbd021b3f	-0.031764265
123	0xbd4fee41	-0.050764326
124	0xbd58bd59	-0.05291495
125	0xbd1239ed	-0.035699774
126	0xbd80f787	-0.06297212
127	0xbd64ea42	-0.05588747
128	0xbd886dd2	-0.066615716
129	0xbd40c074	-0.047058538
130	0xbd0656db	-0.032797676
131	0xbc7b52d2	-0.01533957
132	0xbd569715	-0.052390177
133	0xbd87984a	-0.06620844
134	0xbcc0ff0d	-0.023559118
135	0xbcc98e06	-0.024603855
136	0xbd5c2020	-0.053741574
137	0xbd57ee29	-0.05271736
138	0xbd569f15	-0.052397806
139	0xbd5d873d	-0.05408405
140	0xbd72e2fc	-0.0592985
141	0xbcf5b375	-0.029992798
142	0xbcdb4763	-0.026767438
143	0xbd71637e	-0.058932774
144	0xbc8d3ecc	-0.017241858
145	0xbd57419c	-0.052552804
146	0xbd372512	-0.044713087
147	0xbcf09469	-0.029367642
148	0xbc91e7be	-0.017810699
149	0xbcab84d7	-0.020937366
150	0xbd955306	-0.07291226
151	0xbc611c36	-0.013739636
152	0xbca2dfae	-0.01988205
153	0xbc78232e	-0.015145106
154	0xbce543a2	-0.027986351
155	0xbd92db4b	-0.07170733
156	0xbd102be9	-0.035198126
157	0xbd34498f	-0.044015463
158	0xbd2300e7	-0.039795782
159	0xbcadad41	-0.021200778
160	0xbd00db05	-0.031458873
161	0xbd760dd1	-0.06007177
162	0xbd4829ea	-0.048868097
163	0xbd916339	-0.07099003
164	0xbd10a0a5	-0.035309453
165	0xbd336eab	-0.043806713
166	0xbc754066	-0.014968967
167	0xbd866473	-0.06562128
168	0xbc8becd8	-0.01708071
169	0xbc76c8bf	-0.01506251
170	0xbc766465	-0.015038584
171	0xbce24bc1	-0.027624013
172	0xbd37cad8	-0.04487118
173	0xbd382d05	-0.04496481
174	0xbd835aea	-0.06413825
175	0xbd84748e	-0.064675435
176	0xbc8c0699	-0.01709299
177	0xbced01e1	-0.02893156
178	0xbd4eadaa	-0.050458588
179	0xbcb91a17	-0.022595448
180	0xbcbe9f0d	-0.0232692
181	0xbce216ab	-0.0275987
182	0xbd22b8b7	-0.03972694
183	0xbd0d6516	-0.03452023
184	0xbd79f79c	-0.061027154
185	0xbd959299	-0.07303352
186	0xbcad2188	-0.021134153
187	0xbd848723	-0.06471088
188	0xbd931685	-0.0718203
189	0xbd321db0	-0.043485343
190	0xbd349555	-0.044087727
191	0xbd6591b5	-0.05604716
192	0xbd097616	-0.03355988
193	0xbc8a12b6	-0.016854625
194	0xbc9fcba6	-0.019506287
195	0xbd774afa	-0.060374238
196	0xbd436c25	-0.047710557
197	0xbd4c8fd8	-0.049941868
198	0xbd905cf4	-0.070489794
199	0xbd614e1f	-0.055006143
200	0xbd5e048c	-0.054203555
201	0xbd09b1fc	-0.033617005
202	0xbd94f2a6	-0.07272844
203	0xbd76028b	-0.06006102
204	0xbcd0cc04	-0.025487907
205	0xbd8a0c2d	-0.067406036
206	0xbd2363cb	-0.039890092
207	0xbd75e1d5	-0.060029823
208	0xbc8e75ff	-0.01739025
209	0xbd4fb20f	-0.05070692
210	0xbd00a0b9	-0.031403277
211	0xbd17ac45	-0.037029523
212	0xbc8eb9be	-0.017422553
213	0xbc8d23c0	-0.017228961
214	0xbd6157ec	-0.05501549
215	0xbd560e02	-0.052259453
216	0xbd73c527	-0.05951419
217	0xbd60f111	-0.0549174
218	0xbcbdfc89	-0.023191707
219	0xbd5b6d4d	-0.053571034
220	0xbd89d4f5	-0.067300715
221	0xbcb42485	-0.02199007
222	0xbd0db884	-0.034599796
223	0xbd435f54	-0.047698334
224	0xbd6031c7	-0.05473497
225	0xbcfb16c4	-0.030650504
226	0xbd2ac4f5	-0.04169174
227	0xbc633121	-0.013866694
228	0xbd939e82	-0.07207967
229	0xbd0b8dbc	-0.034070715
230	0xbc8f43a1	-0.017488303
231	0xbd8c374f	-0.06846487
232	0xbd57cd10	-0.052685797
233	0xbd0325fc	-0.032018647
234	0xbd789db0	-0.060697258
235	0xbd699bae	-0.057033233
236	0xbd7c4170	-0.061585844
237	0xbcaf30eb	-0.02138563
238	0xbc701374	-0.0146530755
239	0xbd6df12d	-0.05809133
240	0xbcc8fa96	-0.024533551
241	0xbd1f9ccf	-0.038967904
242	0xbd6f0a3c	-0.05835937
243	0xbd85bd3b	-0.065302335
244	0xbd36f89b	-0.044670682
245	0xbd2cae0c	-0.04215817
246	0xbd858775	-0.06519977
247	0xbc9decc7	-0.019277943
248	0xbd435fa8	-0.047698647
249	0xbd9419bb	-0.0723147
250	0xbcfc5f29	-0.030807095
251	0xbcfc0b8b	-0.030767223
252	0xbcf292a3	-0.029610937
253	0xbd2d686c	-0.042335913
254	0xbd920664	-0.07130125
255	0xbcb7255e	-0.022356685

fc1.bias f4 [10]
0	0x3de05598	0.10953826
1	0x3dea3e04	0.1143761
2	0x3ca43757	0.02004592
3	0xbd362bfb	-0.044475537
4	0xbc7dcda9	-0.015490928
5	0x3f5055ea	0.81381094
6	0xbe98d5e7	-0.29850695
7	0x3d8e26ee	0.06941019
8	0x3dc639d4	0.096789986
9	0x3f3d461b	0.739351

fc2.weight f4 [3, 10]
0	0xbe936ad9	-0.28792456
1	0xbf7208c2	-0.94544613
2	0xbebb05e6	-0.36527938
3	0x3f4c11e5	0.79714805
4	0x3f3121b6	0.69192064
5	0x3f2de518	0.67927694
6	0xbeb20aa4	-0.34773743
7	0xbef59a75	-0.47969404
8	0xbee29241	-0.44252208
9	0x3f1593f9	0.58428913
10	0xbed84d8a	-0.42246658
11	0xbf7230b5	-0.9460557
12	0xbea3f710	-0.3202443
13	0x3f4d2ac2	0.8014337
14	0x3f44f583	0.7693712
15	0x3f217a8a	0.63077605
16	0xbec945b9	-0.39311007
17	0xbef6286c	-0.48077714
18	0xbe812631	-0.2522445
19	0x3f1d1373	0.613578
20	0xbe8a93c2	-0.27065855
21	0xbf701777	-0.93785805
22	0xbef451b7	-0.47718593
23	0x3f54995b	0.830465
24	0x3f31b8b0	0.69422436
25	0x3f107905	0.5643466
26	0xbeaf86e1	-0.34282592
27	0xbef06926	-0.46955222
28	0xbebf5e2e	-0.3737654
29	0x3f2d84f6	0.6778101

fc2.bias f4 [3]
0	0x3f23e8db	0.64027184
1	0x3f14fdbd	0.58199674
2	0x3f23313d	0.63747007
