Bachelor/Fit tasks/lightning_logs/version_1/checkpoints/epoch=49-step=3050.ckpt (torch, 58651 bytes, 4 tensors)

fc1.weight f4 [10, 1350]
-0.012991741 -0.03445512 0.005160579 0.002816477 -0.004468317 -0.021974668 -0.031864557 -0.024362976
-0.024292607 -0.010748606 -0.003978353 -0.0043390845 0.004637553 -0.0246615 -0.029707398 -0.01749065
0.014861114 -0.021413691 -0.029583707 -0.008285792 0.008513963 0.008768056 -0.0059612175 0.0012412231
0.010772071 0.014492368 0.008502054 -0.023704892 -0.017982649 -0.030678349 -0.007883479 -0.009038324
-0.03135918 -0.031517256 -0.016145622 -0.005424511 -0.02729185 -0.012713979 0.0035073184 -0.026357697
-0.024995845 -0.023266885 0.008583517 -0.017381486 0.013424412 -0.021805707 -0.011017081 -0.022485627
-0.004888334 0.012901652 0.011999682 -0.01176295 0.0074674007 -0.025813669 -0.022316273 -0.015059855
-0.027396511 -0.007495359 0.0053867237 -0.03175509 -0.02776461 0.016768076 -0.035532087 -0.003925581
-0.008568861 -0.025754392 -0.00863433 0.006497864 0.009709026 -0.01939619 0.014356107 -0.0013944533
-0.029479196 -0.0079940045 0.008931216 -0.031875312 0.0010126537 -0.018947832 -0.011684037 -0.0019337082
0.0154918805 0.015416853 -0.02349077 -0.02134351 -0.008205643 -0.011055426 -0.015966091 -0.022858266
0.008322248 0.0070859925 0.014113655 -0.032880105 -0.027506217 0.0107485 -0.029512504 -0.007026558
-0.011780361 -0.03210887 0.016557345 -0.008243745 -0.0015359081 0.0061344444 -0.010689816 -0.022489563
-0.019447425 -0.009985635 -0.018554006 0.0047833887 -0.00328638 -0.02208059 -0.024239853 -0.01209149
-0.025034137 0.0003766346 -0.0032349422 -0.02901243 0.017964648 -0.023151444 -0.006000715 0.009485191
-0.0138847465 0.018463952 -0.0047963927 -0.016079128 -0.03435865 0.007065096 -3.531784e-05 -0.0077663525
-0.0119027505 -0.0009513028 -0.019948747 -0.029040454 -0.03253476 -0.029925771 -0.014976726 -0.034248754
-0.034261685 -0.0035768442 -0.033278454 -0.0051472164 0.0048743794 -0.012821656 -0.026699988 0.0022423123
-0.030887647 -0.006440555 -0.013640982 -0.0023319828 -0.00091914745 -0.00039468828 0.011057339 -0.023250997
0.008495635 -0.026654132 0.018426877 -0.022671208 -0.027370606 -0.0067660175 -0.025979297 -0.030453136
-0.028314916 0.0012505362 0.0070178183 -0.01887507 0.011182626 0.00063884654 -0.026483256 -0.02841153
-0.034495194 0.013048943 0.005308621 -0.034146998 -0.0037033819 -0.008277805 0.0096065225 -0.033222955
0.01829158 -0.023040144 0.014531236 0.0154778445 -0.01893433 0.016870875 0.0073129227 0.008051186
-0.019294702 -0.007974477 3.6557423e-05 -0.012963726 -0.014632455 0.009532051 -0.0150773 -0.019607028
-0.024839194 -0.022757575 0.010582816 0.014700124 0.00139863 0.0068791956 0.005997075 -0.031831678
0.017594365 0.01689487 -0.028256575 0.015129152 -0.008402791 0.017673822 -0.01243015 -0.015085992
0.012939877 -0.0065443 -0.032222703 -0.0027407303 -0.03320464 0.012034682 -0.01723302 -0.024946027
0.0019564296 0.0049313293 -0.021963127 -0.029768344 -0.035141595 -0.008983845 -0.034772802 -0.0006153579
-0.00779658 0.009870674 -0.0022271704 -0.016794702 -0.033049896 -0.0015009816 -0.030569574 -0.016538976
-0.02121371 -0.019160008 -0.020760838 -0.002664082 -0.032564715 -0.0013299023 -0.03130467 0.010612028
0.01524752 0.007450742 -0.0008012571 -0.0040045744 0.01560951 0.011238089 0.009752257 0.012367271
-0.03477327 0.010726589 -0.016403208 -0.028400179 -0.004431966 -0.01600158 -0.033737056 0.0095257275
00000000: 50db 54bc d020 0dbd 131a a93b a594 383b
00000010: f66a 92bb 3804 b4bc 6984 02bd dd94 c7bc
00000020: 4a01 c7bc ec1a 30bc d85c 82bb e12e 8ebb
00000030: 9df6 973b ea06 cabc ee5c f3bc 8d48 8fbc
00000040: 087c 733c c46b afbc 8859 f2bc 21c1 07bc
00000050: 267e 0b3c e4a7 0f3c 5156 c3bb 89b0 a23a
00000060: 577d 303c 6671 6d3c 334c 0b3c c330 c2bc
00000070: 5950 93bc 2951 fbbc b529 01bc 7a15 14bc
00000080: 7c72 00bd 3d18 01bd d343 84bc 19c0 b1bb
00000090: 2893 dfbc 4b4e 50bc 0adb 653b 19ec d7bc
000000a0: 16c4 ccbc 329a bebc e1a1 0c3c 9e63 8ebc
000000b0: 11f2 5b3c e2a1 b2bc fd80 34bc c733 b8bc
000000c0: 512e a0bb 7361 533c 509a 443c 63b9 40bc
000000d0: 19b1 f43b 3077 d3bc 9ed0 b6bc 9cbd 76bc
000000e0: a66e e0bc a19b f5bb 1d83 b03b a011 02bd
000000f0: 9b72 e3bc 345d 893c 188a 11bd 29a2 80bb
00000100: 6864 0cbc e0fa d2bc 0177 0dbc 09ec d43b
00000110: 9b12 1f3c c2e4 9ebc e135 6b3c 17c6 b6ba
00000120: 5b7e f1bc 49f9 02bc 3c54 123c b08f 02bd
00000130: 05bb 843a 7c38 9bbc 676e 3fbc 7b74 fdba
00000140: a8d1 7d3c f896 7c3c b76f c0bc 96d8 aebc
00000150: f670 06bc d121 35bc 52cb 82bc 4241 bbbc
00000160: 0a5a 083c 9d31 e83b f63c 673c 4aad 06bd
00000170: b854 e1bc 7a1a 303c 35c4 f1bc 0a3f e6bb
00000180: 6a02 41bc 9784 03bd 45a3 873c c610 07bc
00000190: 8650 c9ba 7303 c93b 5724 2fbc 083c b8bc
000001a0: 3550 9fbc ca9a 23bc 92fe 97bc f9bd 9c3b
000001b0: 4f60 57bb 5ae2 b4bc a892 c6bc 631b 46bc
000001c0: 6414 cdbc 0a77 c539 5301 54bb 7aab edbc
000001d0: 992a 933c 19a8 bdbc a5a1 c4bb c667 1b3c
000001e0: d97c 63bc b741 973c 0f2b 9dbb 60b8 83bc
000001f0: a8bb 0cbd 5282 e73b 3e22 14b8 e37c febb
00000200: c103 43bc da60 79ba 8e6b a3bc 3fe6 edbc
00000210: 2b43 05bd e426 f5bc f160 75bc 6c48 0cbd
00000220: fb55 0cbd 7d69 6abb fd4e 08bd fba9 a8bb
00000230: 42b9 9f3b ec11 52bc efb9 dabc c2f3 123b
00000240: 1708 fdbc 4b0b d3bb 6d7e 5fbc 2ed4 18bb
00000250: f1f2 70ba 2aee ceb9 d729 353c e078 bebc
00000260: 4731 0b3c c459 dabc f6f3 963c f8b8 b9bc
00000270: 5238 e0bc 78b5 ddbb 89d2 d4bc db78 f9bc
00000280: aff4 e7bc 08e9 a33a baf5 e53b e49f 9abc
00000290: 5537 373c 4478 273a 6af3 d8bc 4cbf e8bc
000002a0: d54a 0dbd 3ccb 553c f1f3 ad3b b9dd 0bbd
000002b0: 70b4 72bb a19f 07bc ad64 1d3c cb14 08bd
000002c0: 39d8 953c afbe bcbc 6c14 6e3c c996 7d3c
000002d0: 2b1c 9bbc ca34 8a3c 3ea1 ef3b 1fe9 033c
000002e0: ec0f 9ebc 61a7 02bc 3c55 1938 cf65 54bc
000002f0: f7bc 6fbc 522c 1c3c c806 77bc eb9e a0bc
00000300: 917b cbbc 186e babc 8c63 2d3c cad8 703c
00000310: 3c52 b73a e06a e13b 1c83 c43b ef61 02bd
00000320: 0f22 903c 1c67 8a3c 557a e7bc 43e0 773c
00000330: dcab 09bc b1c8 903c d4a7 4bbc 3d2b 77bc
00000340: c701 543c 9171 d6bb f4fb 03bd d39d 33bb
00000350: 9701 08bd 1d2d 453c 432c 8dbc 9c5b ccbc
00000360: 7137 003b fd96 a13b 04ec b3bc bedc f3bc
00000370: a2f0 0fbd fa30 13bc ed6d 0ebd f84f 21ba
00000380: 747a ffbb 9cb8 213c b8f5 11bb 0b95 89bc
00000390: 545f 07bd 96bc c4ba 0b6d fabc bf7c 87bc
000003a0: 60c8 adbc 73f5 9cbc a212 aabc e197 2ebb
000003b0: 9462 05bd 1e50 aeba 5339 00bd 12de 2d3c
000003c0: bcd0 793c 5b25 f43b 740b 52ba ce38 83bb
000003d0: 08bf 7f3c f61f 383c eec7 1f3c 18a0 4a3c
000003e0: 6b6e 0ebd 93be 2f3c 0560 86bc 7ea7 e8bc
000003f0: 073a 91bb bf15 83bc de2f 0abd cc11 1c3c

fc1.bias f4 [10]
-0.05164553 0.1681159 0.13069646 0.23259751 0.29052547 -0.05855252 0.009011889 -0.20524594
-0.022748873 0.21862473
00000000: 438a 53bd 9326 2c3e 4bd5 053e 0b2e 6e3e
00000010: c1bf 943e c4d4 6fbd 9aa6 133c fe2b 52be
00000020: d85b babc 29df 5f3e

fc2.weight f4 [3, 10]
0.4699178 -0.62661093 0.48408148 0.5081602 0.60056925 0.3259423 -0.333934 0.46168366
0.26926783 -0.48444414 0.49537623 -0.61148196 0.44268888 0.48206538 0.6520542 0.28690097
-0.39905444 0.5379921 0.32573432 -0.3666385 0.4519869 -0.68028015 0.3225209 0.6040152
0.6020064 0.19941749 -0.43571654 0.40155557 0.37648565 -0.4997938
00000000: 1199 f03e 9369 20bf 87d9 f73e c916 023f
00000010: e8be 193f e9e1 a63e 66f9 aabe cd61 ec3e
00000020: 79dd 893e 1009 f8be f4a1 fd3e 158a 1cbf
00000030: 1ea8 e23e 46d1 f63e 06ed 263f afe4 923e
00000040: dd50 ccbe dab9 093f a6c6 a63e 0bb8 bbbe
00000050: d46a e73e d726 2ebf 7621 a53e bda0 1a3f
00000060: 171d 1a3f 1934 4c3e 3d16 dfbe b198 cd3e
00000070: bac2 c03e f9e4 ffbe

fc2.bias f4 [3]
-0.09981297 -0.18817884 0.069274954
00000000: be6a ccbd f4b1 40be 07e0 8d3d
